trained_cnn_withNaN.pth (torch, 456528 bytes, 8 tensors)

weight f4 [64, 9, 3, 3]
-0.08468759 0.02514956 -0.07789826 0.018247513 0.097973816 -0.10676763 -0.0753945 -0.02860067
0.0376953 -0.021211527 -0.079410285 -0.014115898 -0.056753077 -0.07322762 0.029612353 0.08050491
-0.116053924 0.13536692 -0.00645709 -0.078209564 0.14245892 0.018317044 0.08734318 0.06151241
-0.02729988 0.021419108 0.06994867 0.10411993 0.027685301 0.102785654 0.1303519 0.04639285
-0.08851525 -0.013819703 0.15382773 0.044008855 0.0018747515 -0.018561473 0.0786647 0.08887061
0.049407985 0.030771218 0.06438646 0.071413495 -0.002699408 -0.10372782 -0.020553565 0.1324122
-0.020303564 -0.062358797 -0.094143085 0.08361953 0.06603405 0.039321993 0.1013945 0.067861594
0.0014823761 0.085615516 -0.0906467 -0.027938733 0.029859887 -0.05796648 0.1131441 0.13178852
-0.12209383 0.04733009 0.01773666 0.057651773 0.07166805 -0.046960253 0.09802991 -0.07839376
0.13763313 0.03438066 0.023557141 0.08366023 -0.038495272 0.08581678 -0.16440111 0.016905192
-0.12660545 -0.0089658825 -0.054607343 0.09345811 -0.010511635 -0.034042515 -0.14001699 -0.101244174
0.14233512 -0.09425839 0.03851821 -0.09817412 0.037272725 0.10256478 -0.1120771 -0.00014718375
0.025657361 0.08825447 0.13130806 0.11791082 0.10514871 -4.3262226e-05 0.0556899 0.03941529
-0.02345991 -0.019409383 0.14070399 -0.023090258 0.06042196 0.1423123 -0.06158395 -0.117876016
-0.033936188 0.07572876 0.054835297 -0.08839736 -0.054383583 -0.0027257071 0.06532839 0.031023297
0.087161615 0.010160273 -0.12954265 -0.14038876 -0.012347732 -0.004112147 -0.11696235 0.02800477
-0.06581792 0.106195435 0.08584711 -0.08362808 -0.11765835 -0.041558284 -0.03464187 0.019367103
-0.023996962 -0.027263591 -0.059595324 0.105561025 -0.08275528 0.0065176613 0.16598456 -0.003124049
-0.019502949 -0.0032069762 0.00913082 -0.025631322 -0.09618206 -0.07895583 -0.00058584346 -0.05352054
0.005569016 0.14658946 -0.025634341 -0.13240284 0.024606582 -0.06670911 -0.014482487 0.09471247
-0.12990372 -0.216913 -0.10314029 -0.09465203 0.114733376 -0.13167787 0.07370009 0.07845579
-0.024369648 0.08753718 -0.12355412 0.005047013 0.10636982 0.067004375 0.13524541 -0.01940927
-0.012880477 -0.0358783 -0.064811215 0.09333784 0.0469 -0.06556404 0.062957175 -0.039970547
-0.020183612 -0.025607886 0.17027564 -0.06552972 0.06493654 -0.038276877 0.070309795 -0.045152787
0.027775675 0.027045453 0.004206821 0.06814253 -0.04314522 0.044647027 0.011498475 -0.08139894
0.075664766 0.006931538 -0.05362476 0.06771537 -0.049297065 0.09632802 -0.10152441 0.0004243624
-0.09145223 0.08409143 0.120882995 -0.033086326 -0.106309965 -0.0100815715 -0.09495999 0.03884183
-0.08707604 0.017470066 -0.015439422 0.07157139 0.095181674 -0.08897974 0.085304156 -0.021397945
-0.0739059 -0.11771109 0.100133084 -0.08759931 0.06639426 -0.089020774 0.09286931 0.011415038
-0.09268091 0.040451404 0.06720712 0.03862156 -0.11484323 0.09088948 -0.022452282 -0.13032396
-0.089593984 0.02643313 0.009531565 0.07207348 -0.06552804 -0.042852078 -0.062024 -0.09607543
-0.070601344 -0.13206683 0.10717801 -0.046988323 0.037633363 -0.07743713 0.06069447 0.060123812
00000000: b070 adbd 7306 ce3c 1f89 9fbd cf7b 953c
00000010: 7fa6 c83d fda8 dabd 6e68 9abd f44b eabc
00000020: 6366 1a3d ccc3 adbc dca1 a2bd 5e46 67bc
00000030: ea75 68bd 5df8 95bd 9b95 f23c c2df a43d
00000040: aead edbd a09d 0a3e ff95 d3bb 562c a0bd
00000050: c0e0 113e a00d 963c fbe0 b23d 70f4 7b3d
00000060: ffa3 dfbc 2077 af3c 4041 8f3d d43c d53d
00000070: 49cc e23c 4981 d23d f87a 053e 6e06 3e3d
00000080: 7c47 b5bd 096c 62bc 0485 1d3e a142 343d
00000090: 39ba f53a 3b0e 98bc f51a a13d cb01 b63d
000000a0: 0760 4a3d ec13 fc3c 0cdd 833d 3d41 923d
000000b0: 8de8 30bb 406f d4bd f35f a8bc 1097 073e
000000c0: a953 a6bc f06b 7fbd 17ce c0bd b740 ab3d
000000d0: dc3c 873d 1910 213d eba7 cf3d 05fb 8a3d
000000e0: 4a4c c23a 3057 af3d faa4 b9bd c5df e4bc
000000f0: b99c f43c 426e 6dbd 18b8 e73d 92f3 063e
00000100: 540c fabd 32dd 413d 794c 913c 4424 6c3d
00000110: b3c6 923d 6559 40bd e8c3 c83d e88c a0bd
00000120: b3ef 0c3e bcd2 0c3d e8fa c03c 0e56 ab3d
00000130: 38ad 1dbd b5c0 af3d c458 28be c27c 8a3c
00000140: dca4 01be a3e5 12bc f3ab 5fbd f766 bf3d
00000150: fe38 2cbc 2a70 0bbd 9d60 0fbe 1b59 cfbd
00000160: 4cc0 113e 8b0a c1bd 45c5 1d3d 830f c9bd
00000170: 49ab 183d 7c0d d23d ae88 e5bd 5655 1ab9
00000180: 632f d23c c2be b43d 9f75 063e 3a7b f13d
00000190: 3558 d73d 7674 35b8 181b 643d ed71 213d
000001a0: ff2e c0bc 6d00 9fbc b514 103e c827 bdbc
000001b0: 047d 773d 51ba 113e 743f 7cbd fb68 f1bd
000001c0: ac00 0bbd ae17 9b3d fa9a 603d ad09 b5bd
000001d0: 52c1 5ebd c7a1 32bb e4ca 853d 9224 fe3c
000001e0: ca81 b23d 4677 263c d4a6 04be 12c2 0fbe
000001f0: 244e 4abc 30bf 86bb f589 efbd 426a e53c
00000200: 8ccb 86bd fe7c d93d 9cd0 af3d 3345 abbd
00000210: dcf6 f0bd 0539 2abd a2e4 0dbd c2a7 9e3c
00000220: 4795 c4bc e557 dfbc 3a1a 74bd 6130 d83d
00000230: 9a7b a9bd 1b92 d53b dbf7 293e d8bc 4cbb
00000240: a6c4 9fbc 222c 52bb 6f99 153c c7f8 d1bc
00000250: 1afb c4bd 98b3 a1bd 4a93 19ba 5b38 5bbd
00000260: 4b7c b63b 8c1b 163e 1cff d1bc 9c94 07be
00000270: be93 c93c c99e 88bd f447 6dbc 9df8 c13d
00000280: 7b05 05be 711e 5ebe 373b d3bd ecd8 c1bd
00000290: 55f9 ea3d 90d6 06be 13f0 963d 6ead a03d
000002a0: dba2 c7bc b146 b33d f109 fdbd 6a61 a53b
000002b0: 6cd8 d93d 9739 893d c67d 0a3e 3000 9fbc
000002c0: a308 53bc 20f5 12bd bebb 84bd e927 bf3d
000002d0: 371a 403d 7046 86bd b1ef 803d 28b8 23bd
000002e0: 1a58 a5bc a1c7 d1bc bd5c 2e3e 7234 86bd
000002f0: 73fd 843d 37c8 1cbd 95fe 8f3d 21f2 38bd
00000300: d089 e33c 6d8e dd3c 5fd9 893b 508e 8b3d
00000310: 0bb9 30bd cddf 363d 1a64 3c3c 7db4 a6bd
00000320: 21f6 9a3d f521 e33b a3a5 5bbd 5bae 8a3d
00000330: b8eb 49bd a047 c53d 08ec cfbd f57c de39
00000340: 4f4b bbbd 2138 ac3d 8191 f73d 8785 07bd
00000350: 0ab9 d9bd 2d2d 25bc 627a c2bd 9c18 1f3d
00000360: ec54 b2bd 621d 8f3c a1f5 7cbc 0594 923d
00000370: 9cee c23d 033b b6bd f2b3 ae3d be4a afbc
00000380: fa5b 97bd 8312 f1bd 9312 cd3d 4467 b3bd
00000390: b7f9 873d 8650 b6bd 4432 be3d 2406 3b3c
000003a0: 7dcf bdbd 5fb0 253d e3a3 893d a431 1e3d
000003b0: ed32 ebbd 4424 ba3d d9ed b7bc a573 05be
000003c0: 0d7d b7bd 4b8a d83c 482a 1c3c 439b 933d
000003d0: 9133 86bd a985 2fbd e10c 7ebd 32c3 c4bd
000003e0: 7097 90bd 873c 07be 2580 db3d d476 40bd
000003f0: 7125 1a3d 5c97 9ebd c49a 783d 6344 763d

bias f4 [64]
0.01422345 -0.051218145 -0.030877141 -0.16110362 -0.0061858124 -0.11451545 -0.06718097 -0.096018985
-0.118156604 -0.06022947 -0.1201201 -0.06997511 -0.13438423 -0.041424226 -0.06925945 -0.14569825
-0.038412444 -0.06611993 -0.10697215 -0.019152489 -0.13824089 -0.17571948 -0.115764074 -0.13236307
-0.087950155 -0.10918177 -0.12391297 -0.09221281 -0.039379854 -0.008283863 -0.122877136 -0.05204105
-0.057465527 -0.077358626 -0.04403734 -0.1342108 -0.10876726 -0.08679567 -0.039045684 -0.10552757
-0.028196916 -0.06019072 -0.022829875 0.0045100143 0.00064929435 -0.14735875 0.049665287 -0.15019143
0.021412384 0.014119631 -0.14270999 -0.110527836 -0.043641176 -0.06196813 -0.1856877 -0.13328552
-0.11542248 -0.059273444 -0.010645805 0.041338634 -0.17183232 -0.13457432 -0.008124063 -0.026459452
00000000: 7909 693c 1eca 51bd 0ff2 fcbc 59f8 24be
00000010: 5bb2 cabb 1487 eabd 2d96 89bd 9aa5 c4bd
00000020: 17fc f1bd 2db3 76bd 8701 f6bd 1c4f 8fbd
00000030: 059c 09be 73ac 29bd e6d7 8dbd ec31 15be
00000040: 5e56 1dbd e369 87bd 3714 dbbd aee5 9cbc
00000050: 058f 0dbe cfef 33be b715 edbd 2f8a 07be
00000060: 361f b4bd b19a dfbd 15c6 fdbd 12da bcbd
00000070: c54c 21bd 0ab9 07bc 02a7 fbbd ff28 55bd
00000080: f960 6bbd 336e 9ebd 7f60 34bd 8e6e 09be
00000090: 5fc1 debd eec1 b1bd 5eee 1fbd d71e d8bd
000000a0: 38fd e6bc 8b8a 76bd b805 bbbc bec8 933b
000000b0: 6835 2a3a 36e5 16be d46d 4b3d c8cb 19be
000000c0: 0669 af3c 0656 673c 9122 12be 6b5c e2bd
000000d0: 17c1 32bd 4bd2 7dbd eb24 3ebe 007c 08be
000000e0: 9f62 ecbd b6c8 72bd be6b 2ebc b352 293d
000000f0: d0f4 2fbe dacd 09be ca1a 05bc 7ec1 d8bc

weight f4 [128, 64, 3, 3]
-8.818644e-06 -0.0006616056 7.6358076e-05 7.752938e-06 -0.0051904926 -0.0038292783 2.2715383e-08 -1.4286334e-06
-5.0214624e-07 -0.00049784145 -0.00057945034 0.00023447523 -0.0010207773 -0.0004704928 -7.515836e-05 4.360859e-15
2.464817e-07 4.0164316e-11 -7.4754116e-06 -0.000113349204 0.00022768651 1.6912065e-07 -0.0017199455 -6.87826e-05
-8.9972695e-15 2.4545963e-07 3.690539e-18 -4.7177346e-09 -0.00016110927 4.6558347e-05 -0.00031145292 -0.002235321
0.00018121359 8.0502796e-09 1.8597404e-12 3.068257e-18 -5.476678e-05 -0.0028613678 -1.1837806e-06 -0.0005092537
-0.0041853343 0.0019830887 1.531603e-07 1.324012e-07 6.2680794e-12 2.3547326e-13 -0.0004062442 5.880033e-05
-5.782625e-08 -0.0038632636 0.0064398614 2.9991027e-06 8.412012e-06 -2.0093618e-09 -3.466006e-08 -0.0003103328
-1.00667285e-05 5.275333e-05 -0.0019465141 -0.0003146804 -8.696787e-20 6.216011e-07 2.7959138e-06 -1.7829592e-06
-0.0038683603 0.00060558657 -0.00015267685 -0.002664133 -0.0006571104 3.776551e-08 8.1902634e-08 2.4958505e-10
-2.4639335e-06 -0.0009647804 -3.6441864e-07 -2.3956316e-06 -0.0011731893 0.0011667018 1.5381364e-10 1.3553991e-10
7.6165306e-13 -0.0002515344 -0.0002713095 0.0016332156 -0.0011010764 0.001881886 -0.0007821984 -9.235318e-16
-0.00022780671 0.00019742362 -3.755353e-05 -0.001084044 -1.1750854e-05 -0.00010462006 -0.00211784 -0.00043285606
-1.0227278e-15 7.3238803e-06 -4.250669e-06 -0.00012285309 -0.00024598133 -0.0008011844 2.519405e-05 -0.0037326585
-0.0012410623 7.4038326e-08 -8.505085e-06 -1.9746061e-05 -0.0006410624 -0.0024360463 -8.2064624e-05 -0.00024179144
-0.000978656 -0.0010997566 -8.782998e-15 1.2833105e-07 -0.00010648998 -3.2421497e-09 -0.00060121476 -0.0008156673
-0.0006112322 -0.004926606 -0.001890179 8.4265173e-07 8.3004716e-07 1.166555e-09 -3.2590637e-07 -0.00030670722
1.4609031e-07 1.04584174e-07 -0.0021509891 0.00018089155 2.2676667e-09 8.570372e-09 1.090304e-06 -1.1995994e-05
-9.304205e-05 -1.2057641e-06 -3.679715e-05 -0.0016079659 -0.00014768817 6.489819e-14 -2.4960883e-07 3.3887894e-31
5.179867e-12 -0.0046129604 -0.0006540487 -0.00011320923 -0.006673016 0.003244361 7.162194e-07 3.1314787e-05
-1.2509314e-09 -1.1554091e-05 4.0621726e-05 -1.6693493e-05 -8.891792e-05 -0.0032160154 -0.0012478968 -1.2240652e-14
1.0819009e-06 2.7472071e-11 -1.2132358e-06 -0.00058978575 -6.7400388e-06 -0.0009256965 -0.0024927089 -0.0001023184
7.473496e-07 1.4703328e-06 -3.9413712e-06 -0.00028529513 -0.0020066493 2.0383311e-07 -1.2575832e-05 -0.002961512
-2.393372e-05 3.3431343e-07 4.7269877e-10 2.0013289e-07 -2.1526027e-10 -0.0008330323 -6.200551e-06 -3.8524774e-09
-0.0020774095 0.00069950253 -4.0520697e-15 6.8950002e-15 6.5591955e-11 -1.142415e-06 -9.9311954e-05 0.000920091
-3.344797e-05 -0.0016780219 0.0026626019 5.012164e-15 7.883701e-05 1.5682834e-05 -6.692999e-06 1.4744275e-05
6.8258055e-07 -3.474683e-05 -0.001168465 -0.00016390585 -6.1852137e-15 4.8920668e-09 -5.263936e-18 -3.259512e-05
-0.0010838581 1.1957782e-07 -2.5279706e-10 -0.0024487807 -0.0007336286 -3.644654e-14 4.745142e-08 9.128818e-11
-8.079353e-07 -0.0010663668 -0.0015402826 -0.00018575104 -0.0010748773 -0.0004154099 1.1196863e-08 -2.3945857e-05
-3.8068843e-06 -0.0036327492 -0.0030084997 -0.0012917665 -0.0027351445 -0.00580716 0.0013386848 1.3914318e-07
4.992778e-06 -7.793571e-07 -8.836014e-09 -0.002268686 -6.160354e-05 -7.9352085e-06 -0.002413231 0.0028332458
1.1463856e-15 2.3962973e-06 2.647852e-05 -1.1791082e-05 -8.805217e-05 -1.2626965e-05 -0.0002425846 -0.0053449757
-0.0048485426 1.1447234e-14 -1.9823583e-06 4.471363e-16 -0.00015596376 -0.0011827993 -0.0004359989 -0.00014441235
00000000: caf3 13b7 9a6f 2dba 6e22 a038 9d12 0237
00000010: 0215 aabb a1f4 7abb a81f c332 78bf bfb5
00000020: 3acb 06b5 9381 02ba 41e6 17ba 77dd 7539
00000030: 9acb 85ba 7aac f6b9 569e 9db8 d31d 9d27
00000040: 3054 8434 00a5 302e 4cd5 fab6 e4b5 edb8
00000050: 22bf 6e39 8897 3534 cb6f e1ba 613f 90b8
00000060: 9514 22a8 b7c7 8334 2828 8822 a219 a2b1
00000070: 71ef 28b9 a547 4338 814a a3b9 777e 12bb
00000080: 2704 3e39 814d 0a32 1bde 022c bc65 6222
00000090: 62b5 65b8 c985 3bbb 64e2 9eb5 707f 05ba
000000a0: 2125 89bb b5f6 013b 6274 2434 2a2a 0e34
000000b0: d789 dc2c 468f 842a 2cfd d4b9 60a0 7638
000000c0: a25c 78b3 cf2e 7dbb 7905 d33b 3144 4936
000000d0: 5121 0d37 1115 0ab1 24dd 14b3 2ab4 a2b9
000000e0: 45e4 28b7 7543 5d38 2d22 ffba b0fb a4b9
000000f0: da58 cd9f 1adc 2635 6fa1 3b36 034e efb5
00000100: 5184 7dbb 3ac0 1e3a e117 20b9 bc98 2ebb
00000110: ef41 2cba 9e33 2233 73e2 af33 f935 892f
00000120: 0e5a 25b6 51e9 7cba 51a5 c3b4 a3c4 20b6
00000130: b3c5 99ba 04ec 983a b11e 292f 1807 152f
00000140: e362 562b 60e0 83b9 8b3e 8eb9 9f11 d63a
00000150: fe51 90ba 9ea9 f63a 720c 4dba 4f18 85a6
00000160: 66df 6eb9 8003 4f39 cc82 1db8 7b16 8eba
00000170: 8925 45b7 7867 dbb8 76cb 0abb f5f0 e2b9
00000180: ff63 93a6 a7bf f536 f8a0 8eb6 20d2 00b9
00000190: 0ef7 80b9 9306 52ba cf57 d337 9e9f 74bb
000001a0: 24ab a2ba 00ff 9e33 10b1 0eb7 58a4 a5b7
000001b0: f80c 28ba 13a6 1fbb 1c1a acb8 6589 7db9
000001c0: 3f46 80ba b525 90ba 6e38 1ea8 5fcb 0934
000001d0: 5f53 dfb8 80cc 5eb1 d79a 1dba 82d2 55ba
000001e0: 193b 20ba 5e6f a1bb e2bf f7ba 9632 6235
000001f0: 68d0 5e35 8154 a030 3bf8 aeb4 8ccd a0b9
00000200: 00dd 1c34 c297 e033 9cf7 0cbb b5ad 3d39
00000210: 37d5 1b31 e53c 1332 8f56 9235 6742 49b7
00000220: 921f c3b8 bdd5 a1b5 a456 1ab8 62c2 d2ba
00000230: bedc 1ab9 4223 9229 fa01 86b4 ecf1 db0c
00000240: 1840 b62c 5128 97bb 7774 2bba be6a edb8
00000250: 51a9 dabb 589f 543b 3942 4035 ff57 0338
00000260: 3ced abb0 71d8 41b7 3f61 2a38 0109 8cb7
00000270: 7279 bab8 c9c3 52bb 7890 a3ba 0b82 5ca8
00000280: d535 9135 9ba5 f12d 77d6 a2b5 da9b 1aba
00000290: 7e28 e2b6 71aa 72ba b75c 23bb c693 d6b8
000002a0: 799d 4835 4058 c535 1f40 84b6 aa93 95b9
000002b0: fd81 03bb 38dd 5a34 cafc 52b7 ed15 42bb
000002c0: 46c5 c8b7 b07b b334 38ef 0130 1ce4 5634
000002d0: 61ae 6caf da5f 5aba 540e d0b6 c05e 84b1
000002e0: 2625 08bb d25e 373a bffd 91a7 276b f827
000002f0: fd3c 902e 1555 99b5 b345 d0b8 4332 713a
00000300: 7c4a 0cb8 12f1 dbba 0c7f 2e3b 0e95 b427
00000310: 4c55 a538 a18e 8337 6c94 e0b6 2e5e 7737
00000320: 943a 3735 20bd 11b8 2e27 99ba 24de 2bb9
00000330: 87d8 dea7 1317 a831 7834 c2a2 beb6 08b8
00000340: 3e10 8eba 4d65 0034 06fa 8aaf b97b 20bb
00000350: fb50 40ba 0024 24a9 63cd 4b33 adbe c82e
00000360: e4e0 58b5 55c5 8bba 4fe3 c9ba 2ac6 42b9
00000370: e6e2 8cba 5fcb d9b9 535c 4032 56df c8b7
00000380: c679 7fb6 6b13 6ebb 402a 45bb 7e50 a9ba
00000390: 1c40 33bb fd49 bebb cf76 af3a 6367 1534
000003a0: a387 a736 0335 51b5 33cd 17b2 3cae 14bb
000003b0: 2631 81b8 7621 05b7 4c27 1ebb faad 393b
000003c0: 2a36 a526 13d0 2036 301e de37 50d2 45b7
000003d0: a6a8 b8b8 67d8 53b7 4f5e 7eb9 e824 afbb
000003e0: 86e0 9ebb 0d37 4e28 a808 05b6 d6e0 0026
000003f0: 348a 23b9 2908 9bba c896 e4b9 656d 17b9

bias f4 [128]
0.00034328198 0.023155043 0.0019918787 -0.029670913 -0.03205924 0.022064133 -0.010841582 -0.029258149
-0.008194179 0.029695591 0.022206126 0.029638952 0.0051068803 -0.006336348 0.02132356 0.0144311
-0.00459428 0.026702644 -0.037049714 -0.017062219 -0.034467682 -0.03092603 0.03024509 0.0014592063
0.012828314 0.037066992 0.014680049 -0.007652604 -0.021825248 0.013829018 -0.020032212 -0.006208393
-0.042944174 -0.005555066 -0.0043623657 2.5205962e-05 -0.009262649 -0.01836015 -0.013092079 -0.005366795
-0.005978153 0.007800149 -0.023926333 0.020057669 0.015565112 0.009717324 0.016589362 -0.00045646736
-0.031024093 -0.032301392 0.028231239 0.021768978 0.021990115 -0.0053791692 0.029791653 0.026793454
0.013415541 -0.0123604 -0.040915944 0.001030008 -0.008161436 -0.0069359 0.03532634 -0.043996375
-0.006710881 -0.0028189416 -0.024126755 -0.008898819 0.019335072 -0.031882185 6.611137e-05 -0.014505064
0.0027738768 0.03709485 0.010431409 -0.009792683 0.014558493 0.00876946 0.016931433 -0.0004647251
-0.027924187 0.02488571 0.03224228 0.0021179179 -0.015939195 -0.010457243 0.030178875 -0.025087839
-0.0018417443 -0.019741165 -0.022674263 0.012586661 0.025300864 0.009170451 -0.018874168 -0.0032437867
-0.00030672934 -0.03502674 0.028747743 -0.02132886 0.0070014894 -0.005907351 -0.013528102 0.010365011
-0.036155794 -0.015448431 -0.015358009 -0.019940909 -0.029255982 0.002762977 0.019027777 -0.03426046
-0.038054958 0.023536356 0.011029293 -0.017425979 -0.011687103 -0.007135655 0.013002051 0.008316799
0.02821576 -0.04482955 0.0034967707 -0.00035627594 -0.036700845 0.010844524 -0.011542774 0.0066327443
00000000: 87fa b339 a5af bd3c 2e8a 023b 6a10 f3bc
00000010: 8d50 03bd d7bf b43c e4a0 31bc c9ae efbc
00000020: e140 06bc 2b44 f33c 9fe9 b53c 63cd f23c
00000030: 9e57 a73b 24a1 cfbb bfae ae3c 6c70 6c3c
00000040: 9d8b 96bb 81bf da3c 71c1 17bd 11c6 8bbc
00000050: fc2d 0dbd 9658 fdbc 8dc4 f73c d742 bf3a
00000060: d92d 523c 8fd3 173d 9784 703c b2c2 fabb
00000070: ddca b2bc 1b93 623c 981a a4bc c66f cbbb
00000080: 3be6 2fbd 4507 b6bb 2df2 8ebb 6471 d337
00000090: 5ec2 17bc 0668 96bc 2980 56bc f1db afbb
000000a0: 62e4 c3bb 6498 ff3b 2801 c4bc fb4f a43c
000000b0: d004 7f3c 6935 1f3c 6ae6 873c 0352 efb9
000000c0: 3d26 febc 774e 04bd 3345 e73c db54 b23c
000000d0: 9d24 b43c be43 b0bb a00d f43c f27d db3c
000000e0: dbcc 5b3c 4683 4abc 7a97 27bd 5501 873a
000000f0: 8bb7 05bc 8c46 e3bb 5ab2 103d 8b35 34bd
00000100: f3e6 dbbb febd 38bb 79a5 c5bc 5acc 11bc
00000110: 9664 9e3c e596 02bd 46a5 8a38 a6a6 6dbc
00000120: eec9 353b c5f0 173d 80e8 2a3c 7d71 20bc
00000130: bf86 6e3c c8ad 0f3c cab3 8a3c 59a6 f3b9
00000140: 44c1 e4bc 1edd cb3c 7b10 043d c4cc 0a3b
00000150: ea92 82bc db54 2bbc b039 f73c 0385 cdbc
00000160: af66 f1ba 39b8 a1bc 60bf b9bc 4838 4e3c
00000170: c243 cf3c a93f 163c 009e 9abc b695 54bb
00000180: 84d0 a0b9 3378 0fbd 6380 eb3c ddb9 aebc
00000190: c06c e53b 7492 c1bb f9a4 5dbc 02d2 293c
000001a0: 1918 14bd 6a1b 7dbc 29a0 7bbc 1e5b a3bc
000001b0: 3eaa efbc 1013 353b 24e0 9b3c b254 0cbd
000001c0: 84df 1bbd 51cf c03c 35b4 343c edc0 8ebc
000001d0: 437b 3fbc 36d2 e9bb 8e06 553c 2f43 083c
000001e0: bd24 e73c 319f 37bd 142a 653b 8cca bab9
000001f0: a053 16bd 3bad 313c e71d 3dbc 7e57 d93b

weight f4 [256, 128]
0.005602089 0.09660482 -0.00091216154 -0.07151488 0.039599545 0.085786134 -0.00051503966 0.0013319728
-9.7475764e-05 0.054353423 0.040875282 0.04734428 0.00064013735 -0.00067652063 0.10767584 0.02295316
0.040885545 -0.0005638244 -0.046679806 -0.016889585 -0.11148482 -0.09401858 0.12091355 0.102139756
0.030339979 0.039704848 0.090589106 -0.0969261 0.024484 -0.065520726 -0.031556215 -0.00012445157
-0.08619884 0.02835103 0.13134661 0.0988141 0.010882078 0.072471164 0.0026988515 -0.10996472
-0.00089204765 0.0045101815 5.952302e-05 -0.04137035 0.08990641 0.053359833 0.020278573 -0.03871742
0.039372023 0.030237665 -0.050238017 -0.021225045 0.0013771696 -0.0005150967 -0.060647383 -0.03034242
-0.00036044492 0.0013259494 -0.06974489 -0.14860882 0.0036968575 0.06984661 0.10684906 -0.002510828
0.0046043135 0.0852644 -0.037921347 -0.023032358 0.037938442 0.07813815 0.04344523 0.0053197867
-0.023637995 -0.08147672 -0.08976694 0.013269823 0.004362547 -0.032725163 0.047516197 0.0004663492
-0.031105721 -0.094298735 0.062456984 0.04587357 0.0020049512 -0.00019905665 -0.017727636 0.02762113
-0.019114131 -0.046772156 0.006322804 0.047742482 -0.0040865624 0.10181216 -0.044328008 0.08072229
1.7376857e-05 -0.009803359 -0.054035492 -0.0016903135 -0.023038162 0.00016290176 0.04602374 0.011111648
0.008985067 -0.026475957 -0.025707018 -0.06581816 -0.010619849 0.06313087 -0.028349025 -0.01265739
0.106940754 -0.04926385 0.016317813 -0.033984635 -0.029999578 -0.100552484 -0.083217666 0.0066939876
0.015512054 0.008700301 0.008403325 -0.00047961253 -0.13441633 -0.0025317979 -0.08478294 -0.0070332186
-8.488033e-05 -0.0082161585 0.009047719 0.029994536 -0.043334074 -0.062332265 0.0034124546 0.033772238
1.55413e-05 -0.063567735 0.006527735 0.07006417 0.0061096214 -0.0017959062 -0.046032745 -0.04571743
-0.0018127393 0.04612421 -0.003984296 0.10355035 0.022771357 0.11660405 -0.038385496 0.010370426
0.048730265 -0.07349555 -0.022889853 0.08927536 0.04756008 0.02299652 0.111943625 5.3356205e-05
0.032646343 0.069546394 -0.03783888 -0.02107887 -0.023545742 0.06232042 -0.03541619 0.01997304
0.0007371037 -0.01675495 -0.008709753 -0.026806587 -0.10844505 -0.04193717 -0.031060006 0.017138029
-0.05298318 0.0038447941 0.071990035 -0.049947012 0.07190023 5.0858205e-05 -0.035222784 0.13295111
-0.0010528922 0.00019547611 -0.038478766 0.12122473 0.013051381 -0.10524001 0.011346064 -0.0095332535
0.070360206 -0.008572033 -0.029954663 0.0066346317 -0.05864481 -0.05587342 0.09854623 0.0254627
-0.027060322 0.0022300482 0.04927558 0.027324682 -0.015207309 0.046970725 -0.05837982 0.00036612203
0.033024333 0.10807909 0.0039310674 -0.011989556 -0.0018419087 0.0018592983 -0.073693976 -0.045979172
-0.019299317 0.04721499 0.030265812 -0.12305597 0.0068012024 -0.07542394 0.061409656 -0.07377835
-2.5045721e-05 0.06384286 0.10747647 -0.0334246 -0.017553067 0.00051966077 0.008237086 -0.020767514
-0.00903793 0.032076094 0.039442345 0.012413271 0.06551857 0.03608586 0.036208965 -0.006474216
0.02104661 0.07603476 0.054220732 0.019338004 -0.04790369 0.015253035 0.09588787 -0.01739532
-0.11081776 0.068744265 -0.008572372 0.0006728031 0.117547415 0.009231326 0.04077218 -0.008215495
00000000: bb91 b73b bfd8 c53d 201e 6fba 6576 92bd
00000010: 2233 223d a4b0 af3d ba03 07ba 9795 ae3a
00000020: e76b ccb8 b2a1 5e3d d76c 273d 13ec 413d
00000030: e4ce 273a 8858 31ba 2785 dc3d 4408 bc3c
00000040: 9a77 273d 9dcd 13ba 5333 3fbd 075c 8abc
00000050: 2752 e4bd d08c c0bd 86a1 f73d a62e d13d
00000060: 8c8b f83c 8da1 223d c886 b93d 3181 c6bd
00000070: ab92 c83c bb2f 86bd 1741 01bd 377f 02b9
00000080: 0489 b0bd 6b40 e83c ba7f 063e 0c5f ca3d
00000090: be4a 323c c36b 943d 37df 303b 2f35 e1bd
000000a0: 4ed8 69ba 25ca 933b 5ba8 7938 f573 29bd
000000b0: da20 b83d d78f 5a3d 401f a63c 2896 1ebd
000000c0: 8f44 213d fbb4 f73c 61c6 4dbd 25e0 adbc
000000d0: 2582 b43a 8e07 07ba 6469 78bd ab90 f8bc
000000e0: 19fa bcb9 7bcb ad3a 69d6 8ebd e92c 18be
000000f0: fa46 723b bd0b 8f3d aed3 da3d b48c 24bb
00000100: c8df 963b 1a9f ae3d 6a53 1bbd 5bae bcbc
00000110: 5765 1b3d e506 a03d a0f3 313d 9b51 ae3b
00000120: 78a4 c1bc 44dd a6bd bbd7 b7bd ac69 593c
00000130: b2f3 8e3b d20a 06bd 58a0 423d 5580 f439
00000140: 6dd1 febc b21f c1bd e5d2 7f3d ede5 3b3d
00000150: 8065 033b ddb9 50b9 8c39 91bc b545 e23c
00000160: 3d95 9cbc 2994 3fbd 862f cf3b 9f8d 433d
00000170: 92e8 85bb e582 d03d 4991 35bd ba51 a53d
00000180: 84c4 9137 459e 20bc 5254 5dbd 828d ddba
00000190: 87ba bcbc 9cd0 2a39 6483 3c3d a10d 363c
000001a0: 1a36 133c 1be4 d8bc 8697 d2bc accb 86bd
000001b0: e0fe 2dbc c24a 813d 373c e8bc f160 4fbc
000001c0: c103 db3d e4c8 49bd efac 853c 7933 0bbd
000001d0: adc1 f5bc 76ee cdbd 066e aabd 3d59 db3b
000001e0: 4526 7e3c b58b 0e3c 1aae 093c 8174 fbb9
000001f0: 6fa4 09be 85ec 25bb aea2 adbd ea76 e6bb
00000200: c801 b2b8 119d 06bc e23c 143c 1ab7 f53c
00000210: 127f 31bd 1e50 7fbd 7da3 5f3b c254 0a3d
00000220: b05e 8237 cd2f 82bd 9ce6 d53b ce7d 8f3d
00000230: 3833 c83b 9d64 ebba d58c 3cbd 3342 3bbd
00000240: 7099 edba bdec 3c3d b38e 82bb 3512 d43d
00000250: ff8a ba3c 1bce ee3d 1c3a 1dbd b8e8 293c
00000260: 6399 473d d684 96bd 8083 bbbc 00d6 b63d
00000270: 5cce 423d 3363 bc3c b342 e53d caca 5f38
00000280: 2cb8 053d 576e 8e3d f1fc 1abd 98ad acbc
00000290: 00e3 c0bc b243 7f3d 9110 11bd 809e a33c
000002a0: 313a 413a ad41 89bc 5ab3 0ebc 7d99 dbbc
000002b0: 7018 debd 4fc6 2bbd 8e71 febc 0d65 8c3c
000002c0: e404 59bd f1f8 7b3b 836f 933d 3d95 4cbd
000002d0: 6e40 933d 9550 5538 c445 10bd 5624 083e
000002e0: 3301 8aba b8f8 4c39 e99b 1dbd ac44 f83d
000002f0: 76d5 553c 1388 d7bd d7e4 393c 5d31 1cbc
00000300: 0319 903d b671 0cbc 7b63 f5bc 5367 d93b
00000310: 8a35 70bd 87db 64bd 9bd2 c93d 2797 d03c
00000320: 9cad ddbc 0026 123b 31d5 493d 03d8 df3c
00000330: 1428 79bc 6064 403d ae1f 6fbd 11f4 bf39
00000340: 8644 073d 9258 dd3d 2fd0 803b d86f 44bc
00000350: 336c f1ba b3b3 f33a deec 96bd a854 3cbd
00000360: 9a19 9ebc 8164 413d 02f0 f73c c504 fcbd
00000370: 9fdc de3b de77 9abd b188 7b3d 1b19 97bd
00000380: 4719 d2b7 0cc0 823d a01c dc3d 3ce8 08bd
00000390: 73cb 8fbc d839 083a d8f4 063c a220 aabc
000003a0: d313 14bc 3962 033d 4c8e 213d 0861 4b3c
000003b0: 9a2e 863d c4ce 133d da4f 143d a925 d4bb
000003c0: f169 ac3c 1db8 9b3d 8f16 5e3d bc6a 9e3c
000003d0: a936 44bd dee7 793c dc60 c43d a180 8ebc
000003e0: 6cf4 e2bd cbc9 8c3d 2273 0cbc 0d5f 303a
000003f0: b3bc f03d fd3e 173c bb00 273d 499a 06bc

bias f4 [256]
-0.034487378 0.05607943 -0.008453977 -0.05703138 0.08018028 0.012352623 0.00019967726 -0.005708965
0.0802706 0.002590416 -1.6946021e-12 0.047273975 0.012689908 -0.01343974 0.00038779707 0.006783244
-0.010094866 -0.00029174393 -0.0064735794 -0.058690917 0.032290284 -0.011680023 0.024723608 0.07303206
-0.002309507 -0.0660291 -0.004991819 -0.0033837901 0.046973895 -0.019781528 -0.037646607 0.015303218
-0.0003215009 -0.009791026 0.018552005 -0.0082316 -0.0021171528 0.057623304 -6.861656e-05 0.049260885
0.07803618 -0.0040943976 -0.00035381847 0.0048782392 0.060386255 0.009054304 -0.009584256 0.05089281
0.08337808 -3.9880447e-12 -0.012953066 -0.03137789 0.024254907 0.0040448173 -0.0056941947 0.03599772
-2.0368115e-12 -0.010657687 -0.0026456276 0.040274233 0.030655881 0.009387635 0.0037433698 -0.0016565602
0.06998233 0.08172873 -0.02740632 0.06689883 0.07704486 -1.9201174e-05 -0.030829612 -0.019450812
0.042069376 -8.399808e-06 0.049949504 0.009282278 -0.0002461495 -0.023387779 -0.0043022796 -0.027834807
-1.4347537e-11 0.0012636659 0.041932452 0.058408488 0.018456819 0.011224282 -0.002152265 -2.1828997e-10
0.07118594 -0.056249242 0.019043151 -0.017508578 -0.048780173 -0.03359508 0.00016300913 -0.01446002
0.097229056 0.04532903 -0.008265389 0.007898251 -0.024925688 -1.2111481e-07 0.06977447 -0.00015088583
0.051331688 -0.009921731 0.016781231 0.0800157 -0.05438545 -0.0037132406 -0.00043447633 0.07866421
0.0119696 -0.033718284 0.045808833 0.044099808 -0.012496321 -0.00083432195 -0.02399182 0.026467875
-0.057429627 0.025680818 0.011706933 0.04838951 0.07768048 0.043939803 -0.0033030857 0.029931124
-0.018790968 0.07202973 0.0651681 0.04277348 -0.000118867574 -0.032650556 -4.581116e-12 0.0033284593
0.06995246 -4.5688134e-06 -0.0011853487 0.015479692 0.0004460979 -0.00029844072 -3.050456e-13 0.0046247835
0.08160272 0.00045373992 0.07085599 0.022621911 -0.013798311 0.013232138 0.062302575 -0.014975773
-0.060329743 -0.07207651 -3.0409199e-06 -0.0119194435 -0.0002668314 0.0061074165 -1.4530286e-08 -5.470054e-05
0.007392006 -0.010857744 0.077404745 0.015631896 0.009505609 -6.077557e-12 0.006251373 -0.06499245
0.060147636 0.0046914695 -0.020744609 -0.0009155188 0.00013914901 -0.04063365 -0.035588134 0.05998239
-0.054600857 0.0827146 -0.0009833323 -0.0010939401 -0.010248914 0.080653444 -3.0343404e-07 -0.024645843
0.052646652 -0.052998565 0.055560447 -0.06400748 0.01300093 0.028047234 -0.008814553 0.06342509
-1.198416e-06 -0.032497965 -0.026707431 -0.022668472 0.08031418 0.0047155484 -0.0006235496 -1.1376873e-20
0.010778792 0.0028432014 -0.0042558946 0.02417573 0.06198612 -4.652497e-05 0.05204256 -0.00034150406
-0.026891332 -0.039638717 0.018601889 -0.015452454 -0.025026282 0.033610296 0.086756006 0.01494397
-7.266964e-09 0.03861745 -0.00022620926 0.06149449 -0.011065647 0.054243244 -0.05806695 0.0050264103
-0.024118146 0.010851041 0.0136719365 0.007498876 0.03202231 -2.801272e-09 0.0013457448 -0.00067898695
0.029228253 0.031960763 -1.1813741e-07 -0.037930787 0.020151675 -1.9652682e-05 0.016762467 0.060968924
-0.04076428 0.0009258865 0.06407726 -0.0414363 -5.067799e-05 -0.00015167701 0.0025360526 0.046874896
0.0346124 0.0718851 0.012250698 -7.73903e-05 -0.00073703536 0.05829083 0.05071326 -0.010924355
00000000: a342 0dbd 8bb3 653d 8d82 0abc bc99 69bd
00000010: 8f35 a43d a862 4a3c 7560 5139 4512 bbbb
00000020: ea64 a43d f8c3 293b 7a7e eeab 5ba2 413d
00000030: 55e9 4f3c 5b32 5cbc 3e51 cb39 fa45 de3b
00000040: f064 25bc 35f5 98b9 5220 d4bb e365 70bd
00000050: d142 043d 915d 3fbc 2a89 ca3c d591 953d
00000060: 195b 17bb 443a 87bd 6a92 a3bb 94c2 5dbb
00000070: b367 403d df0c a2bc 5433 1abd 59ba 7a3c
00000080: 1f8f a8b9 8a6a 20bc 60fa 973c d5dd 06bc
00000090: eebf 0abb 6a06 6c3d 3ce6 8fb8 c8c5 493d
000000a0: 6fd1 9f3d 4c2a 86bb b680 b9b9 a3d9 9f3b
000000b0: 9457 773d 8158 143c 4907 1dbc fb74 503d
000000c0: 20c2 aa3d 1d51 8cac 1939 54bc 1a86 00bd
000000d0: 3ab2 c63c 638a 843b 5e96 babb 5872 133d
000000e0: ef53 0fac 949d 2ebc 4462 2dbb 98f6 243d
000000f0: 0b22 fb3c 98ce 193c 5353 753b f020 d9ba
00000100: e552 8f3d 6461 a73d 3883 e0bc 4102 893d
00000110: b2c9 9d3d 3512 a1b7 628e fcbc 4f57 9fbc
00000120: f050 2c3d e7ec 0cb7 da97 4c3d b214 183c
00000130: a00d 81b9 ba97 bfbc 23fa 8cbb d205 e4bc
00000140: 9067 7cad 97a1 a53a 5dc1 2b3d bd3d 6f3d
00000150: c132 973c 0de6 373c 040d 0dbb 2a03 70af
00000160: efc9 913d 9b65 66bd 6200 9c3c 266e 8fbc
00000170: b8cd 47bd ff9a 09bd 6eed 2a39 b8e9 6cbc
00000180: 0720 c73d efaa 393d 8e6b 07bc aa67 013c
00000190: f530 ccbc c90b 02b4 ebe5 8e3d 1b37 1eb9
000001a0: 2d41 523d c28e 22bc cb78 893c 45df a33d
000001b0: 47c3 5ebd d759 73bb 6dca e3b9 b41a a13d
000001c0: 241c 443c 2f1c 0abd 0ba2 3b3d 00a2 343d
000001d0: 5fbd 4cbc 66b6 5aba 7e8a c4bc 28d3 d83c
000001e0: 543b 6bbd 9460 d23c 70ce 3f3c 1434 463d
000001f0: f216 9f3d 39fa 333d 9578 58bb 1e32 f53c
00000200: 84ef 99bc 5384 933d da76 853d 3f33 2f3d
00000210: 8b48 f9b8 97bc 05bd 062f a1ac 4822 5a3b
00000220: 3c43 8f3d cf4d 99b6 b45d 9bba 899e 7d3c
00000230: 3fe2 e939 0978 9cb9 b4b9 abaa 7f8b 973b
00000240: 541f a73d f1e3 ed39 f21c 913d 9651 b93c
00000250: 5012 62bc 9ccb 583c fc30 7f3d f25c 75bc
00000260: 521c 77bd d99c 93bd 9b12 4cb6 c549 43bc
00000270: 81e5 8bb9 b920 c83b e0a0 79b2 426e 65b8
00000280: a438 f23b aee4 31bc 6186 9e3d 760e 803c
00000290: 6abd 1b3c c4d5 d5ac 51d8 cc3b c31a 85bd
000002a0: 5e5d 763d e6ba 993b 99f0 a9bc 6dff 6fba
000002b0: 87e8 1139 786f 26bd ddc4 11bd 18b0 753d
000002c0: 26a5 5fbd 4666 a93d 28e3 80ba 8a62 8fba
000002d0: 10eb 27bc a22d a53d a8e7 a2b4 14e6 c9bc
000002e0: 04a4 573d 0615 59bd 5a93 633d 5b16 83bd
000002f0: da01 553c 50c3 e53c ea6a 10bc 03e5 813d
00000300: 43d9 a0b5 961c 05bd 8bc9 dabc 3bb3 b9bc
00000310: c37b a43d e384 9a3b b575 23ba 2fe7 569e
00000320: 8899 303c 0155 3a3b 0875 8bbb 2e0c c63c
00000330: 28e5 7d3d ce23 43b8 942a 553d e60b b3b9
00000340: 364b dcbc 355c 22bd fd62 983c 4a2c 7dbc
00000350: eb03 cdbc f3aa 093d 22ad b13d 8ed7 743c
00000360: e4b0 f9b1 552d 1e3d 9632 6db9 a5e1 7b3d
00000370: b04c 35bc 2a2e 5e3d 9cd7 6dbd 96b4 a43b
00000380: 6b93 c5bc 91c8 313c 4200 603c 22b9 f53b
00000390: d329 033d 8080 40b1 b463 b03a 0bfe 31ba
000003a0: 1770 ef3c 4ae9 023d bab2 fdb3 505d 1bbd
000003b0: 2015 a53c d0db a4b7 7151 893c 8dba 793d
000003c0: 72f8 26bd 31b7 723a f03a 833d 1cb9 29bd
000003d0: 148f 54b8 7d0b 1fb9 e733 263b e4ff 3f3d
000003e0: bbc5 0d3d 7f38 933d 27b7 483c 9a4c a2b8
000003f0: 9b35 41ba 5ec2 6e3d b5b8 4f3d 11fc 32bc

weight f4 [2, 256]
0.108656585 -0.05602993 -0.012256957 0.134638 0.08605436 0.033418585 9.278714e-05 0.01037927
-0.10917575 -0.06428542 0.0015545272 -0.047844086 -0.042259272 0.005320286 -0.015863227 0.016186189
-0.010312082 0.03773022 0.1117248 -0.11291634 -0.13305289 -0.030830748 -0.018253569 0.14595379
0.030430663 0.09453194 -1.4155187e-05 -0.0027749503 -0.039446346 0.068935044 -0.09037871 -0.10486661
0.0017538405 -0.0006807823 0.006392217 -0.06486254 2.8859813e-05 -0.12904362 -0.0010367461 0.10461383
-0.12682854 -0.086712934 0.021179501 0.0036320905 -0.07669629 -0.117795676 0.09590726 -0.05400742
0.097377844 0.00047185548 -0.095549606 -0.004928356 0.005715545 0.00019238624 0.000554578 0.035947874
1.3054094e-07 -0.0001516282 -0.08230663 0.04566071 -0.047344774 -0.10888527 0.072662435 0.00062427827
0.078602895 0.08178369 -0.04062573 0.030710649 0.08699446 -0.0038751618 -0.09835623 0.07815974
0.11655881 7.804689e-05 -0.09963752 -0.06495618 -0.0022495613 -0.07195088 0.018694965 -0.014514733
0.008395257 -0.026700344 -0.10508745 -0.084903374 0.027248668 0.07702589 -0.0035230804 -3.44919e-05
-0.08822926 -0.017571067 -0.051709246 0.11270533 -0.07394922 -0.007207752 4.4768945e-05 -0.012521672
-0.09366585 -0.10945737 0.0018218196 0.024993252 0.0032920798 -2.4391852e-06 -0.019440226 0.0007131898
-0.04641854 -0.10903658 0.11090618 0.10561648 0.10523522 0.041395213 -0.00026554888 0.10323031
0.023908487 0.011784364 0.05076991 0.13948545 -0.021773307 -0.04065306 0.08595138 0.124008656
-0.07099448 -0.13005294 0.04274959 -0.030495591 -0.095332414 -0.093423866 -0.016978355 0.011534885
0.109350525 -0.06650575 -0.033808812 -0.014098742 -0.0005803915 -0.08974756 -0.00081208866 0.09442737
0.0988687 0.0031371461 0.0066031166 0.01254179 -0.060435396 -0.0017157245 0.0048541715 -0.07019922
0.09729262 -0.0690111 -0.065340705 0.060648806 0.03197965 0.116653085 0.15231283 -0.11565371
-0.004525513 0.036304798 0.00014081907 0.0832699 -0.00055866264 -0.10061543 -0.00028775158 -0.11485151
0.027632847 -0.04847152 0.122569114 0.09862883 0.14506945 -6.74536e-06 -0.0333898 -0.056415144
-0.05701183 0.09818604 -0.09547338 -0.08351927 -0.018663041 0.06098641 0.08122373 0.053136446
0.122797936 0.13487643 -0.023538524 -0.0046412265 -0.05863091 -0.120986685 -0.0021646977 0.05874877
0.07641394 0.01615843 -0.052607045 -0.11018951 -0.08024259 -0.024989948 -0.069837354 -0.019624691
0.0025996813 0.10867809 -0.11620814 -0.011202254 0.08745673 -0.005422257 -0.0018555981 0.00051391544
0.07293202 0.061132137 0.095868714 0.107298106 -0.076854885 -0.010241169 0.12311613 -0.002269109
-0.05126442 -0.0653291 -0.08070944 -0.070559986 -0.02703628 0.09679215 -0.08516874 -0.11924031
0.018546855 -0.082339816 -0.0023332818 -0.024021925 -0.086174615 0.113325685 0.07295811 -0.09482381
-0.014062151 -0.08704734 0.0061894697 0.015995387 -0.13213843 -0.0011799425 0.01034964 -0.009031601
-0.09595395 0.03820073 -1.15643136e-32 -0.03457997 -0.001228908 6.9143402e-06 0.14175245 -0.09499577
0.02614459 0.010703861 0.11077213 -0.12131747 0.0001108942 -0.0008044009 -0.04574457 0.12425288
-0.061895173 -0.09627493 -0.012541217 -0.00038563294 0.002542961 0.124835454 0.09394987 -0.011384602
00000000: 5887 de3d a47f 65bd 67d1 48bc 8bde 093e
00000010: 453d b03d ede1 083d b796 c238 d00d 2a3c
00000020: 8997 dfbd 13a8 83bd 47c1 cb3a 29f8 43bd
00000030: 0f18 2dbd cb55 ae3b 99f3 81bc e698 843c
00000040: 02f4 28bc 018b 1a3d f9cf e43d af40 e7bd
00000050: 043f 08be c490 fcbc 8288 95bc e974 153e
00000060: ba49 f93c f699 c13d 117c 6db7 f1db 35bb
00000070: 7e92 21bd d12d 8d3d 7918 b9bd 4ec4 d6bd
00000080: 1fe1 e53a 8776 32ba cd75 d13b a7d6 84bd
00000090: fa17 f237 0324 04be 6de3 87ba c73f d63d
000000a0: 57df 01be 8d96 b1bd a280 ad3c 5e08 6e3b
000000b0: f212 9dbd dc3e f1bd 076b c43d e236 5dbd
000000c0: 096e c73d 5f63 f739 83af c3bd 0c7e a1bb
000000d0: 7749 bb3b 4abb 4939 1961 113a 143e 133d
000000e0: d22a 0c34 63fe 1eb9 6190 a8bd ba06 3b3d
000000f0: 98ec 41bd 3eff debd 0bd0 943d 9ba6 233a
00000100: 8efa a03d 357e a73d 2a67 26bd e694 fb3c
00000110: 272a b23d 6df6 7dbb fe6e c9bd 3712 a03d
00000120: 63b6 ee3d 1bad a338 c20e ccbd bf07 85bd
00000130: 606d 13bb fc5a 93bd 2f26 993c 34cf 6dbc
00000140: 438c 093c aeba dabc 1738 d7bd d2e1 adbd
00000150: 9938 df3c c0bf 9d3d 7be3 66bb 65ab 10b8
00000160: 8bb1 b4bd 33f1 8fbc 13cd 53bd 0dd2 e63d
00000170: b072 97bd 022f ecbb 4ac6 3b38 b327 4dbc
00000180: e2d3 bfbd 302b e0bd 1fca ee3a a6be cc3c
00000190: efbf 573b e2b0 23b6 1c41 9fbc 5bf5 3a3a
000001a0: 5e21 3ebd 924e dfbd c822 e33d 744d d83d
000001b0: 9085 d73d 078e 293d 5e39 8bb9 6a6a d33d
000001c0: bbdb c33c 3413 413c 1cf4 4f3d 46d5 0e3e
000001d0: ef5d b2bc d383 26bd 4707 b03d 40f8 fd3d
000001e0: 8e65 91bd 992c 05be 321a 2f3d e4d1 f9bc
000001f0: a43d c3bd 0355 bfbd 3116 8bbc d0fc 3c3c
00000200: 2bf3 df3d 2b34 88bd 1c7b 0abd 69fe 66bc
00000210: 6a25 18ba 92cd b7bd 59e2 54ba 2363 c13d
00000220: ac7b ca3d 9498 4d3b f55e d83b 147c 4d3c
00000230: 1b8b 77bd 29e2 e0ba be0f 9f3b 9cc4 8fbd
00000240: 5a41 c73d b155 8dbd 59d1 85bd e26a 783d
00000250: 18fd 023d d0e7 ee3d e5f7 1b3e dadb ecbd
00000260: c14a 94bb 57b4 143d d5a8 1339 6989 aa3d
00000270: 3773 12ba 760f cebd 5ddd 96b9 4537 ebbd
00000280: 485e e23c 138a 46bd 8405 fb3d e9fd c93d
00000290: 168d 143e 3456 e2b6 bec3 08bd 9113 67bd
000002a0: 3d85 69bd c315 c93d 8c87 c3bd 270c abbd
000002b0: 3ce3 98bc e3cc 793d a158 a63d 9aa5 593d
000002c0: 7c7d fb3d 0c1d 0a3e ddd3 c0bc 6e15 98bb
000002d0: f726 70bd dec7 f7bd 9add 0dbb 8da2 703d
000002e0: e97e 9c3d af5e 843c 7c7a 57bd 0aab e1bd
000002f0: 3a56 a4bd b8b7 ccbc e306 8fbd f6c3 a0bc
00000300: 6a5f 2a3b 9e92 de3d 89fe edbd a989 37bc
00000310: 841c b33d 30ad b1bb 8a37 f3ba 48b8 063a
00000320: 625d 953d b165 7a3d d156 c43d 1cbf db3d
00000330: 1866 9dbd 93ca 27bc 4f24 fc3d 55b5 14bb
00000340: a4fa 51bd 43cb 85bd fe4a a5bd c181 90bd
00000350: 307b ddbc f63a c63d f36c aebd 4334 f4bd
00000360: 93ef 973c c7a1 a8bd f9e9 18bb a1c9 c4bc
00000370: 517c b0bd 4c17 e83d 106b 953d fc32 c2bd
00000380: f064 66bc e045 b2bd 09d1 ca3b c208 833c
00000390: 4c4f 07be 4da8 9aba 8991 293c 48f9 13bc
000003a0: 8183 c4bd 5e78 1c3d 702e 708a baa3 0dbd
000003b0: 4f13 a1ba bb01 e836 8e27 113e 248d c2bd
000003c0: 2e2d d63c 3f5f 2f3c 80dc e23d 4b75 f8bd
000003d0: df8f e838 6ede 52ba a95e 3bbd 4b78 fe3d
000003e0: cb85 7dbd ca2b c5bd ad79 4dbc c72e cab9
000003f0: cea7 263b bba9 ff3d ca68 c03d 7b86 3abc

bias f4 [2]
-0.02548089 -0.06460714
00000000: 4dbd d0bc c050 84bd
