Vergleichsmodelle/Flat_CNN/temporal_flat/best_model_fold3.pth (torch, 212009 bytes, 17 tensors)

conv1.weight f4 [64, 6, 3]
00000000: 34fa ee3d 53ce 1f3e c47e 593d c566 283d
00000010: 7b0a 0c3e 2e82 023e e447 483e f7a7 663e
00000020: 9a83 683d 5ae7 2e3e a758 033e b0bd 813b
00000030: cf27 ffbc f6cb 94be 1672 6a3e 4099 13bd
00000040: 6f00 ca3d fbd0 9b3d 173e ca3d ae90 da3b
00000050: e723 6f3c 7476 c63c 669c 123c 015e 8cbd
00000060: 6025 1fbe 474d 923e ea9e efbd 57eb 963c
00000070: f163 1bbd fc56 c2bd e10e 4ebe 3513 443c
00000080: b02d 713d 0485 933e 0d95 64be 80a1 773e
00000090: 56e8 fcbd a114 c03d 186a 39bd 5ffe 123c
000000a0: f262 afbd ac69 ac3c 7305 393c 781a d4bd
000000b0: 041a 353d 3d5f 453e 671e 67be b0a6 b73c
000000c0: d537 c3be 1937 983d d674 aabd 0aeb 8b3e
000000d0: bd7d 13be 79fd 1c3e 1a15 1fbc 61c0 53be
000000e0: 166c f9bd 0cc5 48bd 0fd2 293d e019 7fbc
000000f0: fa39 6abe 00ad debc 5ff2 1f3e 2e2b 37be
00000100: 7334 273d ca5d 92bd 0892 7dbe 8ffd 64be
00000110: d484 05be 33d6 9c3d 6212 f13b 55c6 0dbe
00000120: 2c2c 81bd 4a7b a5bc bca8 d93d 9ac4 d03d
00000130: 9efb c6bd 5f18 cebd cf01 d0bd 74c6 b73c
00000140: 3be2 b0bd 5cb9 5dbd d71f 2f3e 62ca 7e3e
00000150: a417 873c f790 afbc f594 2abe f46d 80be
00000160: 70d1 e73d 63bf 3f3e 5294 a0bd 2cc4 8f3d
00000170: f013 fbbd b188 2bbe 1b5d 013e 46c5 a03d
00000180: 263d 09be 20d3 823b e867 043d 8612 13bd
00000190: b67a efbd b41c 43be b650 8dbe dcd3 1bbd
000001a0: dad9 39be b124 5dbd 3e17 9c3e 7e02 113e
000001b0: 0bdf c93d 40de b9bc 102b dfbd 7b28 353d
000001c0: d060 db3d 365d 673d 4b5f e93d d375 1dbe
000001d0: b637 5c3e 426c a53c 02c7 0fbd de07 22bd
000001e0: 421c 62be 55a3 49bd 7d84 85be ae14 863d
000001f0: 0303 1bbd 27d8 15be 2a67 41be 43af 2ebe
00000200: eb5c e93d b086 253e 85b9 18be 624f 1fbe
00000210: 37c9 efbd 807f 11be 9853 4f3d da64 a0bd
00000220: d287 7dbe c441 f13d 565a 57bb 1fba 45be
00000230: c22d 2ebe 9eef 0abe dd51 53be 4a7b 813e
00000240: b47b 3f3e 1b7e debc 741c 4cbe 1633 023e
00000250: 8852 11be 399d 023d 033d e83d ade1 8ebd
00000260: 92a6 11be 82aa d7bd 87a7 d53c 2519 bb3d
00000270: 10c8 8fbe 07dc 2b3e d200 16be c61f 6f3e
00000280: 3ddb 5e3e 28c1 59be 7758 01be 2af9 bf3d
00000290: 91b5 e03c 8a9b 39bd 2b02 823a ee84 6f3e
000002a0: e82a 29bd abbb 5f3e 212d 80be 58fd a63d
000002b0: 7787 723d 70d7 4fbd d483 453d 883f be3b
000002c0: 0529 783d f3f4 35bc 054a 1fbe 8094 623e
000002d0: d00f 093e c110 e2bd 5459 adbd 944c fdbd
000002e0: 0128 103e b1a2 ec3d b1ab a03d 7816 c33c
000002f0: 8ac1 463d c990 b8bd c0c8 a13d 7753 2c3e
00000300: 743e 833e 6913 77be 23a2 79be 48f3 7c3d
00000310: 95ff 773d 8572 913d 7b65 0abd b705 c23d
00000320: 1d76 81be ea70 d8bd 4643 aa3d 6113 9abd
00000330: 9294 36bd 5371 2f3e 8a38 7c3e 3a7d c23d
00000340: 5d2d c33c 0eae 8ebc 7d5e a93e c396 8ebc
00000350: 23fd 67be f85c 4d3d 53f0 dfbd 8472 94bd
00000360: 39bb 25bd c7aa 243d 1324 c23d fcd7 0d3e
00000370: d0c4 103d f46c 18ba 20c3 b5bd eb5e b73d
00000380: 8afe b8b9 5464 0d3e fb9c 94bd 3e2d 28be
00000390: c149 063e ef80 d2bd c434 e23c 99bd 42be
000003a0: b69a 9f3e 3954 18be 2a46 4dbe 299b 4d3e
000003b0: 8e65 043e 5a74 97be baee 823e 730d ad3c
000003c0: 947b 6b3d d44e 663e e03c 7cbe 139a 23be
000003d0: 08e6 9dbe 88ed 2fbc 0e95 1fbe d3e2 e83d
000003e0: 9884 05be ae85 21bd e320 313a 9a55 293d
000003f0: 7f51 babb 74c3 4e3e 9399 7fbd ed0c f13d
0.11668816 0.1560605 0.05309941 0.041113634 0.13675873 0.12744972 0.19558674 0.22525011
0.05676613 0.17080441 0.12826787 0.00395938 -0.031146912 -0.2906186 0.22895083 -0.036034822
0.09863364 0.07608219 0.09875124 0.006670079 0.014595962 0.024226405 0.008948421 -0.06853867
-0.15541601 0.28574583 -0.11700232 0.018422766 -0.03793711 -0.09489247 -0.20122863 0.01196747
0.05888146 0.2881242 -0.22322483 0.24182701 -0.12349002 0.09378935 -0.045267195 0.00897178
-0.08563794 0.021046482 0.011292803 -0.10356611 0.044214264 0.19274612 -0.22570191 0.02241835
-0.38128534 0.07432384 -0.08323066 0.27327758 -0.14403434 0.15331067 -0.009709621 -0.20678855
-0.12178819 -0.049016044 0.041460093 -0.015570134 -0.22873679 -0.027182102 0.15619801 -0.17887565
0.040821504 -0.07146795 -0.24762738 -0.2236235 -0.13038951 0.07658043 0.0073569277 -0.13845189
-0.06307253 -0.02020039 0.10627887 0.10193749 -0.09715961 -0.10063242 -0.10156595 0.022433497
-0.086369 -0.05413185 0.1710199 0.2488189 0.016490765 -0.02143143 -0.16658385 -0.25083888
0.11319244 0.18725352 -0.0784079 0.07019839 -0.12259662 -0.16751362 0.12633173 0.07850127
-0.13402233 0.003992453 0.032325655 -0.035906337 -0.11693327 -0.19053918 -0.2760064 -0.03804384
-0.1814951 -0.05399007 0.30486482 0.14161107 0.09856995 -0.022688985 -0.108968854 0.04422806
0.10711825 0.056485377 0.11395129 -0.15376978 0.21505627 0.020193223 -0.035101898 -0.039558284
-0.22081092 -0.04922803 -0.26077643 0.06546913 -0.03784467 -0.14633237 -0.1888701 -0.17059045
0.11394676 0.1616466 -0.1491452 -0.15557626 -0.117083006 -0.14208794 0.05061683 -0.07831736
-0.24758843 0.11780122 -0.003286024 -0.19309281 -0.17009643 -0.13567969 -0.20636697 0.25289375
0.18699533 -0.027159741 -0.19932729 0.127148 -0.1419164 0.03188822 0.11339762 -0.06976638
-0.14223698 -0.10530569 0.02608086 0.09135655 -0.28082323 0.16783153 -0.1464875 0.23351964
0.2176332 -0.2126509 -0.12631403 0.09373696 0.027430328 -0.04531435 0.0009918859 0.23390552
-0.041300684 0.21848933 -0.2503443 0.0815379 0.05921122 -0.050742567 0.048221424 0.0058059134
0.060585994 -0.011105764 -0.1555558 0.22126961 0.13384938 -0.11038352 -0.084643036 -0.12368122
0.1407776 0.115544684 0.078452475 0.023814425 0.048524417 -0.090119906 0.07899618 0.16828714
0.25633585 -0.24128498 -0.24378256 0.06175545 0.060546476 0.07101921 -0.033788186 0.09473746
-0.25285426 -0.10568412 0.08313613 -0.075232275 -0.04457528 0.17133074 0.24630943 0.09496541
0.023825342 -0.01741698 0.330799 -0.017405873 -0.22655158 0.05013749 -0.1093451 -0.072484046
-0.040461753 0.04020193 0.09479537 0.13851923 0.035343945 -0.0005814575 -0.08875108 0.08953651
-0.0003528486 0.13807803 -0.07256504 -0.16423509 0.13114072 -0.102784984 0.027613051 -0.19017638
0.31172723 -0.14875878 -0.20046297 0.2007872 0.12929365 -0.29580957 0.2557276 0.021124577
0.0574909 0.22491008 -0.24632597 -0.15976743 -0.30839562 -0.010737784 -0.15584204 0.11371388
-0.13038862 -0.039434128 0.00067569147 0.0413414 -0.0056859846 0.20191747 -0.06240232 0.117700435

conv1.bias f4 [64]
00000000: 32f5 c53c fce8 433e 1c0e 42bc 07fd f8bd
00000010: 5eb7 493e aee2 3fbe d531 7a3d cbbc bf3c
00000020: e192 36be 19aa 2b3d 17b3 363e eed2 3ebe
00000030: 11d3 babd 482c ccbd 3274 333e 5e37 9cbd
00000040: 7df5 ab3d 07ff 12bd 116a 4dbe 48e6 d4bd
00000050: dfb2 5bbe 6e7c 74be 0b38 70be 69fa fcbd
00000060: d245 00be 4add 43be 81ff 97bc 5cee 55be
00000070: a29d 61be 7da6 373e b832 1e3b 5c1c 093e
00000080: c00f 563e 8f86 58be 1253 1cbd 52af c1bd
00000090: 94f7 5fbe 2565 3f3e 4852 60be 1bac 9dbd
000000a0: 7c7b 593e ff59 21be 7b17 cabd 296e 1e3e
000000b0: f5bf 5bbe f6c4 5cbe f22b b43d 283e 6fbe
000000c0: e3e5 56bc e770 5bbe b7f4 713b cf35 283e
000000d0: 4c89 193e beb8 043e ec40 d8bd 3281 c7bd
000000e0: 0d59 713e 7f6d 543e 84c8 673e 7e25 86bc
000000f0: 28ad 153e 05b0 8ebd 7677 4fbe d24c 48bc
0.02416477 0.19131845 -0.011844184 -0.12157636 0.19698855 -0.18738815 0.06108268 0.023405453
-0.17829467 0.041910265 0.17841755 -0.18635151 -0.09122289 -0.099693835 0.17524794 -0.07627748
0.083964325 -0.035887744 -0.20059992 -0.10395485 -0.21454953 -0.23875591 -0.23458879 -0.123524494
-0.12526634 -0.19127384 -0.018554451 -0.20891708 -0.22032788 0.17934604 0.0024139117 0.13389724
0.20904446 -0.2114508 -0.03816516 -0.09457268 -0.21871787 0.18690927 -0.21906388 -0.07698842
0.21238512 -0.15756987 -0.0986776 0.1547171 -0.21459945 -0.2155951 0.087974444 -0.23363554
-0.013116333 -0.21429788 0.0036919543 0.16426776 0.14993781 0.12961099 -0.10559258 -0.09741439
0.23569126 0.20744894 0.22635084 -0.0163753 0.14616835 -0.06967167 -0.20260414 -0.012225347

bn1.weight f4 [64]
00000000: 40ce 833f d525 a53f d3ae 613f 6b1e 7a3f
00000010: 7509 9b3f 8f81 963f 856a 8b3f b424 733f
00000020: ef94 743f cd3c 653f 7a9a 953f 2852 883f
00000030: 2326 6b3f 5eff 973f ad32 553f 1306 6f3f
00000040: b664 5f3f 905e bc3f 6502 703f 61dd 603f
00000050: 68eb 6c3f e824 5d3f 4772 7b3f aa02 7a3f
00000060: c6a2 823f 22a7 933f c82c 8d3f d225 593f
00000070: f482 4e3f 79f9 6b3f 85ae 703f a718 763f
00000080: 15a2 a83f 5e01 8f3f 14f1 7a3f 9e87 813f
00000090: 4577 943f 4a81 6f3f 7eeb 853f 1477 5b3f
000000a0: 266e bd3f b929 753f 0fb8 883f ed61 683f
000000b0: 8f0c 413f bd01 a43f ee18 903f 8e33 9f3f
000000c0: 6626 8e3f 650c 683f 0336 6f3f 72fd c93f
000000d0: f005 743f 145c 883f 4b59 823f be51 bf3f
000000e0: 4e8f 863f b44a a33f d5d5 c23f 23ac 9f3f
000000f0: 3008 783f f152 6c3f 56e8 723f be54 803f
1.0297318 1.290217 0.88157386 0.97702664 1.2112261 1.1758288 1.0891882 0.9497788
0.95539755 0.895459 1.1687768 1.0650072 0.91855067 1.1874807 0.8328045 0.93368644
0.8726305 1.4716358 0.93753654 0.878378 0.925467 0.8638444 0.9822125 0.97660315
1.0205925 1.153538 1.1029291 0.84823334 0.8066857 0.9217754 0.94016296 0.96131366
1.3174464 1.1172292 0.98024106 1.0119512 1.1598898 0.93556654 1.0462492 0.85728574
1.479924 0.9576679 1.068117 0.9077442 0.7540979 1.281303 1.1257608 1.2437608
1.1105468 0.9064391 0.9344179 1.578047 0.9532156 1.06531 1.01835 1.4946821
1.0512483 1.2757173 1.5221506 1.2474407 0.96887493 0.9231406 0.94885767 1.0025861

bn1.bias f4 [64]
00000000: 4270 9abe a60c 8cbe 101a ddbe 7da6 47be
00000010: f4d5 5cbe f824 bcbd 6b3d 3abe 850a b3be
00000020: f9ff b1be 2635 f8be a682 71be d35b b5bd
00000030: a711 cabe f2d2 afbe 5efb 7dbe e5d5 01bf
00000040: b356 d5bd a661 cbbd c5e9 59be 2938 02bf
00000050: b8aa d5be a05f efbe ffd5 6dbe fcb2 82be
00000060: 70d3 ccbe 794b 9ebe 749b a8be dbd7 c4be
00000070: 7bb0 98be 82cd babe f321 a6be f396 9bbe
00000080: 6d9c 76be dd9e c7be 11c5 a5be 15f2 6fbe
00000090: cb64 bfbe 246a 64be 05cb dbbe d0ee f5be
000000a0: b32e 72bd 854e eebe 06fc c6be 4074 bcbd
000000b0: e88d e1be d4b8 73be 5d2c 79be 6751 89be
000000c0: 6807 b0be dda4 4cbe 4997 cbbe 7b52 833c
000000d0: 4697 debe 495d d3be 4dd4 dcbe 9ac7 99be
000000e0: 2198 36bd bdf6 85bd 7ddb 3d3e a94f e1be
000000f0: 671a d7be eacf c3be a7e1 e7be d4b5 c9be
-0.3016377 -0.273534 -0.43183947 -0.19497104 -0.21565992 -0.09186739 -0.18187492 -0.34968963
-0.34765604 -0.4847805 -0.23584995 -0.08855405 -0.39466593 -0.34340626 -0.2480292 -0.50717
-0.10416927 -0.09930734 -0.21280582 -0.50866944 -0.4173181 -0.46752644 -0.23226164 -0.2552718
-0.40005064 -0.30916956 -0.329311 -0.38445935 -0.29822144 -0.36484915 -0.32447776 -0.30388603
-0.24083109 -0.3898839 -0.32376912 -0.2343219 -0.37381586 -0.22306114 -0.4292833 -0.48033762
-0.059126567 -0.4654428 -0.38864154 -0.092018604 -0.44053578 -0.23800975 -0.2433333 -0.26819918
-0.3438065 -0.19984765 -0.3976386 0.01603054 -0.43474787 -0.41282108 -0.43130723 -0.30035096
-0.044578675 -0.06541202 0.1854076 -0.44006088 -0.4201233 -0.38244563 -0.45289347 -0.39396536

bn1.running_mean f4 [64]
00000000: 25af 873d 3c34 243e c6b1 87bd 11fc 0bbe
00000010: dee1 423e ab13 79be 8dac 283e 78f8 193d
00000020: a337 6ebe 7138 823d 772a 053e 5e05 97be
00000030: 23ad 01bd 0e4f 43bd 3285 893e edd0 b1bd
00000040: 8343 443e 541c e9bd 2462 3ebe ddea 94bd
00000050: 021a 2cbe 41c0 5abe 732c a9be 67cc 21bd
00000060: feae a0bd 8460 8bbe e19d 063d f7e8 58be
00000070: d85e b1be 2a16 1e3e 3cdd d23d fd08 7abd
00000080: ab9f 8c3e 6e85 33be 8a64 0a3c fbfd 3c3d
00000090: 840e 90be 78b5 373e 98ec 81be 7dff debd
000000a0: 79ad 7e3e 05fc 15be f118 dcbd 94df ab3e
000000b0: e225 4fbe 31a2 84be c71c 573d 9adf 78be
000000c0: 1e96 cfbc ae28 d3be 7791 003d b546 053d
000000d0: 5ab3 363e 4202 8c3e a899 02be 0ba0 1cbe
000000e0: fed1 6d3e e3df 7d3e ea37 fe3d f3e4 923c
000000f0: a45a 503e 7164 ceba 5d63 04be 533c c13d
0.06625203 0.16035551 -0.066257045 -0.13670374 0.19031474 -0.24323909 0.16472073 0.037590474
-0.23263411 0.063584216 0.1300448 -0.29496282 -0.031659257 -0.047682814 0.26859432 -0.086824276
0.19166379 -0.11382356 -0.18592125 -0.07271359 -0.16806796 -0.21362402 -0.33041725 -0.039501574
-0.07845877 -0.27222073 0.03286541 -0.21182619 -0.34642673 0.15438142 0.10296103 -0.06104373
0.27465567 -0.17531368 0.008446822 0.046140652 -0.28136075 0.17940319 -0.2537582 -0.10888574
0.24870862 -0.14646919 -0.10746945 0.33569014 -0.20229295 -0.25904992 0.05251768 -0.24304047
-0.025340136 -0.41241974 0.031388726 0.032538135 0.17841855 0.27345473 -0.12753928 -0.15295427
0.23224637 0.24792437 0.124130085 0.017931437 0.20347077 -0.0015746487 -0.12928529 0.09435334

bn1.running_var f4 [64]
00000000: 3652 8e3e 50f8 6b3e 2241 513e 0138 273e
00000010: ba44 603e 49f2 803e 584f 513e 6035 2a3e
00000020: 7537 873e d704 733e e3b2 333e 5a74 993e
00000030: d48d 313e 0f0d b83e d868 563e 4a76 de3d
00000040: d1c8 823e 0abc f53d 3079 bf3e cc51 9f3e
00000050: fd83 7e3e 5d26 983e e672 773e ef8a 703e
00000060: 5a28 7c3e 95a5 a83e 000e 013e 21a0 303e
00000070: 0f14 9d3e 995b 563e 2646 573e 504f cc3e
00000080: 3b9f 803e 38ed 703e 1daf f43d 3236 903e
00000090: ff29 c43e cfa2 453e 49c3 533e 2044 e93d
000000a0: 8822 6f3e 3fbc 203e 11f2 333e 68f4 e93e
000000b0: 4764 a73e 6883 613e 92f5 403e 7df6 5d3e
000000c0: 7c5b 9f3e 3167 8d3e 89c2 b43e 8354 d93e
000000d0: d84d 5c3e 2aeb 8c3e 3c3e 993e c385 3b3e
000000e0: 2186 ba3e f6b5 6a3e 8e79 ac3e 5e59 ea3d
000000f0: d11a 7d3e 0376 303e f1e3 b43e f56e 663e
0.27797097 0.23043942 0.20435002 0.16329958 0.21901217 0.2518485 0.20440423 0.16621923
0.26409498 0.23732315 0.17548709 0.29971582 0.1733926 0.35947463 0.20938432 0.108624056
0.25543836 0.11998756 0.37397146 0.31117094 0.24855037 0.2971677 0.24164924 0.23490499
0.24624768 0.3293883 0.12602997 0.17248584 0.30679366 0.20933379 0.21022853 0.3990426
0.25121483 0.23527992 0.11947463 0.28166348 0.3831329 0.19300388 0.20679964 0.11389947
0.23353016 0.1569681 0.1757281 0.4569428 0.32693693 0.22022784 0.18843678 0.21676059
0.31124485 0.2761779 0.3530467 0.4244729 0.2151407 0.27523166 0.29930294 0.18312745
0.36430457 0.22920975 0.3368649 0.11442827 0.24717261 0.17232518 0.35330155 0.22503264

conv2.weight f4 [128, 64, 3]
00000000: 8875 e7bc 021c 48bd 2825 64bc ff92 e93b
00000010: a616 96bd 51aa 673d 2056 15be d9c3 51bc
00000020: 2331 15bb 5150 8fbd 08be a83b 0d7f 3cbc
00000030: 1066 aebc c3f0 3cbb c695 b93c 10fd c3bd
00000040: 69d7 c83a 9c4c b73d 2ff6 58bd 777d 023d
00000050: 1693 493c f6a0 83bd 1da6 6c3d 525c e03c
00000060: de7b c1bc fe63 15bd ce0c 0e3d b177 173c
00000070: 6633 f6bd d07f b73c cb10 5bbc 2dc9 a33d
00000080: 34fc b3bd 26a9 793d 7e7b 193d c0eb 8a3b
00000090: 6de8 cfbd e9f0 9dbc 9a54 3d3c 0404 9bbd
000000a0: 5201 873c faec 233d c151 ed3c 9fcf 6abc
000000b0: 4c08 81bd cd2b e8bd fa4b 04bd e826 0e3d
000000c0: 3a7e b53d 96e9 993d da35 2abd 8b0b c13c
000000d0: d6b3 f1bc 129c 5a3d 933f 57bd 627c 9b3d
000000e0: 9969 72bc 528a 013e 41b9 b3bc 5e4a 683b
000000f0: e6d2 69bd 9f05 7e3d 3d90 74bd 1e03 0dbe
00000100: efea e23c a4e0 b1bd da06 813c b03e 87ba
00000110: 4b9f 32b8 04b7 8cbd e9e6 cdba a48c e53c
00000120: 9684 493d d9a9 dfbd a1d0 0c3d df70 febc
00000130: 2d2c 5b3d 57eb 0e3d a854 873c 49ce 023d
00000140: df59 4bbd 9db9 cfbd 231c 623b 9c92 963d
00000150: 9452 8bbc a8df f03c a3cc 66bd a833 dd3d
00000160: ca53 b8bd 2d2a c93a 1245 c0bd 8110 4e3d
00000170: d0b7 03bc 9178 35bd 39bd bcbc cd3c 403d
00000180: 8d53 533d 51c5 07bc 6fa4 a9bb d109 8c3c
00000190: d16c edbc 3917 4fbc 7e47 05bd 3d92 9b3d
000001a0: 2027 3dbd f63f bb3d 1feb 0cbd 9ca5 dcbb
000001b0: fbf2 dfbd 955f 5bbb afc0 aebc 7629 54bd
000001c0: be4e 57bd 3fd6 c8bc 4e43 5abe eaa9 b33d
000001d0: 4d66 78bd 4442 66bd b57b dabc 8921 343d
000001e0: e041 8c3d 92e9 983b e7a7 8fbd 53ef 9fbc
000001f0: a944 bb3b 221f 8b3b db52 59bd f347 923c
00000200: 56e9 a73b c1ec 413d 5fc6 8a3c 6ece bbbd
00000210: 470b 5fbe b0e7 033c f143 9ebd a336 453d
00000220: 33ee f23b 292b b1bd 584d 8fbc 1155 eabc
00000230: 4fd7 423d 5567 a5bd 2afa 0b3d 3db1 583c
00000240: ae27 2abc d76e f7bb 659c 0fbd f45b 1a3d
00000250: 5d7e ce3b 3e31 afbc bc51 6c3d fa45 97bd
00000260: adb1 1ebc 771d 17bc 1776 723c 8793 b73b
00000270: ab91 b03b c22c 6ebd 48bc 483c fa69 70bd
00000280: b892 833d ae6f 3f3d 0345 7ebd 708b b8bc
00000290: a8c6 823d 6044 b3bd 3d83 e2bb a6d7 f43b
000002a0: 72e2 6a3d 7516 75bc 9c62 1bbd 8404 f43a
000002b0: fbb8 d03c d18d a7bc b36c 2d3d 967d 8bbc
000002c0: 7095 cbbc 56b7 a33d 71e9 4f3d e2ed 4bbe
000002d0: 391e 9f3c dab5 90bc 311a 4d3b 3b9a c7bb
000002e0: 3331 b83d 36ef 80bd 41da 813c 9de7 e3bd
000002f0: 87ff 1d3d ae40 7abd 1401 353d 12b9 163b
00000300: 05cd a53b 0081 2a3d 98cc 15bc ece4 05bd
00000310: 0d77 9f3c 9bd4 a03d 68f7 bb3d c4d0 c93d
00000320: 16a6 a2bc 7ba7 a6bd b1ca 54bd dbcb 1f3d
00000330: ab56 15bb 9470 5b3c fbcb 64bd 58d7 80bd
00000340: 5772 873d fa1f f33b c1c3 bebc 1cd0 44bc
00000350: 8ec6 8c3d 41ad d23c 2378 86bd 4cb7 0b3d
00000360: a48d 013d 7995 a3bc 790d 903d 3e93 2d3d
00000370: b4cf 18bd a356 1d3c f48a 29be 61fe 683c
00000380: c70d 8a3d 251e 3bbd b438 58bd c438 4a3d
00000390: c892 46bc 1662 0e3e 155d e6bb 0e84 17bd
000003a0: 9e61 f03c a48e 523d efa0 6d3c ea7e 02be
000003b0: b1dc 683d c083 783d e270 69bc a03d 4ebc
000003c0: 2dcb a03c ec7a 20bd 8d0e d23c de0f 843c
000003d0: a62a 2b3d 73eb 8a3d 8fcc 64bd 2040 dc3b
000003e0: 47ea 823d cfb7 34be a3d3 dc3b 1edf 58bd
000003f0: 7ef8 b7bc f941 a9bd 3953 72bb 25b8 293d
-0.028254285 -0.048854835 -0.013924874 0.007128119 -0.073285386 0.05655891 -0.14583635 -0.012803041
-0.0022764883 -0.06997741 0.0051496066 -0.011504901 -0.021288902 -0.0028830029 0.022654425 -0.09569752
0.0015322986 0.08950159 -0.052969154 0.031857934 0.012303134 -0.06427185 0.057775605 0.027387772
-0.023618635 -0.036472313 0.03468018 0.009244845 -0.12021522 0.022399813 -0.013370703 0.079973556
-0.08788338 0.06095233 0.037471287 0.0042395294 -0.101517536 -0.019279914 0.011555815 -0.07569125
0.016480122 0.04002092 0.028969647 -0.014331727 -0.06300411 -0.11336479 -0.03229902 0.034705073
0.088619664 0.07515256 -0.041555263 0.023565074 -0.029504698 0.053371496 -0.052550863 0.075920835
-0.014795684 0.12650421 -0.021938922 0.0035444717 -0.057085894 0.06201708 -0.05970787 -0.1377072
0.027699916 -0.08685425 0.015750337 -0.0010318365 -4.258686e-05 -0.06870845 -0.0015709075 0.028021164
0.04919871 -0.10921068 0.03437865 -0.03105968 0.053508926 0.034892406 0.01651986 0.03193501
-0.049646255 -0.10142825 0.0034501634 0.07352182 -0.01700715 0.029403523 -0.0563475 0.10800868
-0.090003565 0.0015347652 -0.09388174 0.050308708 -0.00803943 -0.044304434 -0.023039447 0.046932984
0.051593352 -0.00828679 -0.0051770727 0.017094525 -0.028982552 -0.012639814 -0.032538883 0.07596252
-0.04617989 0.09143059 -0.034403916 -0.0067336094 -0.10935017 -0.003347372 -0.021332113 -0.051797353
-0.05256533 -0.024516223 -0.21314737 0.08772643 -0.060644437 -0.05621554 -0.026670316 0.043977294
0.06848502 0.0046665156 -0.07014447 -0.019523298 0.005714972 0.0042456547 -0.053057533 0.017856574
0.0051242514 0.047344927 0.016940294 -0.09170233 -0.21781646 0.008050844 -0.077278025 0.04814781
0.0074136495 -0.0865081 -0.017492935 -0.028605016 0.047568616 -0.0807635 0.034174122 0.013225851
-0.010385437 -0.007551055 -0.03506126 0.03768535 0.006301685 -0.021385785 0.057695135 -0.07386394
-0.009685916 -0.009223334 0.014798663 0.0056023034 0.0053884587 -0.058148153 0.012251921 -0.058694817
0.06424469 0.046737365 -0.062077533 -0.022527426 0.06385547 -0.08753276 -0.0069126175 0.0074719964
0.05734486 -0.014958967 -0.037935838 0.0018617068 0.02547883 -0.020453366 0.04233999 -0.017027657
-0.02485153 0.07993953 0.050759736 -0.19914964 0.019423591 -0.017664839 0.003129613 -0.0060913838
0.08993759 -0.06295626 0.015851142 -0.11128161 0.038573768 -0.06109684 0.04419048 0.0022998494
0.0050598406 0.04162693 -0.009143017 -0.03268902 0.019465948 0.07853051 0.09178048 0.09854272
-0.019854587 -0.08137413 -0.051951114 0.03901277 -0.0022787254 0.01339354 -0.055858593 -0.062910736
0.066136055 0.0074195834 -0.023286702 -0.012012508 0.06873809 0.02571738 -0.06565883 0.034110352
0.03162922 -0.019968735 0.0703382 0.04237675 -0.037307456 0.009603175 -0.16556913 0.014220805
0.06740909 -0.045683045 -0.05278845 0.049370542 -0.012119956 0.13904604 -0.007030139 -0.03699117
0.029343423 0.051405564 0.014503702 -0.12743726 0.056851093 0.06067252 -0.014248105 -0.012587935
0.019628132 -0.039179727 0.025641704 0.016120847 0.04178872 0.067831896 -0.055859145 0.0067215115
0.06392341 -0.17648242 0.0067390963 -0.052947156 -0.022457357 -0.082645364 -0.0036975874 0.04143538

conv2.bias f4 [128]
00000000: adf3 303d 35f6 c2bc 303b b43c 471a 1c3d
00000010: b79a 9ebc 599b 863d 21df a0bc 4685 5abd
00000020: af9b 713d 69c8 5cbc abbb 5abd 7c33 4d3d
00000030: 9752 863d beae b5bc 86e7 073d 9b33 843d
00000040: 208a 89bd d337 a7bc fb58 8b3d f77c d93c
00000050: 7648 83bd 774c 6dbd 7b08 db3b dc03 9ebc
00000060: 2d98 323d dd1c 903c 1930 983c eac5 90bd
00000070: 2297 853c a749 3e3d a958 b83c 3dac db3c
00000080: 8e71 bdbc dcf8 943d 2fa8 2e3d 5fdd 923d
00000090: 62c2 64bd dc94 913d 24a6 e83c c7de 31bd
000000a0: 06ac 5cbd d99f babb 2a7e 91bd 6909 113c
000000b0: f084 1ebc 17b2 42bd f986 34bd 95a8 213d
000000c0: c8d0 85bc 2771 75bd 227b 82bb 28bf f73b
000000d0: bedb eabc 3b58 52bd d457 243d f1c8 743d
000000e0: 6e7b c9bc a7db 663d eee3 8a3d 1f1f d2bc
000000f0: be9d 7ebd 46a3 453d 1329 833c fe41 2a3b
00000100: a792 b73c 0089 4d3c 542f 2a3d 54b8 473d
00000110: 34e4 74bd e154 243d 095b b23b 4d46 843d
00000120: 0502 4d3d 02df 2abb 871f 15bd 44e4 333d
00000130: 11b7 6cbd 9ed9 693d 11e1 3fbc 4ffd 14bd
00000140: 22fc fd3b aabc 11bd a51b 463c 3fb3 ebbc
00000150: 9709 ee3c c9c7 b53b 0bdc ef3c a494 c33c
00000160: f445 78bd 654d 5c3d 38ec 823c af2a 5b3d
00000170: 56a0 4ebd f77c 88bd de72 e53c 32fd 7bbd
00000180: 0b0a 67bd 3bf2 6cbd 4f24 8cbb 5964 393d
00000190: 1948 183d 3026 69bd 8c01 ea3c fe12 a4bb
000001a0: dcfb 66bc 2b39 6cbd 3bb3 69bd 959c 7d3d
000001b0: 0e1a 113c 2289 443d 3dbe 903d 5533 ce3c
000001c0: ca36 8c3d de3d 3b3d ee2a 5c3d c1d4 74bc
000001d0: f97f c63c 8097 023c bef6 4a3d 1b34 883c
000001e0: 5fce 323d cc7b 893d 7d1c ccbc 3afb 89bd
000001f0: 85e4 e039 82ca 583d f87f 71bd f9c1 153b
0.043201137 -0.023799041 0.022000879 0.038110998 -0.019360883 0.06572599 -0.019637646 -0.053349756
0.058986362 -0.013475516 -0.05340163 0.050097927 0.065587215 -0.02217805 0.033179782 0.064551555
-0.067157984 -0.020412361 0.06804081 0.026548846 -0.06410305 -0.05793425 0.0066843606 -0.01928895
0.043602157 0.017591888 0.018577622 -0.07068999 0.016307417 0.04645696 0.022503214 0.026815528
-0.023125436 0.07274029 0.04264086 0.071711294 -0.05584944 0.07108471 0.028399535 -0.043425348
-0.05387499 -0.005695325 -0.07104142 0.008852341 -0.009675249 -0.04753312 -0.044074032 0.039467413
-0.016334906 -0.059922364 -0.0039819637 0.0075606294 -0.028669234 -0.051353674 0.040122822 0.059761945
-0.024594989 0.05636182 0.067817554 -0.025649605 -0.062162153 0.048251413 0.016010797 0.0025979276
0.022408796 0.01254487 0.041549042 0.048759773 -0.059787944 0.04012001 0.005442981 0.06458721
0.050050754 -0.0026072864 -0.03640702 0.043918863 -0.057791773 0.0570923 -0.011711375 -0.036374386
0.007751004 -0.035580315 0.012091552 -0.028771995 0.029057307 0.005547498 0.02927973 0.023874588
-0.060613587 0.053784747 0.015981779 0.053507503 -0.050445877 -0.0666446 0.028008875 -0.061520763
-0.056406062 -0.057848196 -0.0042767893 0.045261715 0.037178133 -0.056921184 0.02856519 -0.005007147
-0.014098134 -0.057671707 -0.057055693 0.061916906 0.00885631 0.047982343 0.07067535 0.025170961
0.06846388 0.045713298 0.05375188 -0.014943303 0.024230944 0.007970691 0.049551718 0.016626408
0.043653842 0.067130655 -0.024915928 -0.06737371 0.0004289487 0.0529275 -0.05895993 0.0022851212

bn2.weight f4 [128]
00000000: b6f0 4a3f bd0a b23f 3c61 743f 1688 873f
00000010: e24d 893f cc7d b73f c862 6e3f 8e05 823f
00000020: c33d 973f bc78 573f 4ba8 5a3f 1456 673f
00000030: 57d1 583f b136 923f 887e 603f f532 a93f
00000040: bad4 793f 4e55 8a3f fe61 8f3f ec9e 663f
00000050: 2616 8f3f c2c0 793f de91 963f 7a8a af3f
00000060: 6394 823f 00b6 513f 4d6d 6a3f eedf 973f
00000070: 2a70 703f 5928 6c3f c608 563f 8644 8c3f
00000080: 14f3 983f 745c 853f 6699 ae3f c07c b83f
00000090: 4060 953f 0e7e 8e3f 0cc5 503f e3a1 623f
000000a0: 47ee 573f 157b 883f 01c5 963f a986 873f
000000b0: 163e 923f 2a6f 763f 2552 853f 844e 7d3f
000000c0: 40f2 703f 08fd 8d3f 218f a63f 715e 9d3f
000000d0: 40af 823f c864 743f 2b85 803f 7b93 823f
000000e0: 98cd a23f ee98 9d3f 514e 5f3f 0649 aa3f
000000f0: 1f0e 923f 9987 843f dbd9 983f 53e1 a43f
00000100: a2eb 883f 768f a33f d135 8a3f 03f2 593f
00000110: 566c 503f 6163 823f 9d0f 833f 1e57 953f
00000120: 6599 5d3f 92e8 7f3f 54bd 893f 76b7 833f
00000130: b157 5e3f b74d 813f 8972 5e3f 6e17 733f
00000140: 3a32 823f 4b88 9c3f 779b 8e3f 7a19 7b3f
00000150: 82ec 723f 746d 5b3f 47c1 833f 94b1 563f
00000160: 710a 603f cfdf 843f fea1 753f 1cb2 6f3f
00000170: ca7b 863f 842f 703f 5b47 803f 3dbb 663f
00000180: baba 823f a8e9 793f 568e 553f 7593 7f3f
00000190: 4cc2 d83f f8c7 9d3f 5e88 643f 7db6 aa3f
000001a0: 00bd 8c3f e992 863f 21d0 833f ef54 9a3f
000001b0: 967f 653f a1e6 7e3f 3a2f 7d3f 20d0 683f
000001c0: 5496 9c3f 89b8 9e3f 1597 613f 1057 963f
000001d0: bbe9 843f 3362 b63f 31c1 773f 67bf 853f
000001e0: 3206 ba3f 2971 713f 12d2 863f 8546 933f
000001f0: 2a9a 833f f96e 803f 2b43 573f f196 863f
0.79273546 1.3909527 0.9546087 1.0588405 1.0726893 1.4335265 0.9311948 1.0157945
1.1815723 0.841686 0.85413045 0.9036572 0.8469443 1.142294 0.8769307 1.3218676
0.9759022 1.0807283 1.120178 0.90086246 1.1178634 0.9755975 1.1763265 1.3714135
1.0201534 0.81918335 0.9157303 1.1865213 0.9392115 0.92249066 0.8360714 1.0958412
1.1949182 1.041884 1.3640563 1.4413071 1.1669998 1.1132219 0.8155067 0.8852827
0.8434796 1.0662562 1.1778871 1.058797 1.1425197 0.9626337 1.0415694 0.9894793
0.94119644 1.1092844 1.301243 1.2294446 1.0209732 0.9546628 1.004064 1.0201257
1.2718992 1.2312295 0.87228876 1.3303535 1.141056 1.0353881 1.1941484 1.2881263
1.069691 1.2778156 1.0797673 0.85134906 0.8141531 1.0186578 1.023914 1.1667211
0.86562186 0.9996425 1.0760903 1.0290363 0.86852556 1.0101842 0.86893517 0.94957626
1.0171578 1.2229093 1.1141194 0.9808575 0.9489213 0.8571389 1.0293359 0.8386471
0.8751593 1.0380801 0.95950305 0.9363115 1.0506527 0.93822503 1.0021776 0.9012945
1.0213234 0.97622156 0.8342031 0.99834377 1.6934295 1.2326651 0.8927058 1.3336941
1.0995178 1.0513583 1.0297891 1.205717 0.89647806 0.9957066 0.98900187 0.90942574
1.2233377 1.2400066 0.8812116 1.1745319 1.0383829 1.4248718 0.9677916 1.0449036
1.4533141 0.94313294 1.0532858 1.1505896 1.0281422 1.0033866 0.84086865 1.0514814

bn2.bias f4 [128]
00000000: c859 adbe 67c3 04be 9f34 dbbe 8858 76be
00000010: ca65 49be 24c8 9ebd 0058 83be 5caf 4fbe
00000020: 7521 78be 43c4 dabe 4cfd 75be 422f 7abe
00000030: 1a24 86be 1d8f 39be 655d 65be 0d9d 9ebe
00000040: ba22 82be 315f 46be e366 35be 2746 80be
00000050: 8736 52be c2f0 56be 935d 8dbe e9e8 7abe
00000060: d254 3bbe e317 e2be 60a6 6abe dc9e 46be
00000070: 7a0e e7be 6657 9bbe 9e34 b5be fd60 7ebe
00000080: 01e6 87be ad70 1fbe 1e46 5fbe 8318 afbd
00000090: a85e 88be 10b4 babe 55bd 9cbe 8cb6 d3be
000000a0: fff9 9abe 9d34 44be 66df 75be c532 0ebe
000000b0: c67d 3cbe da45 61be c184 90be 69bf 9cbe
000000c0: 57e5 afbe 5f88 4cbe 5b34 54be 0f76 b7bd
000000d0: b867 57be d78f 73be 7bcb 99be d790 82be
000000e0: 268a 72be 123d 25be fb79 93be 4992 18be
000000f0: 3610 aabe 0665 98be 801a 15be d462 563c
00000100: 4e15 68be ba4f 20be cc32 68be b0ed 98be
00000110: 81aa 9bbe f79b 6cbe e063 7cbe 4623 2fbe
00000120: 0efa 88be b6e3 6bbe 11f0 b5be 4c56 8ebe
00000130: 7207 9dbe 4dae c0be 4df4 97be ace3 7fbe
00000140: e95b 7dbe b1f7 48be 736f 55be 1439 41be
00000150: f512 cebe 9460 9dbe da1d abbe 93b5 88be
00000160: 20bc 86be 2b20 7bbe a0a1 87be a044 b1be
00000170: 8532 72be fe11 4dbe e1f8 72be 0350 87be
00000180: 50f6 c3be f1aa 11be 11cb 8ebe 0e8a 5fbe
00000190: 28c1 2ebd 741b 3cbe 2fb6 69be 068a 35be
000001a0: c343 a0be a200 7fbe c443 91be 6bdf 2cbe
000001b0: d466 77be 791e 90be 061b 59be cd88 a8be
000001c0: 89aa a8be 0036 28be 4c8b 7bbe 82fa 33be
000001d0: e1cc 31be c77a 46be 6c31 76be 768d c6be
000001e0: c20e bfbd c7a5 82be 2d4c 9cbe 163c 98be
000001f0: ed34 dabe 494d 40be e2f1 b1be 2de9 6fbe
-0.3385756 -0.12965165 -0.42813584 -0.2405721 -0.19667736 -0.077530175 -0.25653076 -0.20281738
-0.24231513 -0.4272786 -0.24022406 -0.2443209 -0.26199418 -0.18121 -0.22398908 -0.30979195
-0.2541712 -0.1937225 -0.1771503 -0.25053522 -0.20528613 -0.2099028 -0.27610454 -0.2450291
-0.18294075 -0.4415885 -0.2291503 -0.19396538 -0.45128232 -0.30340117 -0.35391706 -0.24841686
-0.26542667 -0.15570326 -0.21804091 -0.08549597 -0.26634717 -0.36465502 -0.306132 -0.4135021
-0.30268857 -0.19160695 -0.24011001 -0.13886555 -0.18407354 -0.21999303 -0.28226283 -0.30614784
-0.3435466 -0.19973896 -0.20723097 -0.08958065 -0.2103566 -0.2378534 -0.30038056 -0.2550113
-0.23685512 -0.16136578 -0.28804 -0.14899553 -0.33215493 -0.29764575 -0.1456089 0.013085086
-0.22664377 -0.15655413 -0.22675627 -0.2986884 -0.30403522 -0.23106371 -0.24647474 -0.171033
-0.26753277 -0.23036084 -0.3553472 -0.27800214 -0.30669743 -0.3763298 -0.29678574 -0.24989194
-0.24742092 -0.19625737 -0.20843296 -0.1886943 -0.40248838 -0.30737746 -0.33421212 -0.2670103
-0.26315403 -0.2452399 -0.26490498 -0.3462267 -0.23652084 -0.20026395 -0.23727752 -0.26428232
-0.3827386 -0.14225365 -0.27889302 -0.21830007 -0.042664677 -0.18369848 -0.22823404 -0.17728433
-0.31301698 -0.24902585 -0.28372014 -0.16882102 -0.2416032 -0.2814825 -0.21201715 -0.3291687
-0.32942608 -0.1642685 -0.24564856 -0.1757603 -0.17363311 -0.19382773 -0.2404229 -0.387798
-0.09328987 -0.25517103 -0.30526868 -0.29733342 -0.42618504 -0.18779482 -0.34754854 -0.23428793

bn2.running_mean f4 [128]
00000000: a392 a0bd e829 2fbe b15a 84bc 9e38 dfbc
00000010: 1eb5 2cbd d692 703e a85f bcbd 3525 0cbe
00000020: 0924 0bbe 5a3a c93a e086 e53b 1cc5 78bd
00000030: dc93 3cbe 9307 85be e4ab 61bd 5df7 053e
00000040: 4b7b 2fbe 5f72 2b3c 6dce 043e 4381 06be
00000050: 915a a8be a9b5 9fbe 8144 8b3e 36bf d4bd
00000060: 4578 e5be 4d0f b7bd 19f6 c23d 46dd 24be
00000070: 29b8 30be 72ac b3bd 0dde 27bd 74f1 17bc
00000080: 7abe 353e b7c8 d8bd 0db9 cdbe da4b 75be
00000090: 1c7f 91be b205 843e f523 e8bd c6a2 3abd
000000a0: 55ee e8bd 2142 27be d926 353e a332 96bd
000000b0: 65f0 44bc 1af1 87bd c408 67be 26a2 4bbe
000000c0: cd8b 083d b483 8ebe 9cfe 373e 2c61 9dbe
000000d0: 20ef 243e ad45 20bd e502 ca3d 5816 a5be
000000e0: fbb4 7a3b 12f0 e0bd ae81 95bd c3c7 9fbe
000000f0: 1a31 f93d 884d 79be 2ef9 12be 3593 85be
00000100: 7e64 98be 28dd 80be 191c b4be cfe4 de3d
00000110: 5f32 09be 80c7 64be 247c 3bbe 5cf6 dd3d
00000120: af31 ff3d 20bc a83d 90f3 c5bc b709 afbd
00000130: d36c 94be 1499 e83d c63b 18bd a7e4 2bbd
00000140: 5f05 26be bf69 e9be 3ab0 8abd 0ac8 8abd
00000150: 6aaf 39be e06d bfbc 0803 77be 3fd3 02be
00000160: 4507 d9bd d826 84bc 0c64 85be fd86 373d
00000170: e48d 71be e006 e1be 1a58 41be 655b 87be
00000180: 2247 d1bb 736b d83d 0991 943e 911b 01bd
00000190: aae0 163e 5809 5ebe de88 70bd 0b4a a63b
000001a0: 23dc 47bd db21 71be 9945 8abd 9035 01be
000001b0: 93a4 1c3d 7d08 a4bd dd38 563e 762a 7f3d
000001c0: 1480 223e 2b3b c83c ad23 90bd 3e88 b9be
000001d0: a571 a73d b3d6 7a3e 4b1d 443e 80e0 8b3e
000001e0: 22ff 78be 943d cfbc 2605 9cbd 454c 40bd
000001f0: 4bf2 e8bd 78e3 e1bd 98c2 d6bd a62f aebe
-0.07840469 -0.1710583 -0.016156526 -0.027248677 -0.042164914 0.23493513 -0.091979325 -0.13686068
-0.13587965 0.0015352473 0.0070046037 -0.060734853 -0.18415779 -0.2598234 -0.05509557 0.13082643
-0.17136876 0.01046428 0.1296937 -0.13135247 -0.32881597 -0.31193283 0.27200702 -0.10388033
-0.4481832 -0.08938465 0.09519596 -0.16100034 -0.17257752 -0.08773126 -0.04098325 -0.0092738755
0.17748442 -0.10585158 -0.40180245 -0.23954716 -0.2841729 0.25785595 -0.11334983 -0.04556539
-0.11373583 -0.1633382 0.176906 -0.07333877 -0.012020205 -0.06637783 -0.22561938 -0.19886073
0.03333645 -0.27834857 0.1796822 -0.307382 0.16106844 -0.039128948 0.09863833 -0.3224361
0.0038254845 -0.1098329 -0.07300125 -0.31207094 0.121675685 -0.24345982 -0.14352867 -0.26088873
-0.2976417 -0.2516873 -0.35177687 0.108834855 -0.13398121 -0.22341728 -0.18309075 0.10838005
0.12460648 0.08239007 -0.024163991 -0.08546775 -0.28989276 0.11357322 -0.03716638 -0.041966107
-0.16212986 -0.4558849 -0.06771894 -0.06776436 -0.18133321 -0.023367822 -0.2412225 -0.12775896
-0.1059709 -0.016131803 -0.26052892 0.04480647 -0.23589283 -0.43950558 -0.18881264 -0.26436916
-0.0063866535 0.10567369 0.29016903 -0.03152043 0.1473414 -0.21683252 -0.058724277 0.0050747446
-0.048793923 -0.23548071 -0.06751556 -0.12618089 0.038242888 -0.080094315 0.20920129 0.062296353
0.1586917 0.024442276 -0.070380546 -0.36236757 0.08175973 0.24495964 0.191518 0.27319717
-0.24316075 -0.025297917 -0.076181695 -0.046947736 -0.11374339 -0.11029714 -0.104863346 -0.34020728

bn2.running_var f4 [128]
00000000: a465 c33e 152e e33e ffb0 ba3e 5ac5 073f
00000010: b42c dd3e 8fa1 e93e a8e9 c13e 410a d83e
00000020: 639f d63e 25b1 f13e 1899 b63e 06c2 a23e
00000030: 6c94 a93e ae40 e23e fd7a ba3e ed46 e53e
00000040: 77df dc3e 2bf5 d73e 9e38 bc3e 5b9a d83e
00000050: 0fba cf3e e09e cd3e 102e 0e3f e456 063f
00000060: 3459 c23e dd47 c53e 3085 cc3e ba9d a83e
00000070: 2f22 be3e 79a7 f73e e337 843e 4ebf e43e
00000080: 9c0b c43e 0bca aa3e 277e 0b3f 9539 df3e
00000090: 6772 c93e ca5c d33e e1d4 9a3e 932e f53e
000000a0: dab8 c23e 62f7 b13e 5393 b23e 4fee b83e
000000b0: 2dab f73e 6eab d13e b50e c93e 33fa ca3e
000000c0: c47f b33e 7bdd fb3e 2d0a f33e 3676 0b3f
000000d0: dc6e d23e 5577 df3e ab38 a13e 3a20 ad3e
000000e0: 92ce b03e 5918 d33e c490 b23e 07d7 eb3e
000000f0: 72c9 e23e 508d 923e 79ab d93e 6204 de3e
00000100: 7415 e63e 5c40 d53e abcd 813e fca7 873e
00000110: 907f aa3e 3132 e23e a3da fa3e a4a0 c03e
00000120: 9ceb dc3e a224 ab3e 8e8a ca3e 8339 0b3f
00000130: 5dc6 9c3e 66ce a53e e0d9 973e e672 ac3e
00000140: e47a dd3e 7d58 ca3e 7b01 b63e 2af1 d83e
00000150: bfa3 e83e e265 dd3e 1d3a 943e c27f cb3e
00000160: 64be 0d3f e3fa cf3e 8612 df3e 001d ee3e
00000170: 6cf4 d53e 66b9 c73e 43f4 e43e 5d86 c33e
00000180: 2391 bf3e 44bf d03e 18db ac3e 9ec1 e63e
00000190: c811 113f 1571 c83e a8e3 b23e 910a 133f
000001a0: 9bc1 e93e f399 d63e d7e0 a53e bf03 be3e
000001b0: eeed c03e 1512 f23e 7a77 f23e 89f9 ab3e
000001c0: 6e5d f53e efd5 1d3f 2ca3 c13e 70e9 d13e
000001d0: 00af d73e 6b42 d73e 373a ec3e 9af6 fd3e
000001e0: 1cf1 ef3e 5112 d43e fd6f a33e 3ae0 c33e
000001f0: 7436 de3e dc5b 033f 37fd f13e 5d26 103f
0.38163483 0.44371095 0.36463162 0.5303551 0.43198168 0.45631072 0.37873578 0.42195323
0.41918477 0.47205463 0.35663676 0.31788653 0.3312105 0.44189972 0.36421958 0.44780675
0.4313924 0.42179236 0.36761945 0.42305264 0.4057164 0.40160275 0.55539036 0.52476335
0.37958682 0.3853139 0.39945364 0.32932836 0.37135455 0.4836996 0.25823888 0.44677204
0.38290107 0.33357272 0.5448937 0.4359862 0.39345095 0.4128173 0.3024054 0.47887096
0.38031656 0.3475905 0.34878024 0.36119315 0.48372784 0.40951103 0.39269033 0.39644012
0.35058415 0.49192414 0.474687 0.5447725 0.41100204 0.4364573 0.31488547 0.3381365
0.345326 0.41229513 0.34876072 0.4606249 0.44294316 0.28623438 0.42513636 0.4336272
0.44938242 0.41650665 0.25352225 0.2649535 0.33300447 0.44178918 0.48994932 0.3762256
0.43148506 0.33426386 0.39558834 0.5438463 0.3062009 0.32384032 0.29658413 0.3368141
0.4325782 0.39520636 0.35548005 0.42371494 0.45437428 0.43241793 0.28950587 0.3974591
0.5536864 0.406211 0.4356882 0.465065 0.41788042 0.39008635 0.44717607 0.3818845
0.37415418 0.40770924 0.33760905 0.45069593 0.5666776 0.39148775 0.34939313 0.57438
0.45655522 0.4191433 0.32398102 0.37112233 0.37681526 0.4727942 0.47356778 0.33588818
0.47922844 0.6165456 0.37819803 0.4099841 0.42125702 0.4204286 0.46138164 0.49602205
0.4686364 0.41420224 0.31921378 0.3825701 0.4340092 0.5131204 0.472635 0.5630854

classifier.0.weight f4 [128, 128]
00000000: 3f81 85bd bbfd 31bd beb5 b93c 98d0 21be
00000010: d7b4 7bbd 74e6 83bd d3d2 e13c 64c6 873c
00000020: e081 34bd de4a 723b 8618 99bc 84dd 013d
00000030: 5191 45bd b0f7 c1bd ebe3 5a3d 9e5c 7c3d
00000040: 281d a7bd 31b5 97bd de8b e83c d5b4 ebbd
00000050: 9800 ee3c 2423 c6bd d1b1 82bd 2f21 45bc
00000060: e236 e93d 1483 33ba 9e73 29bc 6115 a0bd
00000070: 9e1d 8abd bb4d 84bd 0cbf b13d c130 70bd
00000080: 6c52 663d 5ae1 b4ba 06c3 14b9 dadb c63d
00000090: 3820 b0bd 2f79 6f3d a13d f3bc 853e 88bc
000000a0: dcfd e2bc 7a45 15bd 3e11 073d 3b57 47bd
000000b0: a1fc f23c 4039 113d 35cb 5e3c c966 51bc
000000c0: 7dcd 1a3d 2acf 9f3c 6907 d4bc f57e c13b
000000d0: 5b2d a8bd 3f98 2f3d ed63 3fbd 8b76 a9bb
000000e0: 6d99 ddbc 89ae 49bd 9ee7 fd3c a3e4 b2bd
000000f0: 56e5 cfbc 447e 303e 9a01 4cbd d1d0 27bd
00000100: 9e53 743c 790e 433d 9e05 6b3d d8d1 5fbd
00000110: a8e5 37bd 4e8d 6e3d 90ba 72bc df4b 3e3d
00000120: fb55 8e3d d999 da3c 14a6 b23d fccd b6bd
00000130: 0f81 883b 8bdb 773d efa6 543d 9669 91bd
00000140: 7c71 48bd 2660 39bd dde8 29bd 6416 133d
00000150: 2764 ad3d 2adc 303d 36db e53c 6a18 c3bc
00000160: 478d 16bd 2c97 afbc 6e9e 8abc 4dae 2dbd
00000170: aee9 9c3c 42b9 243d 3b78 97bd d1cd b43c
00000180: 7b37 1fbd 0d49 cebd 861e 153d 6912 3abd
00000190: bf79 24bd 4f3c d9bd e032 fa3c 18fb 1b3d
000001a0: c92a 45bd a104 53bd 5ccf c7bc f4c7 95bd
000001b0: 4caf 82bd 0f16 1b3d 43e1 c4bd bdcf 0dbd
000001c0: f5f0 8abb edb6 e0bd 0d2b a43c ea2b 653d
000001d0: 6ef8 723d e21b a03d 9e2e 0cbd 814d 7fbc
000001e0: 9eb6 403d b12a 0a3d 07ba 5ebd 30b8 833d
000001f0: 51e3 943d 225f a63c 1052 413d 6bab 8cbd
00000200: 1bde d73c 3e96 b73d 5937 3bbd 9151 023e
00000210: fda3 d6bc 4c44 44bc fbba b53d 4c55 323e
00000220: 1428 07bd 8259 87bd a7a5 d43d c854 3ebc
00000230: 02d5 bcbc 00fe 293e 7ebe a23c e888 86bb
00000240: 7166 ef3c 649d 3a3e d971 183d dc03 b83c
00000250: 83e7 0f3b c1ab 553d 28ac 213d ef1e 88bd
00000260: 16ab ffbc 1fd3 90bd c127 d13d 9bc7 45bc
00000270: 97bc 8cbd 3ac7 eb3d 5706 003d 1165 843d
00000280: ece4 e83c c624 18bc 1e33 753d 8074 39bc
00000290: d3c0 c93d d4ba 9abd 6f82 36bc 9b17 35bc
000002a0: efb9 1fbd 96cb 643d 8a96 72bd a658 143e
000002b0: 4f68 4ebd 8b40 cfbb af54 7c3d 39e3 033d
000002c0: d809 583d cd50 123d ccb9 d33c ff28 5abd
000002d0: bfc7 d53c 2c41 abbc e62c 723d e3cc 2bbc
000002e0: 6b53 8fbd f88d dfbb 9ea3 973d 0553 453d
000002f0: 4c41 463a 2236 b43c 6cc4 a23d f2d3 ae3c
00000300: 3ffd 3b3d 89ad 07bd b0c8 23bd 2bff 9c3d
00000310: c895 2a3d 5b66 a4bc 8ab0 b2bb 2999 d4bc
00000320: 614c a93d 0c5a 94bd f992 e73c 644e a23d
00000330: 9684 34bb a397 febd 5761 183d 9374 e338
00000340: 34cc b73d 1f6b a43d 056c 133d 3626 26bd
00000350: 0ab6 a5bd e199 803d 57ea 10bc 703e af3d
00000360: 675d d4bd 0f56 5fbb e82c 11bd 91a4 4bbd
00000370: d934 353a 1aa5 963d a15d 3d3e 5adc 4c3d
00000380: a8d6 b43d 33c8 143c 7fed ad3d 72a7 87bc
00000390: b1ec a93c a52d 683d d62d f83b e598 8cbd
000003a0: bc0b aa3c f575 4abd 7078 973c 6d98 da3d
000003b0: 2d8d f33c 8d71 83bc cf4f e03a bcb1 eabc
000003c0: ebf3 c43c 6d82 803d 0d17 e0bc 84d1 e73d
000003d0: b7c1 073d ef7a 833d 8585 b63d ba29 32bc
000003e0: 2d40 fe3c cef1 b43c 6a92 293c 752d 4d3c
000003f0: 9203 83bd 3268 abbc 2de7 89bc 69bd 2d3c
-0.06518792 -0.043454867 0.02266967 -0.15802228 -0.06145176 -0.0644044 0.02756635 0.016574092
-0.04406917 0.0036970894 -0.018688451 0.031705394 -0.048234288 -0.09471071 0.053440016 0.061611764
-0.08159858 -0.074076064 0.028387006 -0.115091 0.029053017 -0.09674671 -0.06381572 -0.012031837
0.11387421 -0.000684784 -0.010342507 -0.07816578 -0.0674393 -0.064601384 0.086790174 -0.058640245
0.056230947 -0.001380007 -0.00014187032 0.09709902 -0.08599895 0.05846518 -0.029692473 -0.016631374
-0.02770894 -0.03644321 0.032975428 -0.048667174 0.029661478 0.03545499 0.013598253 -0.012780854
0.037793625 0.019507963 -0.02588244 0.005905027 -0.08211776 0.042869803 -0.046726156 -0.005171602
-0.027050698 -0.049238715 0.030994233 -0.08735015 -0.02537791 0.17235667 -0.049806215 -0.040970627
0.014912514 0.047621224 0.057378404 -0.054643482 -0.04489675 0.058240227 -0.014814988 0.046459075
0.06949993 0.026684688 0.08723083 -0.08926007 0.0041657756 0.060512107 0.051917013 -0.07100217
-0.048936352 -0.04525771 -0.04148184 0.035910025 0.08466368 0.043178715 0.02805863 -0.023815352
-0.036755826 -0.021434389 -0.016921248 -0.042402554 0.019154396 0.040215738 -0.07395979 0.022070797
-0.03887127 -0.10072527 0.036406063 -0.045427714 -0.04015517 -0.10607206 0.030541837 0.03808126
-0.048136506 -0.051518086 -0.024390869 -0.07313529 -0.063810915 0.037862834 -0.09613278 -0.034621943
-0.00424015 -0.1097239 0.02004006 0.055950083 0.059318952 0.07817818 -0.034224145 -0.015582443
0.047049157 0.03373212 -0.05437663 0.06431615 0.0726992 0.020309035 0.0471974 -0.06868633
0.026351025 0.08964203 -0.04570708 0.12726428 -0.026201243 -0.011979174 0.08873554 0.1741535
-0.032997206 -0.06608869 0.10383158 -0.011616893 -0.023050789 0.166008 0.019866224 -0.004105676
0.029223653 0.18224102 0.03721795 0.022462778 0.002195806 0.05216575 0.03947082 -0.06646525
-0.03120951 -0.07071518 0.102126606 -0.012071515 -0.06871908 0.11512609 0.031256046 0.064645894
0.028429471 -0.009286111 0.059863202 -0.01131928 0.098512314 -0.07555166 -0.011139496 -0.011052991
-0.03899568 0.055858217 -0.059225596 0.14486942 -0.050392445 -0.006324833 0.061604198 0.03219912
0.052743763 0.03572159 0.02584543 -0.053261753 0.026096223 -0.0209051 0.05912485 -0.0104858605
-0.069983326 -0.006822344 0.074042544 0.048174877 0.00075628306 0.021998469 0.07947621 0.021341298
0.04589581 -0.03312448 -0.039986312 0.07665857 0.04164675 -0.020068338 -0.005453174 -0.025951939
0.08266521 -0.072437376 0.028268324 0.07925108 -0.0027544848 -0.12431266 0.037202206 0.00010845917
0.089744955 0.08028244 0.035991687 -0.040563785 -0.08091362 0.0627935 -0.0088449335 0.08556831
-0.103693776 -0.0034078395 -0.035443217 -0.04971749 0.0006912477 0.073557094 0.18492748 0.05001483
0.08830005 0.009080934 0.084925644 -0.016559336 0.020742746 0.056684155 0.0075738234 -0.068651
0.020757549 -0.0494289 0.018490046 0.10673604 0.029730404 -0.016045356 0.0017113629 -0.028649203
0.02404209 0.06274877 -0.027354741 0.11319259 0.033143725 0.06419932 0.089121856 -0.010874206
0.03103646 0.022087958 0.010349849 0.012523045 -0.06397165 -0.020923708 -0.016833866 0.010604241

classifier.0.bias f4 [128]
00000000: 5d11 1cbd 5c08 d53c fc2f 8fbd 1a9c 863d
00000010: 0663 80bd 5f52 da3d e9e5 a33d f8b6 403d
00000020: 5e2b a33d 44a3 4dbd ccc9 7c3a c03d dc3c
00000030: 0b01 6d3d 5c6f 0a3d b2da 3abc 0fdc 3cbd
00000040: e608 f3bc bbaf 65bd 30fc 85bb 5c96 8d3d
00000050: bdf3 77bd 99f4 0e3d 43a7 193a 19c6 a2bd
00000060: ce18 1bbd 4bd4 7bbb 7aa4 9239 616c d7bc
00000070: faba 133d 4c9f 383c 3584 963d 8332 043c
00000080: f9a4 973d a700 733d 811e 6bbc 4e08 fc3c
00000090: 5675 ccbb c886 ac3d dd72 4a3d 8b27 25bb
000000a0: a38e 9c3d aefd 643d 5ed0 95bc 5a0e 59bc
000000b0: 9ada 5a3d 7c86 b1bc 6f59 383c 7321 68bd
000000c0: e628 83bd 8112 d5ba 842c 5cbd 03eb 253d
000000d0: 6ada 25bd 1410 1f3d eb7a 9f3d 3ade 153d
000000e0: eecf 3d3d 92d3 24bd c93b 003d 79da 553d
000000f0: c302 293d b2d0 8d3d 4623 b5bb 69cd b7bc
00000100: 28d3 27bc f0fb aabd 9407 5bbd 1c3d cc3d
00000110: fdb2 053d 7b7b bb3c 8740 953c 71d1 223b
00000120: e963 fc3c 6c65 f6bb 7480 863d f73e 963d
00000130: 381c c53c 873c 093d 0dd6 513d 9d3e d1bc
00000140: 79f4 9bbd cc95 90bd 5637 6f3d ab61 08bc
00000150: 78a3 e13c 2682 81bd f1e7 b5bb 95bc 903d
00000160: 2a2b 42bd 0460 3d3c d093 66bd 77dc 01bd
00000170: 55c1 6fbc 9f98 8fbd 32f1 5bbc 4d6f 7a3b
00000180: 5f07 4cbd 1671 c5bc f0ca 1f3d 9dce 04bd
00000190: c286 a63c a9a2 94bd c15d 21bc 76af bdbc
000001a0: fbed a63d 1a5a 4f3c 61db 1b3c 8fc8 04bb
000001b0: 9265 853d 5a9d 8ebc e40f d3bc e638 023c
000001c0: 4fe6 aabd ef6b a3bd 773d a4bd 61e5 51bd
000001d0: 39a4 24bd 519d 403c 44ae 043c 4be5 b93d
000001e0: 86b2 60bd ffae f13d 5f01 30bd b5b7 0d3b
000001f0: 3865 94bd 17f8 993c f53f 5cbd a331 31bd
-0.038102496 0.026004963 -0.06991574 0.06572743 -0.06268887 0.10660242 0.08002836 0.047049493
0.07967256 -0.05020453 0.0009643107 0.026884913 0.057862323 0.033797607 -0.01140468 -0.0461083
-0.029667329 -0.056075793 -0.004088901 0.069134444 -0.06053518 0.034901235 0.0005861411 -0.079479404
-0.037865452 -0.0038426097 0.00027969835 -0.026296796 0.036066987 0.011268448 0.07349435 0.008068684
0.07404513 0.059326794 -0.014350534 0.030765679 -0.0062395735 0.08424145 0.04942595 -0.0025200571
0.07644393 0.05590599 -0.018287834 -0.013248051 0.05343113 -0.021670572 0.011251791 -0.056672525
-0.06404285 -0.0016256125 -0.05375339 0.040507328 -0.0404915 0.038833693 0.077871166 0.036588885
0.046340875 -0.04024083 0.031307016 0.052210305 0.0412624 0.06924571 -0.0055278866 -0.022436814
-0.010243215 -0.083488345 -0.053474024 0.09972593 0.0326414 0.022886029 0.018219246 0.0024844075
0.03080936 -0.0075194146 0.06567469 0.07336228 0.024061307 0.03350499 0.051229525 -0.025542552
-0.07614989 -0.070598215 0.05840238 -0.008324067 0.027543768 -0.06323652 -0.005551331 0.07067219
-0.047404446 0.011558536 -0.05629331 -0.031704392 -0.014633496 -0.07011532 -0.013424205 0.0038213313
-0.049811717 -0.024101775 0.039011896 -0.032423604 0.02032793 -0.072575875 -0.009849013 -0.023154955
0.0815086 0.012655759 0.009512753 -0.0020261144 0.065135136 -0.017409015 -0.025764413 0.007948136
-0.08344709 -0.07979571 -0.08019536 -0.051244143 -0.040195677 0.011756257 0.008098189 0.09076937
-0.054857753 0.11800956 -0.042970058 0.002162439 -0.072458684 0.018795056 -0.05377193 -0.043260228
