models_newWin/Flat_CNN/all_flat/best_model_fold3.pth (torch, 343081 bytes, 17 tensors)

conv1.weight f4 [64, 6, 3]
-0.041065298 -0.09326029 0.052700248 0.075308524 0.044825006 -0.13971727 0.05932173 -0.25933737
0.1416835 -0.018716345 -0.07266453 0.07953128 0.05616252 0.0018563408 -0.10909479 0.18530673
0.139201 -0.3442195 -0.14674564 -0.19748005 0.25320342 0.099167995 -0.14339207 0.006075189
0.042307887 0.022675544 -0.046412297 0.122527644 0.09196774 -0.26006275 -0.075221345 -0.15108927
0.23896143 0.0383225 0.045584626 -0.20127071 -0.08354781 -0.007496737 -0.0352319 -0.09531356
0.028341183 -0.08920415 -0.2399896 -0.110595405 0.22645767 0.051709395 -0.051360782 -0.19304988
0.010812736 -0.11669785 -0.21976148 -0.07927774 0.31249484 -0.19949737 -0.052962236 -0.12368302
0.20465636 -0.020627903 -0.09693758 0.13160518 0.071803585 0.16952747 0.059105493 0.015048018
-0.10780556 -0.022760397 -0.06799514 0.25066686 -0.12613012 0.068491146 0.0022773307 -0.16978878
0.08589411 -0.11102548 0.12051022 -0.12120064 0.13270397 0.048089396 0.04432442 -0.105964825
0.15300639 0.21155202 0.006762133 0.178943 0.056797832 -0.21958245 -0.47388184 -0.1491016
0.17104805 0.13686226 0.08275077 -0.09737846 0.12024033 -0.033315018 0.20832603 -0.17767747
0.0015585583 0.22583981 -0.16569869 -0.005665663 0.05621257 0.022097066 -0.10914924 0.2031763
-0.06639245 0.018814454 -0.20235662 0.23210806 0.046282616 0.13650653 -0.10289149 -0.02639187
0.035489812 -0.042678554 0.13041228 0.22341032 -0.122786336 -0.13023134 0.25589183 -0.027102357
-0.07053091 0.11089433 -0.091455504 -0.047772974 -0.39880434 -0.021120636 -0.04463324 0.124910764
0.068908334 0.11804365 0.30691895 0.04553006 0.031716876 0.035598096 -0.08076677 0.09620374
0.09260558 0.04814171 0.050421454 -0.45085162 -0.035378475 -0.029663045 0.267824 -0.023721466
0.09803079 -0.09411713 -0.11636615 0.21424851 -0.14278291 0.003599333 0.14298902 -0.07925609
0.0071828095 -0.15243734 0.29543868 -0.13290164 0.17550391 0.035938732 -0.2935793 0.05259133
-0.11071212 -0.018140765 -0.00195179 -0.14021055 0.031039488 -0.0013990643 -0.0720525 -0.12449476
-0.08548742 0.11794934 -0.12910624 0.004062108 -0.06380952 -0.17639868 -0.09449522 -0.10510582
0.1494432 0.07707226 -0.35093427 0.17321517 -0.20243998 0.20300204 0.20049259 -0.09282792
0.13148838 0.0818187 0.06663874 0.2119541 0.23879579 -0.011564994 0.09031969 -0.085837804
-0.11827724 -0.01336767 -0.12021806 0.0037316538 0.20782503 0.18520291 0.12932898 -0.02417427
-0.24364088 -0.0873601 0.05096228 0.019558337 0.040181097 0.0026209455 -0.06066784 -0.3729131
0.16794148 0.15215021 -0.10596285 -0.033175804 0.013043793 -0.07326039 -0.14267467 0.04706578
-0.24336983 -0.06406211 -0.079715066 -0.06319237 -0.024588743 -0.01189878 -0.17763785 -0.07792895
-0.26668447 0.266165 0.23538496 0.054799683 -0.07709755 -0.0016577176 0.00623743 -0.03915931
-0.070170134 -0.057930466 0.0761559 0.097909324 -0.107824475 -0.13111517 -0.10016001 0.24745548
-0.030991917 0.080877736 -0.033267856 0.10979568 0.12005363 -0.13035233 -0.03803044 -0.017623445
0.12892066 0.28847268 -0.15438105 -0.089366935 0.2975208 -0.010603736 -0.14441195 0.20656908
00000000: 1634 28bd 40ff bebd 37dc 573d 5b3b 9a3d
00000010: 6d9a 373d 0b12 0fbe 58fb 723d dec7 84be
00000020: 7b15 113e 0553 99bc 24d1 94bd 4ce1 a23d
00000030: ac0a 663d 7650 f33a 176d dfbd 0cc1 3d3e
00000040: b58a 0e3e 8a3d b0be 7d44 16be 3638 4abe
00000050: e1a3 813e 9718 cb3d 5fd5 12be 6112 c73b
00000060: 094b 2d3d 10c2 b93c d21a 3ebd c6ef fa3d
00000070: 9559 bc3d f226 85be a60d 9abd 25b7 1abe
00000080: 4eb2 743e 0ef8 1c3d f2b6 3a3d e919 4ebe
00000090: 1d1b abbd 30a7 f5bb 534f 10bd c133 c3bd
000000a0: c52b e83c aab0 b6bd d5bf 75be d87f e2bd
000000b0: 85e4 673e 3bcd 533d af5f 52bd deae 45be
000000c0: e727 313c 48ff eebd 2709 61be 5e5c a2bd
000000d0: 53ff 9f3e 0a49 4cbe eeee 58bd 864d fdbd
000000e0: 7091 513e d9fb a8bc 3687 c6bd 82c3 063e
000000f0: c20d 933d 9c98 2d3e 9a18 723d f68b 763c
00000100: 29c9 dcbd 0374 babc 0941 8bbd 6857 803e
00000110: 4128 01be 1645 8c3d 453f 153b 1cdd 2dbe
00000120: 40e9 af3d 5461 e3bd 10ce f63d 0b38 f8bd
00000130: 8de3 073e 63f9 443d 868d 353d 1604 d9bd
00000140: b5ad 1c3e 18a1 583e e294 dd3b d53c 373e
00000150: d8a4 683d 39da 60be a4a0 f2be 17ae 18be
00000160: 3827 2f3e 9f25 0c3e 3c79 a93d 5c6e c7bd
00000170: 9040 f63d 5475 08bd 6b53 553e 15f1 35be
00000180: 8a48 cc3a 8d42 673e ebac 29be 07a7 b9bb
00000190: 273f 663d e804 b53c a389 dfbd 730d 503e
000001a0: c4f8 87bd c520 9a3c 9336 4fbe bcad 6d3e
000001b0: d792 3d3d 5ec8 0b3e c6b8 d2bd c333 d8bc
000001c0: c45d 113d b5cf 2ebd cc8a 053e adc5 643e
000001d0: 6777 fbbd 5d5b 05be 4104 833e c305 debc
000001e0: 8272 90bd 911c e33d 064d bbbd 98ad 43bd
000001f0: 1530 ccbe 2f05 adbc 58d1 36bd 37d1 ff3d
00000200: d01f 8d3d dfc0 f13d 7b24 9d3e ba7d 3a3d
00000210: 8ee9 013d 4fcf 113d 0c69 a5bd 7706 c53d
00000220: ffa7 bd3d 3e30 453d ba86 4e3d 06d6 e6be
00000230: 05e9 10bd eaff f2bc 3a20 893e 8553 c2bc
00000240: 5ec4 c83d 7bc0 c0bd 6051 eebd f663 5b3e
00000250: af35 12be cae2 6b3b b76b 123e 0451 a2bd
00000260: c65d eb3b 8918 1cbe bd43 973e 5e17 08be
00000270: 4cb7 333e 7e34 133d 0750 96be 026a 573d
00000280: 09bd e2bd f19b 94bc 34d3 ffba 5b93 0fbe
00000290: 8646 fe3c cf60 b7ba 4390 93bd 1cf7 febd
000002a0: 0714 afbd 6c8f f13d 6d34 04be 6f1b 853b
000002b0: 91ae 82bd dba1 34be b686 c1bd b841 d7bd
000002c0: a307 193e 10d8 9d3d a8ad b3be 515f 313e
000002d0: 6d4c 4fbe c4df 4f3e ee4d 4d3e 911c bebd
000002e0: e4a4 063e 9090 a73d e479 883d 7f0a 593e
000002f0: e286 743e 1a7b 3dbc 88f9 b83d bbcb afbd
00000300: 563b f2bd 1204 5bbc e334 f6bd c38e 743b
00000310: 16d0 543e d5a5 3d3e d16e 043e 1e09 c6bc
00000320: ff7c 79be dae9 b2bd d3bd 503d ce38 a03c
00000330: ef94 243d 2bc4 2b3b d77e 78bd 77ee bebe
00000340: daf8 2b3e 44cd 1b3e 0d03 d9bd 5ae3 07bd
00000350: a2b5 553c 8b09 96bd 4f19 12be 0cc8 403d
00000360: f135 79be ff32 83bd a741 a3bd 006b 81bd
00000370: 556e c9bc 1af3 42bc b2e6 35be 3799 9fbd
00000380: de8a 88be c746 883e c108 713e a275 603d
00000390: 52e5 9dbd c647 d9ba 5b63 cc3b 8365 20bd
000003a0: 5cb5 8fbd 7f48 6dbd a0f7 9b3d af84 c83d
000003b0: 14d3 dcbd 0e43 06be b120 cdbd f864 7d3e
000003c0: c3e2 fdbc 3aa3 a53d e043 08bd 8fdc e03d
000003d0: adde f53d 157b 05be cfc5 1bbd 0b5f 90bc
000003e0: c703 043e b1b2 933e 1116 1ebe 0306 b7bd
000003f0: a554 983e 4bbb 2dbc bae0 13be d886 533e

conv1.bias f4 [64]
0.11089101 0.18996882 0.04430683 0.0063629635 -0.091161415 0.16688886 -0.11095157 0.16799846
-0.044740014 0.17821611 -0.16489048 0.20579955 -0.14479767 -0.13540368 0.16607234 0.13030997
0.06860738 -0.075548254 -0.05934074 0.17623799 -0.005173134 -0.050135754 -0.0809647 0.14211577
-0.14641467 -0.07720739 -0.122083224 -0.1322336 -0.05657122 -0.08149896 -0.03917946 -0.19940728
0.13376386 0.041040607 0.035955194 -0.11576618 -0.057899114 -0.08768562 -0.14916931 0.07597926
0.1351107 0.054552935 0.038935415 0.12138732 -0.14365198 0.058426145 0.13505028 -0.18691064
-0.16749388 -0.14748512 0.052544583 -0.17900251 0.21885636 0.1738361 0.16166648 -0.1551893
0.13641015 0.093282126 -0.15321629 -0.19375703 0.08060692 0.03090392 0.10684033 0.17694585
00000000: d31a e33d 3087 423e 147b 353d 6880 d03b
00000010: d6b2 babd eae4 2a3e 943a e3bd ca07 2c3e
00000020: 4e41 37bd 497e 363e 0dd9 28be 1ebd 523e
00000030: d745 14be 43a7 0abe de0e 2a3e fa6f 053e
00000040: 0782 8c3d 0bb9 9abd 470f 73bd bb77 343e
00000050: 6583 a9bb 265b 4dbd d2d0 a5bd cc86 113e
00000060: baed 15be e81e 9ebd c506 fabd 3f68 07be
00000070: 39b7 67bd ede8 a6bd a47a 20bd 6c31 4cbe
00000080: 65f9 083e 321a 283d c145 133d d216 edbd
00000090: 9f27 6dbd 8594 b3bd d7bf 18be 049b 9b3d
000000a0: 765a 0a3e e672 5f3d be7a 1f3d ea99 f83d
000000b0: 8119 13be 4150 6f3d 9f4a 0a3e 8165 3fbe
000000c0: 8483 2bbe 5706 17be fd38 573d 6f4c 37be
000000d0: e21b 603e 1702 323e e68b 253e f2e9 1ebe
000000e0: 1aaf 0b3e b30a bf3d bbe4 1cbe 3e68 46be
000000f0: 3e15 a53d 382a fd3c 1acf da3d 4b31 353e

bn1.weight f4 [64]
1.295666 1.1246243 1.638063 1.2298248 1.5481699 1.0036902 1.5521972 1.2344226
0.7551413 0.9331624 0.916506 1.1182336 1.5974443 1.0990303 0.7367213 1.0367857
1.0712737 1.4906801 0.991718 1.2230562 1.0516067 1.6538659 1.1013037 1.5520356
0.9362963 1.0381013 1.1076486 1.7001805 1.6497571 1.1736578 1.2262195 1.0253603
0.77726185 1.450273 0.84189063 0.8753568 1.446884 0.89835227 1.0360047 0.8804815
1.0870355 0.8602118 1.5044225 1.4541622 0.9657385 1.3789371 1.1292363 0.90646803
1.5916812 1.2504209 1.5230261 1.413811 0.88756824 1.2490586 1.1176919 1.562819
0.9096009 1.3177594 1.1400079 1.0934131 1.2021174 0.86085844 1.1345783 1.5880005
00000000: 62d8 a53f b0f3 8f3f 0cac d13f e66a 9d3f
00000010: 6e2a c63f ec78 803f 66ae c63f 8f01 9e3f
00000020: f150 413f bbe3 6e3f 23a0 6a3f 4722 8f3f
00000030: 0e79 cc3f 06ad 8c3f c499 3c3f 65b5 843f
00000040: 7f1f 893f 9bce be3f 3be1 7d3f 1b8d 9c3f
00000050: 0c9b 863f e1b1 d33f 85f7 8c3f 1aa9 c63f
00000060: 1db1 6f3f 81e0 843f 6ec7 8d3f 849f d93f
00000070: 3e2b d33f 6b3a 963f c3f4 9c3f 023f 833f
00000080: a2fa 463f 8ca2 b93f 2586 573f 6217 603f
00000090: 7f33 b93f 6afa 653f cd9b 843f 3c67 613f
000000a0: fb23 8b3f d736 5c3f eb90 c03f fd21 ba3f
000000b0: a33a 773f 0381 b03f d18a 903f 4a0e 683f
000000c0: 36bc cb3f cb0d a03f 85f2 c23f c2f7 b43f
000000d0: ac37 633f 27e1 9f3f 8710 8f3f 740a c83f
000000e0: 9bdb 683f 57ac a83f c7eb 913f f6f4 8b3f
000000f0: fcde 993f 3861 5c3f dd39 913f 9a43 cb3f

bn1.bias f4 [64]
-0.3366398 -0.42199445 -0.39135107 -0.30464867 -0.42038816 -0.39104107 -0.55930847 -0.36950946
-0.30287203 -0.27037054 -0.29921877 -0.24414337 0.005719114 -0.26847395 -0.33229032 -0.36446488
-0.3007909 -0.20923501 -0.4001405 -0.3496345 -0.018318124 -0.12448266 -0.3671542 -0.015874572
-0.394785 -0.4980578 -0.36205122 -0.20615427 -0.29439208 -0.5317753 -0.43239495 -0.40911373
-0.3631764 -0.003809164 -0.37731543 -0.35124922 -0.3407056 -0.35594323 -0.3538591 -0.45431897
-0.45459044 -0.43075734 0.23068504 0.24643561 -0.43803355 -0.30490878 -0.31832334 -0.28323203
-0.19098887 -0.35484722 -0.29704762 -0.48728013 -0.38127497 -0.4422279 -0.2698306 -0.43998215
-0.40147898 -0.21016723 -0.48384318 -0.30631647 -0.40986374 -0.29917565 -0.43980658 -0.23196033
00000000: 0d5c acbe a80f d8be 2b5f c8be e9fa 9bbe
00000010: 1e3d d7be 8936 c8be d72e 0fbf 5830 bdbe
00000020: 0b12 9bbe 026e 8abe 3433 99be b800 7abe
00000030: 6867 bb3b 6b75 89be f521 aabe 249b babe
00000040: 4401 9abe b441 56be 37df ccbe 4b03 b3be
00000050: e40f 96bc c4f0 febd a3fb bbbe 640b 82bc
00000060: 4221 cabe 6f01 ffbe c75e b9be 1b1a 53be
00000070: 8fba 96be 6d22 08bf df62 ddbe 5b77 d1be
00000080: 42f2 b9be 2ba3 79bb 7d2f c1be f0d6 b3be
00000090: f770 aebe 313e b6be 052d b5be 7f9c e8be
000000a0: 14c0 e8be 3a8c dcbe b338 6c3e 9e59 7c3e
000000b0: ef45 e0be 011d 9cbe 47fb a2be ca03 91be
000000c0: 9692 43be 89ae b5be a016 98be c87c f9be
000000d0: 7936 c3be b26b e2be 3d27 8abe 5745 e1be
000000e0: a78e cdbe 1436 57be 4bba f7be 83d5 9cbe
000000f0: a9d9 d1be 8d2d 99be 542e e1be 0287 6dbe

bn1.running_mean f4 [64]
0.100986004 0.15364273 0.0014009412 -0.046328776 -0.11838566 0.16620475 -0.023085963 0.33914164
-0.05778083 0.15131086 -0.30356625 0.22738755 -0.1952796 -0.14172442 0.23100728 0.19310445
0.09906173 -0.21016401 -0.07702363 0.19439514 -0.13422985 -0.022458501 -0.051418867 0.1175507
-0.12927492 -0.07117392 0.04852452 -0.24317446 -0.12296417 0.06770022 -0.03994312 -0.18916643
0.12307624 0.0030501715 0.057294402 -0.027641257 -0.110680036 -0.14910445 -0.07430103 0.11765982
0.1382462 0.13942793 -0.24754326 -0.14696483 -0.13605185 0.14039044 0.22429156 -0.3439114
-0.10461148 -0.013488771 0.1231952 -0.07575672 0.24284416 0.16171561 0.29491088 -0.25194743
0.13615893 0.05364544 -0.038126443 -0.24132657 0.04794948 0.10779536 0.14846505 0.11749874
00000000: c0d1 ce3d 8554 1d3e c99f b73a 3ec3 3dbd
00000010: 2e74 f2bd 9431 2a3e c61e bdbc f9a3 ad3e
00000020: 97ab 6cbd 3cf1 1a3e 096d 9bbe 48d8 683e
00000030: 60f7 47be 3520 11be 2c8d 6c3e 2cbd 453e
00000040: e0e0 ca3d 3c35 57be 91be 9dbd 850f 473e
00000050: 8d73 09be e4fa b7bc 979c 52bd 6cbe f03d
00000060: a560 04be a2c3 91bd a6c1 463d ba02 79be
00000070: a4d4 fbbd 6aa6 8a3d 669b 23bd d8b4 41be
00000080: 650f fc3d 63e5 473b 89ad 6a3d eb6f e2bc
00000090: 37ac e2bd d6ae 18be 232b 98bd a2f7 f03d
000000a0: 6990 0d3e 32c6 0e3e fb7b 7dbe f37d 16be
000000b0: 2d51 0bbe 83c2 0f3e b0ac 653e 2815 b0be
000000c0: 8b3e d6bd 0200 5dbc c44d fc3d 5726 9bbd
000000d0: 24ac 783e c798 253e 8ffe 963e 41ff 80be
000000e0: 3f6d 0b3e 52bb 5b3d 792a 1cbd 501e 77be
000000f0: ad66 443d d0c3 dc3d 3907 183e 2ea3 f03d

bn1.running_var f4 [64]
0.21048103 0.20454036 0.18771093 0.22204824 0.46323276 0.1392981 0.35738277 0.34765363
0.16119152 0.13464488 0.25703818 0.1560878 0.2900548 0.19653238 0.22221403 0.22894064
0.2855295 0.1543713 0.24496639 0.16332208 0.17696483 0.28575537 0.3980428 0.22850636
0.15144835 0.2204292 0.4230367 0.308302 0.29410407 0.3399191 0.14853165 0.18130265
0.1780695 0.10524475 0.19491293 0.15044422 0.26081958 0.25649017 0.3161281 0.13756551
0.21651272 0.23814374 0.3748124 0.87209094 0.15853935 0.45807457 0.18823314 0.5037277
0.3499107 0.37358472 0.66543174 0.20983568 0.19259872 0.1648341 0.30811727 0.42684093
0.16296776 0.4688372 0.49998933 0.21622753 0.25636044 0.18899718 0.23762944 0.30389792
00000000: 5788 573e 0773 513e 4b37 403e 9d60 633e
00000010: d82c ed3e 29a4 0e3e e0fa b63e a8ff b13e
00000020: 640f 253e 59e0 093e 829a 833e 7bd5 1f3e
00000030: 1082 943e c93f 493e 138c 633e 6a6f 6a3e
00000040: ec30 923e 8313 1e3e 78d8 7a3e e73d 273e
00000050: 4536 353e 874e 923e 44cc cb3e 92fd 693e
00000060: 4715 1b3e 31b8 613e 4498 d83e c2d9 9d3e
00000070: cf94 963e e009 ae3e ae18 183e 67a7 393e
00000080: da57 363e 8f8a d73d 4197 473e 0d0e 1a3e
00000090: 258a 853e ae52 833e 8bdb a13e f9dd 0c3e
000000a0: 83b5 5d3e f4db 733e 69e7 bf3e 5a41 5f3f
000000b0: 2458 223e c088 ea3e 30c0 403e 4cf4 003f
000000c0: 7f27 b33e 7f46 bf3e bc59 2a3f 2adf 563e
000000d0: 9938 453e 45ca 283e 8cc1 9d3e e58a da3e
000000e0: 05e1 263e 6e0b f03e 9afe ff3e c06a 5d3e
000000f0: ad41 833e 7a88 413e 2255 733e 8298 9b3e

conv2.weight f4 [128, 64, 3]
-0.006617675 -0.039909698 0.007006406 -0.030439485 0.011586833 0.008853181 0.06702679 0.025411509
0.002517337 0.06920017 -0.0015070925 0.10799149 0.017802833 0.029073764 0.1040107 0.036998447
0.0131344125 0.07936771 0.030967094 0.050412674 -0.011351948 -0.16179025 -0.0486239 -0.07983047
0.07188723 0.13019225 0.123038456 0.07775874 -0.040849395 0.02637632 -0.04899398 0.095486335
0.16574143 -0.03416556 -0.026386103 -0.09366216 0.12605417 0.16425768 0.04716289 0.0027021626
0.04433527 0.01595219 0.043573543 0.032026265 -0.074028105 0.047334883 -0.0033767293 -0.008045386
-0.05789941 -0.0031604613 0.010002349 -0.02607888 0.07926187 0.06901941 0.034257624 -0.006964685
-0.05658889 -0.048592966 0.017985154 -0.015556393 0.13727525 0.082896814 0.10448296 0.09749448
0.061435685 -0.012557332 -0.039829526 0.061915442 0.024686908 0.012847324 -0.0074473964 0.030965189
0.010904169 0.05287724 0.04563564 0.0803727 0.03450679 0.0890708 -0.06731366 -0.08183613
-0.09516681 -0.00784435 -0.0032432112 -0.022608345 -0.022407018 -0.048383567 -0.023266384 0.013231636
-0.05962831 0.07819322 -0.015588442 -0.0019315911 -0.07111505 0.006116965 -0.017358541 -0.032934587
0.07988597 -0.05362991 -0.006238831 0.13457227 0.17104442 0.10425566 0.11502284 0.089296676
0.024964735 -0.06784685 -0.026983574 -0.097040705 -0.0046932623 0.0010001655 -0.043205995 0.16361716
-0.0049453843 -0.019877387 -0.09163421 -0.05025522 -0.03244055 0.07771447 0.072026275 0.06806702
0.037733626 -3.6363876e-05 0.019344375 0.033482194 -0.046644952 -0.013904359 0.053382017 0.111330144
0.10951604 0.04800774 0.068984896 0.055663425 -0.024718655 -0.06890583 0.058943436 -0.049296923
-0.08929068 -0.17810915 -0.09589199 -0.057299197 -0.110106945 -0.031092186 0.03173644 0.04910072
-0.0036242194 0.0419769 -0.022717534 -0.07395881 0.0019711175 -0.058762416 -0.05974606 0.0017081167
-0.04880087 0.083561234 0.046746764 -0.055357035 0.027722156 -0.027758544 0.07051615 -0.030495435
-0.07700867 0.0077576116 -0.031217087 -0.01930523 -0.10721123 -0.05976624 -0.03216762 0.0758594
0.053801697 0.064260244 -0.04123033 0.113585435 0.14237742 0.08169908 -0.0908631 -0.08928242
-0.057502802 0.019630881 -0.01951954 -0.053220034 -0.071313284 -0.10005601 0.06381802 -0.05726033
0.025069598 0.0073600644 -0.058777105 -0.10754089 -0.031605806 0.02053698 0.07865833 0.10707024
-0.004298239 -0.20557028 0.04829888 -0.028048338 -0.10293829 -0.006119531 -0.06695246 -0.0034892939
0.030292436 0.075355336 0.08809311 -0.09468826 -0.08113602 -0.061236273 -0.0040170383 -0.050645858
0.044466507 -0.051608462 -0.030900616 -0.016290264 -0.07499563 0.01670949 -0.029702084 0.025981216
0.012678189 0.06983685 0.010067578 -0.008220002 0.017662996 -0.034601085 -0.0037876258 0.046751186
0.12867878 0.02289403 -0.007833195 0.031553455 0.011534607 -0.030272014 -0.04530618 -0.036086112
-0.019436728 -0.10607975 -0.04571983 0.05102703 -0.12476807 -0.051491473 0.09523916 0.022395106
0.034774594 -0.05047814 0.087050825 -0.012112174 -0.044044074 0.062553056 0.013610408 -0.05648465
0.03129227 0.04348922 -0.08295674 0.028837707 0.01981422 0.037620194 0.036785074 -0.024281858
00000000: 15d9 d8bb 5a78 23bd fe95 e53b 3a5c f9bc
00000010: b3d6 3d3c ef0c 113c 5745 893d cc2b d03c
00000020: e8f9 243b d2b8 8d3d a289 c5ba a42a dd3d
00000030: 3fd7 913c 1a2c ee3c 9003 d53d af8b 173d
00000040: b831 573c 8a8b a23d b4ae fd3c 857d 4e3d
00000050: 85fd 39bc 58ac 25be db29 47bd 287e a3bd
00000060: 9d39 933d 1e51 053e 96fb fb3d f93f 9f3d
00000070: b251 27bd 2713 d83c e9ad 48bd 578e c33d
00000080: 1fb8 293e 30f1 0bbd ab27 d8bc f2d1 bfbd
00000090: 5814 013e 2a33 283e e02d 413d c416 313b
000000a0: e698 353d 2bae 823c 2c7a 323d f92d 033d
000000b0: 0c9c 97bd 39e2 413d 1e4c 5dbb cbd0 03bc
000000c0: ef27 6dbd be1f 4fbb e4e0 233c 60a3 d5bc
000000d0: 0c54 a23d 0c5a 8d3d b951 0c3d 0338 e4bb
000000e0: c0c9 67bd 6b09 47bd 9a55 933c 3ee0 7ebc
000000f0: e291 0c3e cec5 a93d 2afb d53d 30ab c73d
00000100: fca3 7b3d 45bd 4dbc 4924 23bd 0c9b 7d3d
00000110: 333c ca3c 957d 523c 4a09 f4bb b5aa fd3c
00000120: 66a7 323c ce95 583d 70ec 3a3d 719a a43d
00000130: fe56 0d3d c06a b63d bfdb 89bd b399 a7bd
00000140: d1e6 c2bd 9785 00bc 0e8c 54bb 2335 b9bc
00000150: ec8e b7bc d92d 46bd 2599 bebc 81c9 583c
00000160: d13c 74bd c423 a03d aa66 7fbc 712d fdba
00000170: c4a4 91bd d270 c83b 8033 8ebc 6be6 06bd
00000180: 419b a33d 09ab 5bbd 1c6f ccbb 50cd 093e
00000190: 4526 2f3e fe83 d53d 1891 eb3d 2de1 b63d
000001a0: d882 cc3c 4af3 8abd a80c ddbc 47bd c6bd
000001b0: f0c9 99bb fc17 833a c5f8 30bd 428b 273e
000001c0: e40c a2bb e7d5 a2bc b7aa bbbd 6bd8 4dbd
000001d0: 62e0 04bd c428 9f3d 8382 933d b966 8b3d
000001e0: 938e 1a3d 6a85 18b8 1878 9e3c a024 093d
000001f0: c70e 3fbd 1ccf 63bc 1aa7 5a3d 0f01 e43d
00000200: f249 e03d c4a3 443d f447 8d3d 55ff 633d
00000210: c77e cabc 801e 8dbd ac6e 713d 92eb 49bd
00000220: 08de b6bd 3f62 36be 0563 c4bd 90b2 6abd
00000230: c07f e1bd 0ab5 febc 12fe 013d d61d 493d
00000240: 5084 6dbb f8ef 2b3d 1f1a babc b777 97bd
00000250: dd2d 013b dcb0 70bd 49b8 74bd e3e2 df3a
00000260: 6ce3 47bd 2722 ab3d 8979 3f3d 0fbe 62bd
00000270: 9319 e33c e365 e3bc c56a 903d 90d1 f9bc
00000280: b9b6 9dbd 9033 fe3b faba ffbc 0026 9ebc
00000290: 9091 dbbd 72cd 74bd 32c2 03bd 2c5c 9b3d
000002a0: 2b5f 5c3d e09a 833d 22e1 28bd 7b9f e83d
000002b0: 63cb 113e d951 a73d 6f16 babd b4d9 b6bd
000002c0: 0f88 6bbd f1d0 a03c 71e7 9fbc 40fd 59bd
000002d0: b30c 92bd 2aea ccbd 06b3 823d cf89 6abd
000002e0: c25e cd3c b22c f13b 43c0 70bd 663e dcbd
000002f0: 1775 01bd 2b3d a83c 9e17 a13d a447 db3d
00000300: 3ed8 8cbb 0481 52be 0cd5 453d a1c5 e5bc
00000310: 4fd1 d2bd 5986 c8bb 5f1e 89bd a3ac 64bb
00000320: d827 f83c e653 9a3d 296a b43d ebeb c1bd
00000330: a42a a6bd e3d2 7abd 5ca1 83bb 0872 4fbd
00000340: 8322 363d 6563 53bd 4a23 fdbc 2973 85bc
00000350: 4f97 99bd 57e2 883c c951 f3bc 8fd6 d43c
00000360: 2eb8 4f3c 9f06 8f3d 7cf2 243c 30ad 06bc
00000370: fdb1 903c deb9 0dbd d139 78bb 2c7e 3f3d
00000380: 5fc4 033e 438c bb3c cd56 00bc 323e 013d
00000390: a6fb 3c3c 04fd f7bc f992 39bd 08cf 13bd
000003a0: c639 9fbc 5740 d9bd b744 3bbd b801 513d
000003b0: 6786 ffbd b9e8 52bd c00c c33d f175 b73c
000003c0: ce6f 0e3d 2bc2 4ebd b447 b23d 2472 46bc
000003d0: 8f67 34bd d11b 803d 30fe 5e3c 735c 67bd
000003e0: 532c 003d c121 323d 39e5 a9bd 0e3d ec3c
000003f0: 6e51 a23c a217 1a3d f2ab 163d bfea c6bc

conv2.bias f4 [128]
-0.0012223179 -0.050887857 -0.060896326 0.015014502 -0.055857863 -0.0029015027 -0.052904356 -0.002970327
-0.028137596 0.04338371 0.010139989 -0.021299409 -0.05364537 -0.060036715 0.050039575 -0.020442506
-0.018106146 -0.0024545484 -0.0015628997 0.021235 -0.0045331973 -0.026978405 -0.021275962 0.013874255
0.020729098 -0.029034993 0.035871513 -0.020593021 0.021259626 -0.04149348 -0.030169334 0.037391268
-0.021655181 0.009533026 -0.066136666 -0.04343986 0.06371313 -0.03643145 0.018054994 -0.004011883
-0.053788334 0.024209572 0.031867128 0.048929404 0.047840014 -0.010507971 -0.06262892 -0.04559246
-0.01230505 0.054652624 -0.058444522 -0.009160464 0.004754891 0.0506448 -0.03007471 0.040386505
-0.0009140863 0.04851154 -0.016252853 -0.025714919 -0.012329451 0.06625134 0.029747443 0.024816997
0.000713335 -0.002298467 0.056800514 -0.0012121191 -0.034204304 0.009176331 -0.01191866 -0.052869897
-0.071406275 -0.06625792 0.047996774 -0.060055334 0.0037711828 0.07140307 0.06519812 -0.05110313
-0.014430164 -0.025056118 0.072954684 0.0222185 0.046999104 0.04389796 0.04820068 0.03372587
-0.055578467 -0.055201694 0.05660727 0.02284576 0.0064424616 -0.06653754 -0.02567709 0.06452776
0.050482962 0.06412331 0.002477853 -0.0018256113 -0.023438236 -0.021061428 0.0626793 -0.01999955
-0.022643909 -0.009461654 0.0073648286 0.002863698 0.06474164 0.02006072 -0.059662662 -0.054874625
-0.04915349 0.008060458 0.027305312 0.058355417 -0.018092802 0.009572018 -0.025796497 0.0051299394
-0.025333516 -0.04875101 0.06359351 -0.005345756 -0.06788121 -0.021105196 0.0056333314 -0.05677882
00000000: 2f36 a0ba c96f 50bd 6d6e 79bd 63ff 753c
00000010: 37cb 64bd 2327 3ebb 3db2 58bd d1a9 42bb
00000020: d180 e6bc 1eb3 313d 3222 263c 197c aebc
00000030: 3fbb 5bbd 0fe9 75bd 4cf6 4c3d 0b77 a7bc
00000040: 5753 94bc 7ddc 20bb 36da ccba 06f5 ad3c
00000050: 378b 94bb d101 ddbc ed4a aebc d850 633c
00000060: 12d0 a93c cbda edbc 02ee 123d b2b2 a8bc
00000070: ab28 ae3c 11f5 29bd ae25 f7bc 9627 193d
00000080: 3566 b1bc 6930 1c3c a972 87bd ffed 31bd
00000090: 087c 823d 2539 15bd 11e8 933c 1d76 83bb
000000a0: 2851 5cbd 2753 c63c 1b87 023d 336a 483d
000000b0: e4f3 433d a029 2cbc 9743 80bd 29bf 3abd
000000c0: 1f9b 49bc 6edb 5f3d 8663 6fbd c515 16bc
000000d0: ebce 9b3b ec70 4f3d 3d5f f6bc 526c 253d
000000e0: 4b9f 6fba 09b4 463d b424 85bc 18a8 d2bc
000000f0: 7701 4abc c8ae 873d e9b0 f33c 044d cb3c
00000100: 1aff 3a3a e1a1 16bb a8a7 683d f8df 9eba
00000110: d019 0cbd 5258 163c 7c46 43bc 1b8e 58bd
00000120: 743d 92bd 3bb2 87bd 4498 443d 95fc 75bd
00000130: f325 773b c63b 923d 9886 853d 8451 51bd
00000140: 7f6c 6cbc 7d42 cdbc 4469 953d 9203 b63c
00000150: 2282 403d 59ce 333d 146e 453d 2324 0a3d
00000160: 3fa6 63bd 2c1b 62bd 06dd 673d 0827 bb3c
00000170: 491b d33b d544 88bd c358 d2bc 2127 843d
00000180: 39c7 4e3d 1553 833d 7a63 223b 5a49 efba
00000190: 8b01 c0bc 0489 acbc 015e 803d 19d6 a3bc
000001a0: b87f b9bc 0e05 1bbc a954 f13b e1ac 3b3b
000001b0: 4497 843d 6156 a43c d660 74bd 37c4 60bd
000001c0: 2c55 49bd 0310 043c 64af df3c 1706 6f3d
000001d0: 5b37 94bc f4d3 1c3c 2d53 d3bc 0d19 a83b
000001e0: 3c88 cfbc 24af 47bd 503d 823d 742b afbb
000001f0: 4e05 8bbd cee4 acbc cf97 b83b e890 68bd

bn2.weight f4 [128]
1.6520035 1.230012 1.0584799 1.7097826 1.0453508 1.1939892 1.3194064 1.01344
1.0533258 1.1430056 1.08897 1.4340438 0.8444575 1.6887059 1.3882055 1.625907
1.0494459 1.2546315 0.9914577 1.458979 1.0348632 1.3314308 1.6438171 1.3019038
1.2863628 1.1573635 1.4029227 0.97103107 1.0211824 1.3289883 1.4317976 1.1331968
1.0679723 1.6086562 1.0978296 1.7471884 0.96118826 0.913882 1.2496631 1.0326045
1.5050784 1.4111711 1.5469192 1.382063 1.0579504 1.145509 1.2488937 1.1359521
0.98017585 0.9801 1.31583 1.2100163 1.1343104 1.2158884 1.0836858 1.489323
1.1046876 1.0889901 0.8284387 1.3513695 1.6401806 1.02191 1.5658857 1.319956
1.0529428 1.219699 1.6378018 1.2992474 1.4170287 1.0692828 1.386384 1.190313
1.2166607 1.1725184 1.2412232 1.4298896 1.4077933 1.1966815 1.4121604 1.1582589
1.1684743 1.277461 1.0871662 1.9710708 1.0219921 1.1217141 1.5472167 1.0679603
1.250802 1.0279862 1.2656006 1.3749318 1.6950152 1.1630989 1.4151968 1.1483858
1.3371936 1.6347827 1.159666 0.95666146 1.2118393 0.9972334 0.91220707 1.711441
1.1112406 1.0569551 1.2172464 1.4216386 1.8626486 1.4465566 1.6011138 1.1372691
1.6530213 1.0379797 1.2542582 1.4767587 1.2310891 1.2249262 1.137633 1.5155959
1.4527775 1.5006803 1.4356518 1.0181531 1.2756819 1.21067 1.9210873 1.4009403
00000000: da74 d33f 0971 9d3f 457c 873f 28da da3f
00000010: 0ece 853f a3d4 983f 4fe2 a83f 67b8 813f
00000020: 61d3 863f 024e 923f 5e63 8b3f bf8e b73f
00000030: 5e2e 583f 8427 d83f b8b0 b13f b81d d03f
00000040: 3e54 863f c497 a03f 2cd0 7d3f d3bf ba3f
00000050: 6676 843f 536c aa3f 9968 d23f c9a4 a63f
00000060: 89a7 a43f 7d24 943f f992 b33f 7e95 783f
00000070: 1bb6 823f 4a1c aa3f 2545 b73f 980c 913f
00000080: 51b3 883f 72e8 cd3f ae85 8c3f dfa3 df3f
00000090: 6f10 763f 2cf4 693f f6f4 9f3f 622c 843f
000000a0: 69a6 c03f 41a1 b43f 7301 c63f 71e7 b03f
000000b0: eb6a 873f 0aa0 923f c0db 9f3f e166 913f
000000c0: ceec 7a3f d5e7 7a3f 1e6d a83f d0e1 9a3f
000000d0: 1531 913f 3ba2 9b3f 37b6 8a3f 23a2 be3f
000000e0: 6766 8d3f 0764 8b3f 8f14 543f adf9 ac3f
000000f0: 70f1 d13f f2cd 823f f16e c83f 51f4 a83f
00000100: d4c6 863f 191f 9c3f 7da3 d13f bd4d a63f
00000110: 3261 b53f 42de 883f 0875 b13f 2d5c 983f
00000120: 8abb 9b3f 1515 963f 67e0 9e3f 9f06 b73f
00000130: 9232 b43f dc2c 993f acc1 b43f d441 943f
00000140: 9190 953f d883 a33f 4328 8b3f 0c4c fc3f
00000150: a3d0 823f 5494 8f3f 320b c63f ecb2 883f
00000160: 481a a03f 0d95 833f 33ff a13f c4fd af3f
00000170: 42f6 d83f 6de0 943f 2b25 b53f 4efe 923f
00000180: 2929 ab3f 8f40 d13f ef6f 943f c4e7 743f
00000190: 8d1d 9b3f b04a 7f3f 6786 693f 8010 db3f
000001a0: 223d 8e3f 4e4a 873f bbce 9b3f 41f8 b53f
000001b0: 456b ee3f c428 b93f 4cf1 cc3f 0992 913f
000001c0: 3496 d33f 85dc 843f 888b a03f 6e06 bd3f
000001d0: 5494 9d3f 62ca 9c3f f59d 913f 0cff c13f
000001e0: 9df4 b93f 4b16 c03f 70c3 b73f d752 823f
000001f0: 8b49 a33f 3cf7 9a3f 30e6 f53f 0352 b33f

bn2.bias f4 [128]
-0.21030678 -0.2415279 -0.318809 -0.1758564 -0.5497572 -0.048381433 -0.2962892 -0.30344957
-0.3749501 -0.14054365 -0.36558735 -0.10532703 -0.65126145 -0.13965122 -0.1777791 -0.21352322
-0.289316 -0.48686895 -0.29858923 -0.20752437 -0.24283327 -0.06613169 -0.18054385 -0.31289864
-0.13665344 -0.38976413 -0.3254845 -0.2267523 -0.28303218 -0.23843087 -0.17140327 -0.34229454
-0.24018879 -0.26585093 -0.22929926 0.02032479 -0.4495094 -0.36554646 -0.3941979 -0.46610638
-0.3286338 -0.29008415 -0.24154074 -0.28273538 -0.32574546 -0.19415519 -0.11164309 -0.3132677
-0.39997923 -0.457158 -0.1389094 -0.18190178 -0.40911195 -0.4731772 -0.33422816 -0.35501653
-0.50925076 -0.33144158 -0.51678133 -0.25933936 -0.24839325 -0.3143098 -0.28984872 -0.13372631
-0.2433257 -0.4229515 -0.36888278 -0.30916408 -0.24392824 -0.22062254 -0.36243254 -0.35871568
-0.36287257 -0.09614734 -0.31063268 -0.25607017 -0.2224488 -0.3039561 -0.21047789 -0.44775057
-0.32233647 -0.28550994 -0.43207005 -0.028365696 -0.4433478 -0.17587455 -0.17991634 -0.28184777
-0.29686543 -0.55053216 -0.35534227 -0.18910801 -0.32518914 -0.36618477 -0.35933354 -0.4430683
-0.22157925 -0.18628743 -0.388152 -0.22488496 -0.3547174 -0.16768433 -0.51571935 0.11840149
-0.23244175 -0.3174512 -0.49037114 -0.20097259 -0.114667356 -0.09782378 -0.14829892 -0.4148509
-0.16661187 -0.35387084 -0.40674424 -0.2697888 -0.3073096 -0.24209762 -0.06675425 -0.1479841
-0.20459127 -0.30393192 -0.24927431 -0.46096078 -0.12906222 -0.3402601 0.12034858 -0.43144116
00000000: a95a 57be 1753 77be ef3a a3be b313 34be
00000010: e3bc 0cbf 9c2b 46bd 38b3 97be be5d 9bbe
00000020: 76f9 bfbe adea 0fbe 442e bbbe b3b5 d7bd
00000030: 12b9 26bf bb00 0fbe b90b 36be d5a5 5abe
00000040: 3a21 94be e346 f9be b0e0 98be 4581 54be
00000050: 49a9 78be 0d70 87bd 7de0 38be 4034 a0be
00000060: e1ee 0bbe 2a8f c7be e8a5 a6be c131 68be
00000070: 98e9 90be 3927 74be 5784 2fbe 3b41 afbe
00000080: 0df4 75be 9d1d 88be 6dcd 6abe 2d80 a63c
00000090: 1926 e6be e828 bbbe 4fd4 c9be 7fa5 eebe
000000a0: b042 a8be e985 94be 7556 77be b1c2 90be
000000b0: 1cc8 a6be 9ed0 46be 22a5 e4bd a064 a0be
000000c0: 14ca ccbe 9d10 eabe 443e 0ebe 7644 3abe
000000d0: 1f77 d1be 4844 f2be f41f abbe bac4 b5be
000000e0: 425e 02bf b6b2 a9be c84b 04bf 21c8 84be
000000f0: cd5a 7ebe 37ed a0be 0d67 94be 8def 08be
00000100: 5f2a 79be 198d d8be 34de bcbe c14a 9ebe
00000110: 53c8 79be e0ea 61be c290 b9be 95a9 b7be
00000120: 6fca b9be e6e8 c4bd 3f0b 9fbe a11b 83be
00000130: 9ec9 63be 22a0 9bbe 8487 57be 903f e5be
00000140: 4909 a5be 5c2e 92be 4938 ddbe 2d5f e8bc
00000150: 7cfe e2be 7518 34be fd3b 38be 5a4e 90be
00000160: bffe 97be adef 0cbf 6cef b5be 88a5 41be
00000170: 317f a6be 927c bbbe 91fa b7be d9d9 e2be
00000180: ace5 62be 22c2 3ebe dcbb c6be 3e48 66be
00000190: 859d b5be 71b5 2bbe 2f06 04bf 7b7c f23d
000001a0: 3605 6ebe f788 a2be ed11 fbbe c2cb 4dbe
000001b0: b8d6 eabd d557 c8bd acdb 17be 5667 d4be
000001c0: 4d9c 2abe 8f2e b5be c840 d0be c221 8abe
000001d0: af57 9dbe 70e8 77be 74b6 88bd 2589 17be
000001e0: 6080 51be f79c 9bbe c441 7fbe 0d03 ecbe
000001f0: e328 04be 9236 aebe 5179 f63d dbe5 dcbe

bn2.running_mean f4 [128]
0.5019779 0.0036592972 -0.21232095 0.24481304 -0.32037526 0.16296582 -0.03653121 -0.23927447
-0.32449657 0.023337867 -0.21693219 0.2773962 -0.1283746 -0.6510213 -0.75864667 0.6353771
-0.28250352 -0.21293858 0.59013367 0.6176026 -0.35707366 0.24114214 0.31120563 -0.3624749
0.7211383 0.12896934 -0.38074318 0.49415767 -0.0047127465 1.0549952 0.49230462 0.09788413
-0.49872062 0.5454372 0.18434533 0.13658874 0.06922505 -0.48430416 0.27666405 -0.29234046
0.030478397 0.52239513 0.35111976 0.8569333 -0.59555095 -0.3922292 0.18617643 0.2910546
-0.0847164 0.017870883 0.6795122 0.18254821 -0.42158896 0.2834929 -0.4216446 0.18058173
0.40712848 -0.64976573 -0.06587175 0.4538718 0.7242589 -0.014057523 0.7844125 0.1386546
0.102344565 0.35722634 0.27638444 -0.628579 -0.16078149 -0.33521473 0.09365123 -0.20566398
0.030089354 -0.25399587 -0.011560358 -0.5074714 -0.15961964 0.7427777 -0.77750856 -0.6992951
0.35946217 -0.054896735 -0.44123557 -0.7280413 0.07294674 0.021609338 0.4165321 0.115744576
0.18965302 0.19796635 -0.39395696 -0.023431126 0.047631036 0.47022194 0.021879334 0.035083115
0.01627171 0.31444535 -0.30127838 0.58439285 0.7429435 -0.07998188 -0.2290539 0.113948874
-0.011667178 0.18222786 -0.26460862 0.2752745 0.3811135 -0.017645307 -0.8526606 -0.122556284
-0.48901767 -0.028271317 0.046414696 -0.0649303 0.048314802 0.42797655 0.62639326 0.5537492
-0.21728705 -0.33969352 -0.052206744 -0.21013787 0.19474149 1.19811 0.305359 0.113764435
00000000: a081 003f d2d0 6f3b aa6a 59be 45b0 7a3e
00000010: 3a08 a4be 83e0 263e c0a1 15bd 5e04 75be
00000020: 6a24 a6be 0e2f bf3c 7923 5ebe e006 8e3e
00000030: a274 03be 55a9 26bf ab36 42bf 13a8 223f
00000040: 4da4 90be 920c 5abe 0013 173f 341b 1e3f
00000050: 5cd2 b6be f7ed 763e 5856 9f3e 4f96 b9be
00000060: 859c 383f 8a10 043e c5f0 c2be 3c02 fd3e
00000070: 626d 9abb 150a 873f 5a0f fc3e 7a77 c83d
00000080: 4f58 ffbe c6a1 0b3f 06c5 3c3e ebdd 0b3e
00000090: ddc5 8d3d b7f6 f7be e9a6 8d3e a6ad 95be
000000a0: d5ad f93c b0bb 053f f8c5 b33e fb5f 5b3f
000000b0: 0776 18bf 44d2 c8be 09a5 3e3e 1c05 953e
000000c0: cb7f adbd f565 923c 83f4 2d3f ebed 3a3e
000000d0: 82da d7be fb25 913e cde1 d7be 6bea 383e
000000e0: 2573 d03e 0c57 26bf c5e7 86bd e261 e83e
000000f0: 0869 393f 8651 66bc 42cf 483f 79fb 0d3e
00000100: 079a d13d 5fe6 b63e 4382 8d3e 8eea 20bf
00000110: e7a3 24be 44a1 abbe 37cc bf3d 9499 52be
00000120: f37d f63c bf0b 82be a867 3dbc a5e9 01bf
00000130: 5573 23be ae26 3e3f cd0a 47bf 0105 33bf
00000140: 6d0b b83e 66db 60bd a1e9 e1be ea60 3abf
00000150: 1a65 953d 1106 b13c b243 d53e 7e0b ed3d
00000160: 6734 423e b1b7 4a3e bab4 c9be a2f2 bfbc
00000170: c318 433d eec0 f03e 4a3c b33c 50b3 0f3d
00000180: 404c 853c fbfe a03e 2941 9abe c59a 153f
00000190: 8c31 3e3f 8acd a3bd 1b8d 6abe 075e e93d
000001a0: b127 3fbc f199 3a3e c87a 87be c7f0 8c3e
000001b0: 4f21 c33e e48c 90bc f747 5abf cafe fabd
000001c0: 8660 fabe 4099 e7bc 561d 3e3d 2dfa 84bd
000001d0: bee5 453d be1f db3e 4f5b 203f 82c2 0d3f
000001e0: 7f80 5ebe 4fec adbe bdd6 55bd 622e 57be
000001f0: 506a 473e ab5b 993f 0458 9c3e 54fd e83d

bn2.running_var f4 [128]
1.569362 1.2964863 1.1188543 1.4182106 1.0507656 1.0246186 0.884492 1.1273532
0.8864217 1.091043 1.1115502 1.534425 0.971547 1.468825 1.4750695 1.4020432
1.279689 1.2773849 0.9867676 1.1838504 0.9542963 1.2102103 1.1474812 1.4452605
1.283798 1.0925386 1.3996162 0.8109775 1.1821699 1.0105157 1.22791 1.073788
1.0521802 1.5500661 1.0264455 1.3975549 0.7955725 1.0452033 1.0690844 1.1236007
1.175752 1.0506798 1.893287 1.1878432 1.069689 1.1441191 1.0222594 0.85970277
1.0431834 0.95206875 1.1320144 1.1630392 1.1846621 1.0069791 1.0230646 1.2377697
0.8828892 1.2909133 0.812584 1.1137464 1.3107489 0.8761027 0.99156016 1.0098884
1.0178181 1.1845474 1.2847648 1.0677096 1.3274485 1.2726828 1.2300769 1.2291529
0.93704826 0.8835107 1.1984532 1.1564398 1.240465 1.237731 1.2168359 1.081186
0.9615481 1.4134955 1.1022375 1.8021674 1.1261756 1.0749881 1.3713647 1.1946294
1.2262967 1.0237705 1.2407335 1.2516274 1.532667 1.139445 1.1489925 0.8839112
1.4003422 1.121189 1.0291218 0.8565712 0.99002254 1.1475499 0.98068357 1.5637732
1.0556653 1.2273041 1.081154 0.90257496 1.2319767 1.0333656 1.2506368 0.9419894
1.3756096 1.170283 1.2983199 1.3778406 1.651736 1.3056413 1.022405 1.2109845
1.3475375 1.3489394 1.5415665 1.10694 1.1585182 0.91494143 1.5601468 1.4315175
00000000: dbe0 c83f 43f3 a53f 9e36 8f3f ed87 b53f
00000010: 7d7f 863f b426 833f 116e 623f 1c4d 903f
00000020: 88ec 623f 4ca7 8b3f 4747 8e3f 0a68 c43f
00000030: 4eb7 783f 7502 bc3f 14cf bc3f 2776 b33f
00000040: d9cc a33f 5981 a33f cd9c 7c3f 6988 973f
00000050: c34c 743f 2ce8 9a3f aae0 923f 4cfe b83f
00000060: 7e53 a43f 4ed8 8b3f a026 b33f 399c 4f3f
00000070: 5851 973f 9458 813f 282c 9d3f e371 893f
00000080: d7ad 863f 9168 c63f 9162 833f 14e3 b23f
00000090: a4aa 4b3f 39c9 853f c2d7 883f 26d2 8f3f
000000a0: 0b7f 963f ad7c 863f 3a57 f23f 3f0b 983f
000000b0: 92eb 883f 7f72 923f 65d9 823f 7b15 5c3f
000000c0: 0987 853f c7ba 733f d9e5 903f 78de 943f
000000d0: 02a3 973f b1e4 803f c8f3 823f 3d6f 9e3f
000000e0: 0705 623f a63c a53f 8105 503f 3e8f 8e3f
000000f0: 9fc6 a73f 4448 603f e3d6 7d3f 0644 813f
00000100: dd47 823f 409f 973f 2c73 a43f b5aa 883f
00000110: d5e9 a93f 45e7 a23f 2973 9d3f e254 9d3f
00000120: 65e2 6f3f c22d 623f ea66 993f 3806 943f
00000130: 8fc7 9e3f f86d 9e3f 47c1 9b3f 4e64 8a3f
00000140: 0428 763f 6ced b43f 1e16 8d3f 6cad e63f
00000150: 8626 903f 3699 893f e188 af3f 9ee9 983f
00000160: 4af7 9c3f e90a 833f 5bd0 9e3f 5435 a03f
00000170: 6f2e c43f 55d9 913f 3012 933f 0148 623f
00000180: 6a3e b33f 1f83 8f3f 43ba 833f 4048 5b3f
00000190: 1e72 7d3f eae2 923f 140e 7b3f b829 c83f
000001a0: 0a20 873f 4d18 9d3f 4163 8a3f 270f 673f
000001b0: 6ab1 9d3f 5345 843f de14 a03f 3826 713f
000001c0: fa13 b03f d5cb 953f 592f a63f 155d b03f
000001d0: 166c d33f 411f a73f 2bde 823f 8a01 9b3f
000001e0: 1c7c ac3f 0caa ac3f 0d52 c53f 36b0 8d3f
000001f0: 534a 943f 9a39 6a3f e4b2 c73f f73b b73f

classifier.0.weight f4 [128, 384]
-0.05088161 -0.034123857 0.04443548 -0.10695919 -0.035578668 0.031111369 -0.038138982 -0.07846493
0.030524736 -0.092303924 -0.0015740864 0.03624388 0.008714185 0.012076283 -0.042361096 0.02961592
-0.061414637 -0.08776542 0.086257346 -0.074496694 -0.028566828 0.018443255 -0.004004651 -0.10459412
-0.060900383 -0.00452565 0.009435672 0.18788016 -0.007980425 0.082104415 0.050750885 -0.07338246
0.13016172 -0.00732546 0.07161222 -0.052613102 0.11054163 0.063521035 -0.011924071 0.018922547
0.02416709 0.04154628 0.007791466 -0.038053796 0.08713434 -0.016836083 -0.029441282 -0.11755893
0.031423558 -0.074239835 0.11510163 0.13474481 0.04938962 -0.031832308 -0.047672234 -0.024344884
-0.0104135275 0.095908634 0.071726516 -0.015088032 0.0040550516 -0.06652049 -0.014024391 0.028682774
0.046661556 -0.11229496 0.0017569744 -0.011366569 0.019694334 0.026157847 0.008478245 0.106395744
0.13195501 0.036149673 0.15532468 -0.038147006 -0.021960462 -0.066244915 0.112349324 0.07675139
-0.0924931 0.13997722 0.056793027 -0.12655742 0.040303756 0.037764404 0.01419026 0.032058053
-0.05982778 0.065631285 0.0066814553 -0.062153574 0.053052984 -0.09414717 0.024240365 0.035743386
-0.032649126 -0.00693014 -0.14005616 -0.024824444 -0.019676646 -0.14705534 0.10658205 -0.0053440724
-0.021470208 -0.0626808 -0.027764862 -0.06412363 -0.011458981 0.10847825 0.13159126 -0.00435571
0.057940334 0.17318784 0.072652146 -0.16537236 -0.03214676 -0.023694728 0.014040817 0.013572955
0.0074531566 -0.04196484 0.07918129 0.013438658 -0.06917573 -0.0626653 0.04736451 0.01172373
-0.20740755 -0.041104723 0.0626245 -0.06898282 -0.01320527 -0.10353005 -0.13195142 -0.15608326
-0.06934113 -0.0021204872 -0.05530847 0.074761994 -0.13066924 -0.010707515 -0.032279298 0.03737898
0.067274086 0.0709254 -0.112349294 -0.106931895 -0.04977984 0.080976516 -0.032107744 -0.088709205
0.1987439 -0.06719163 -0.06798302 -0.1088667 0.078203164 -0.18661709 0.059816953 -0.023180228
-0.30106696 -0.22594568 0.064043194 0.034188095 0.03638041 0.01631519 -0.04756376 -0.121397726
-0.034319997 0.024808627 -0.32475743 -0.013935821 0.046438783 -0.0077730296 0.013521986 -0.087960124
0.13083452 0.03542555 0.10622456 -0.12061882 0.086098 -0.12748282 -0.0752287 -0.02532785
-0.027247962 -0.038557626 -0.08909819 0.004794176 -0.018426549 0.042401664 -0.000100674464 -0.12319713
-0.099819094 -0.07306958 0.011714711 0.054616693 -0.131739 0.054444775 0.003086415 -0.112172864
-0.049274307 0.017721245 0.02072062 0.031389676 -0.09070936 -0.18446378 -0.14707074 0.05990829
0.039035432 0.07324074 0.10328759 -0.18795955 -0.06295259 -0.0034125445 -0.069955684 -0.065335274
-0.0803923 -0.12269601 -0.21440189 0.0057914304 -0.06752437 0.14867052 0.014313202 0.029374922
-0.021876173 -0.09639005 -0.1016058 -0.049367335 0.10267447 0.07770427 -0.01983024 -0.04669016
-0.020110248 -0.09626169 -0.03289222 -0.019018305 0.09009256 -0.055691347 -0.1319675 0.025604185
0.059627376 -0.05022468 -0.013444363 0.031307172 -0.015008841 -0.008255694 -0.10462597 0.031366322
0.02006995 -0.004952981 -0.018676784 -0.0071498915 0.118833944 0.008994536 0.024623942 -0.005408925
00000000: 3c69 50bd 75c5 0bbd fa01 363d 6b0d dbbd
00000010: f0ba 11bd 45dd fe3c 9f37 1cbd 39b2 a0bd
00000020: 030f fa3c d709 bdbd 9351 ceba 7674 143d
00000030: f1c5 0e3c 9adb 453c d482 2dbd 169d f23c
00000040: ea8d 7bbd 5bbe b3bd b1a7 b03d b991 98bd
00000050: fb04 eabc 4f16 973c 7339 83bb 7135 d6bd
00000060: ae72 79bd e74b 94bb 1498 1a3c a863 403e
00000070: 54c0 02bc 5c26 a83d 29e0 4f3d 8b49 96bd
00000080: 1d49 053e 6a0a f0bb 6da9 923d d680 57bd
00000090: a663 e23d 5117 823d 2e5d 43bc 7503 9b3c
000000a0: 10fa c53c 6f2c 2a3d 8e4f ff3b 4cde 1bbd
000000b0: 7d73 b23d d3eb 89bc d82e f1bc bcc2 f0bd
000000c0: fdb5 003d 0e0b 98bd 67ba eb3d 8bfa 093e
000000d0: c54c 4a3d 9862 02bd f643 43bd ec6e c7bc
000000e0: 809d 2abc bf6b c43d 5ae5 923d cb33 77bc
000000f0: 3de0 843b e53b 88bd 8fc6 65bc 23f8 ea3c
00000100: 3020 3f3d e6fa e5bd 474a e63a d93a 3abc
00000110: 0356 a13c fb48 d63c 56e8 0a3c 03e6 d93d
00000120: 371f 073e ae11 143d 6f0d 1f3e 0940 1cbd
00000130: 6de6 b3bc 6aab 87bd 6717 e63d d52f 9d3d
00000140: 066d bdbd 3056 0f3e ce9f 683d 4598 01be
00000150: 8d15 253d d9ae 1a3d 447e 683c 4e4f 033d
00000160: f90d 75bd b269 863d 1cf0 da3b bf94 7ebd
00000170: 164e 593d 3bd0 c0bd bb93 c63c a867 123d
00000180: 17bb 05bd 3a16 e3bb e26a 0fbe a25c cbbc
00000190: eb30 a1bc ad95 16be b147 da3d 541d afbb
000001a0: 4ae2 afbc cb5e 80bd 2373 e3bc 4053 83bd
000001b0: 73be 3bbc d829 de3d dcbf 063e 58ba 8ebb
000001c0: d852 6d3d 2758 313e a6ca 943d 5f57 29be
000001d0: 52ac 03bd 721b c2bc 740b 663c 1961 5e3c
000001e0: 9c39 f43b 53e3 2bbd cd29 a23d d12d 5c3c
000001f0: 01ac 8dbd aa56 80bd 4a01 423d e314 403c
00000200: a562 54be 6d5d 28bd 4641 803d dd46 8dbd
00000210: eb5a 58bc 9007 d4bd 461e 07be 4ad4 1fbe
00000220: b902 8ebd dff7 0abb 228b 62bd d11c 993d
00000230: 28ce 05be 936e 2fbc 4c37 04bd b41a 193d
00000240: ffc6 893d 5641 913d 6317 e6bd 1cff dabd
00000250: f2e5 4bbd 04d7 a53d 6983 03bd 2cad b5bd
00000260: 8583 4b3e c49b 89bd ae3a 8bbd 81f5 debd
00000270: fb28 a03d 8d18 3fbe 9f02 753d 76e4 bdbc
00000280: 7325 9abe 4e5e 67be 1429 833d d108 0c3d
00000290: a003 153d 6fa7 853c 38d2 42bd 5f9f f8bd
000002a0: 2093 0cbd 763b cb3c 9b46 a6be 1253 64bc
000002b0: 9836 3e3d e6b4 febb 528b 5d3c 7024 b4bd
000002c0: 7cf9 053e 621a 113d 438c d93d 0007 f7bd
000002d0: 2654 b03d db8a 02be 8111 9abd 5a7c cfbc
000002e0: 1e37 dfbc 9aee 1dbd 1d79 b6bd 7718 9d3b
000002f0: 46f3 96bc 5ead 2d3d 3121 d3b8 c74e fcbd
00000300: f46d ccbd 81a5 95bd 0fef 3f3c c1b5 5f3d
00000310: 97e6 06be 7c01 5f3d 7345 4a3b e3ba e5bd
00000320: dbd3 49bd 252c 913c 4abe a93c 7692 003d
00000330: d4c5 b9bd 13e4 3cbe b699 16be 6562 753d
00000340: 9ee3 1f3d 3eff 953d 7288 d33d 7878 40be
00000350: 4aed 80bd ffa4 5fbb ed44 8fbd 80ce 85bd
00000360: b8a4 a4bd 0c48 fbbd 2b8c 5bbe 0ac6 bd3b
00000370: 384a 8abd 163d 183e ec81 6a3c ada3 f03c
00000380: a935 b3bc 2668 c5bd b416 d0bd 6735 4abd
00000390: fe46 d23d 6b23 9f3d 0773 a2bc 2e3e 3fbd
000003a0: 3fbe a4bc d924 c5bd feb9 06bd 47cc 9bbc
000003b0: 7382 b83d 9c1c 64bd 7d22 07be debf d13c
000003c0: d63b 743d 65b8 4dbd bf45 5cbc f33b 003d
000003d0: a4e7 75bc e442 07bc 2446 d6bd f979 003d
000003e0: bc69 a43c 9e4c a2bb 0e00 99bc a349 eabb
000003f0: 365f f33d d15d 133c 26b8 c93c 5a3d b1bb

classifier.0.bias f4 [128]
-0.06727496 -0.15715078 0.02447845 0.009515896 0.062142927 0.028590363 0.13543104 0.100329965
0.04397168 -0.052516006 0.014771485 -0.03589869 -0.112595335 0.107662395 -0.07921955 0.002106836
-0.06968895 0.12337984 0.04103693 -0.13242872 -0.05999306 -0.0101344865 0.03771242 0.033790655
0.105686665 0.05441463 0.11003023 0.10284943 -0.020421583 -0.14053538 0.043050747 -0.059766516
-0.043427516 0.028405199 -0.107392386 0.14337456 -0.12941362 -0.014474722 0.060972895 0.027523734
-0.0718495 0.035310335 -0.0012375624 0.01343235 0.12571517 0.045887902 -0.11475308 -0.07294051
0.028109387 -0.020109206 -0.070011556 -0.014929536 -0.09334099 -0.07053914 0.14944823 0.118990794
0.011700525 -0.004749095 -0.07868545 0.081318006 -0.06384115 0.042743575 -0.0038429652 0.07111389
-0.052842155 -0.10074649 0.056704983 0.028707612 0.002147175 0.049525317 -0.15257066 -0.14743425
-0.049364086 0.008877153 0.09435176 -0.08913142 0.034517262 -0.03928314 0.0984185 0.03392617
-0.019847674 0.019772036 0.056917083 -0.0027960099 0.17872572 -0.09384161 -0.06937864 0.0050170654
0.032167505 -0.062323663 -0.07085655 -0.05175649 -0.12232693 0.12201553 -0.09695512 -0.0056207343
0.036866765 0.01960726 0.15630122 0.004717112 0.13651617 0.035710495 0.031148223 0.06285044
-0.06324414 -0.088766776 0.07031055 0.07718474 0.122735575 0.01296819 0.106814995 0.113198355
-0.02848216 0.009993897 -0.011173054 0.008391884 -0.07535252 0.048694707 0.022266557 0.05239653
-0.027016265 -0.05341933 0.030205123 -0.039686203 0.019945687 0.07068534 0.1169826 0.04677179
00000000: 74c7 89bd 22ec 20be 0887 c83c 90e8 1b3c
00000010: 9589 7e3d 5636 ea3c 6fae 0a3e cc79 cd3d
00000020: a61b 343d 061b 57bd 1904 723c 810a 13bd
00000030: 6298 e6bd 1a7e dc3d dc3d a2bd d812 0a3b
00000040: 15b9 8ebd 92ae fc3d 5716 283d 659b 07be
00000050: 48bb 75bd 1e0b 26bc 5778 1a3d 1268 0a3d
00000060: 4072 d83d e0e1 5e3d 8757 e13d b9a2 d23d
00000070: 2a4b a7bc 82e8 0fbe fb55 303d bccd 74bd
00000080: 0de1 31bd 05b2 e83c 8af0 dbbd c8d0 123e
00000090: 0185 04be 6227 6dbc b7be 793d 7479 e13c
000000a0: d525 93bd 92a1 103d b435 a2ba 5c13 5c3c
000000b0: 7abb 003e f4f4 3b3d aa03 ebbd d661 95bd
000000c0: a845 e63c 10bc a4bc 3862 8fbd 039b 74bc
000000d0: 9029 bfbd d376 90bd f508 193e 72b1 f33d
000000e0: 8fb3 3f3c 4c9e 9bbb d625 a1bd 0e8a a63d
000000f0: 26bf 82bd e313 2f3d 42da 7bbb 29a4 913d
00000100: 0471 58bd 2d54 cebd 7c43 683d 3a2c eb3c
00000110: 9eb7 0c3b 0fdb 4a3d 7c3b 1cbe 01f9 16be
00000120: ff31 4abd 7a71 113c 7f3b c13d 898a b6bd
00000130: f961 0d3d 5ce7 20bd a38f c93d 2bf6 0a3d
00000140: 9797 a2bc f7f8 a13c e321 693d 433d 37bb
00000150: e003 373e 0830 c0bd 6316 8ebd 3266 a43b
00000160: 13c2 033d 1947 7fbd 3d1d 91bd 9dfe 53bd
00000170: 8b86 fabd 47e3 f93d 6890 c6bd 232e b8bb
00000180: 9b01 173d 689f a03c 6d0d 203e 0192 9a3b
00000190: e5ca 0b3e 2b45 123d 8f2a ff3c bbb7 803d
000001a0: 2586 81bd 5bcb b5bd fafe 8f3d 0813 9e3d
000001b0: ca5c fb3d 8878 543c d2c1 da3d 8ad4 e73d
000001c0: 6b53 e9bc 71bd 233c 2f0f 37bc 1d7e 093c
000001d0: 6c52 9abd 1a74 473d 5b68 b63c be9d 563d
000001e0: 3751 ddbc 3ace 5abd bc70 f73c 008e 22bd
000001f0: 2365 a33c 7ac3 903d 9394 ef3d c793 3f3d
