models_newWin/all_flat/best_model_fold2.pth (torch, 343081 bytes, 17 tensors)

conv1.weight f4 [64, 6, 3]
000000 45 a7 fb 3d 5c 59 24 be f9 82 9e bb 85 13 73 3c
       0.122877635 -0.16049713 -0.0048373905 0.014836197
000010 3b ce b4 bd 64 73 55 bd f9 80 f1 3c 5c aa 4c be
       -0.08828398 -0.052112 0.029480444 -0.19986862
000020 1f cb 72 3d 75 06 32 bd 84 b1 88 3d 8a 8c 35 be
       0.059275743 -0.04346319 0.066744834 -0.17729393
000030 4d b3 51 be 57 56 7d 3e 8a 56 9b be b2 b8 78 3c
       -0.20478554 0.24739967 -0.30339462 0.015180754
000040 aa b3 1d be d5 60 ee 3d ed 69 09 be c9 8f 36 3d
       -0.15400568 0.11639563 -0.13419314 0.044570718
000050 29 07 b3 3d 91 72 56 bd cb 48 72 bd 70 b2 13 be
       0.087416 -0.052355353 -0.059151452 -0.14423537
000060 21 46 b6 bd 10 a4 0c bd 5f 83 25 3e f1 60 8e be
       -0.08900095 -0.03433615 0.16163395 -0.27808335
000070 0d 1f 9f 3d 7a cd f0 3d 47 01 69 be 8c 09 4e be
       0.07769594 0.117579415 -0.22754394 -0.2012083
000080 ec 0f ca 3d c9 d0 d3 b9 ac c8 a0 bd 91 78 dd be
       0.09866318 -0.00040400613 -0.07850775 -0.43256047
000090 4d 1c 31 bd dc 0b b0 bc 59 b7 ab 3d 72 35 b5 3d
       -0.04323988 -0.02149003 0.0838458 0.088480845
0000a0 bd 94 cb 3d 39 24 1e bd 91 ad c3 bc 38 4d fd be
       0.09940479 -0.038608763 -0.023886474 -0.49472976
0000b0 fc b7 2b 3e cc 76 46 3e b7 49 35 bc b8 00 e2 3d
       0.16769403 0.19381255 -0.011064938 0.11035293
0000c0 3e 56 22 3e e0 88 f9 3c 9b 5a 8e 3c d9 71 21 3e
       0.15853211 0.030460775 0.017377188 0.15766086
0000d0 11 ec 8f 3e 4b 13 25 bc d4 cc 62 3d ad d0 96 bd
       0.28109792 -0.010075401 0.05537112 -0.073640205
0000e0 d9 2e a4 bd 66 e3 57 3d 00 b8 52 bd c6 d8 b8 bd
       -0.08016748 0.0527071 -0.051445007 -0.09025721
0000f0 93 3c 4b 3e 04 a3 1f be ed 0e 13 be 08 bd e2 3d
       0.19847326 -0.1558953 -0.14361162 0.11071211
000100 e2 18 11 be 1d 50 8c bd ce 6c 96 3c 69 27 79 3d
       -0.14169648 -0.06851218 0.018362429 0.0608286
000110 d2 3d ad be 8c 54 9f 3c c3 96 09 be 8d e7 75 3d
       -0.33836228 0.019449495 -0.13436417 0.060035277
000120 33 60 ef 3d 4d aa 39 bd 44 a6 27 3d 30 04 28 3e
       0.116882704 -0.045328427 0.040930048 0.16407847
000130 62 77 2b 3d 7b d1 f9 3d eb 26 61 3e a0 8b 1b 3e
       0.0418619 0.12198158 0.21987502 0.15189981
000140 ca 99 13 3e 46 af 00 be d2 03 4a be 90 37 7e 3d
       0.14414135 -0.12566862 -0.1972802 0.062064707
000150 e5 93 52 3c 38 69 f0 bd b6 db 7c bb ae 48 60 3e
       0.012852644 -0.11738819 -0.0038583106 0.21902725
000160 a3 00 c3 3d a6 43 13 3e 3d 78 78 3d 90 19 df bd
       0.09521606 0.14381275 0.060661543 -0.108935475
000170 bb e7 58 3e 28 b4 01 3e 26 1b b5 3c b6 5f 2c 3d
       0.21182148 0.1266638 0.022107672 0.042083465
000180 16 be fc bd 47 7f 71 be 31 f3 4c 3d a7 f4 17 be
       -0.123409435 -0.23583709 0.050036613 -0.14839421
000190 56 0a 09 be 0c b9 94 3e ff 18 74 3c 7e 78 12 3c
       -0.13382849 0.2904743 0.014898538 0.00893986
0001a0 b0 7c f9 bc ab 9f 8c 3e a8 10 ac 3d 28 88 80 3d
       -0.030454963 0.27465567 0.084016144 0.0627597
0001b0 e8 5a bf bd 13 c9 e2 bd 11 7e 72 be 18 51 3e 3d
       -0.09343511 -0.11073508 -0.23680903 0.046464056
0001c0 36 2f d8 bb 19 9d dc 3c 3d 17 78 bd 9c 67 0d 3d
       -0.006597425 0.026930379 -0.060569037 0.034522638
0001d0 bd 32 f3 bd 20 57 40 3e 52 b6 aa 3d a6 ba d7 bd
       -0.11874912 0.18783236 0.08335556 -0.10533647
0001e0 c7 11 00 be fa 49 2b be d3 3d 98 3e 9d f3 3b be
       -0.12506782 -0.16727439 0.29734668 -0.1835465
0001f0 3a b1 c8 3d ef 19 47 be 40 34 6e 3d 2e 57 0f bd
       0.09799428 -0.19443487 0.0581553 -0.03499525
000200 0b fe 0a be 32 71 3a 3e 07 4c 12 be 8b 93 d3 3c
       -0.13573472 0.18207243 -0.14286815 0.02582719
000210 ae 3a 45 be 9e 1d a8 3d ec 0c 2e 3e a1 cc 77 be
       -0.19260666 0.08208774 0.16997117 -0.24199153
000220 0a 6a 82 3e fd 6f 89 bd 34 66 b2 bd d1 b0 25 3e
       0.25471526 -0.06710813 -0.087109 0.16180731
000230 36 22 23 be 82 91 1e be c8 0c 84 be e9 ce 24 3e
       -0.15931019 -0.15485194 -0.25791 0.16094555
000240 25 ed 35 3b 82 9f 9c bd cc 2a b5 bd f6 f1 23 bd
       0.0027759757 -0.07647611 -0.088460535 -0.040025674
000250 77 07 73 3e 2c 6c c7 bd a5 67 47 bd d5 e1 5a 3e
       0.23733316 -0.09737429 -0.048682828 0.2137521
000260 f9 4a 6c be 49 d7 24 be a5 9a 0d 3e d0 48 4b bd
       -0.23075475 -0.1609775 0.13828523 -0.049629986
000270 6d f4 b7 3d 94 d3 76 be 53 e0 89 3d 83 65 4e 3e
       0.089821674 -0.24104148 0.067322396 0.20155911
000280 36 b1 a5 be ce 2b 34 3e da 92 c0 3d 46 53 4d be
       -0.32361764 0.17594835 0.0940301 -0.20051298
000290 cd 79 6e 3e 65 c8 2a 3d 01 b1 59 be 85 c6 7b 3d
       0.23288651 0.041695017 -0.21258928 0.06146862
0002a0 5a 58 63 3d 79 2b bf bd 4b d6 92 bd 8a 27 81 bd
       0.05550418 -0.093344636 -0.071697794 -0.063063696
0002b0 e0 c2 dc 3d a6 73 e2 bc 18 e3 07 3d c8 df 0a 3d
       0.10779357 -0.027643036 0.033175558 0.03390482
0002c0 b1 0b 59 3d 69 14 80 3d 44 55 0b 3d dd db 0b be
       0.052989665 0.06253893 0.034016863 -0.1365809
0002d0 8e 2c 56 3c 65 7e ef 3d 7e 21 91 3d 01 c3 4d bd
       0.013072146 0.1169403 0.07086466 -0.0502348
0002e0 a3 2e bf 3d da 24 9b 3c 76 ce c3 3d 1f 5c 42 3e
       0.09335067 0.01893847 0.09560864 0.18980454
0002f0 ca e3 38 3b e0 c1 30 be 93 33 59 3e a1 4c 54 3e
       0.0028211945 -0.17261457 0.2121108 0.20732357
000300 38 39 04 be ee 63 01 3e 72 ca 1f bd 35 91 f6 bd
       -0.12912452 0.12635776 -0.039011426 -0.12039415
000310 5f a1 b1 be a9 8a 1c 3d 94 36 c8 3d 9f 31 e9 bd
       -0.3469343 0.038218174 0.09776035 -0.113864176
000320 3d d3 ba 3a ee ff e7 3d ba b9 b5 bd ee 3c bf bc
       0.0014253628 0.113281116 -0.08873315 -0.023344483
000330 16 b2 d8 3d 09 61 c4 3d 04 8d 49 be 21 eb 0e 3e
       0.10580842 0.095888205 -0.196827 0.13956882
000340 ba e6 3e be fb c8 aa 3b cc f1 e6 3d d4 58 c4 bb
       -0.18642703 0.005211947 0.11276588 -0.0059920345
000350 8e fe c6 bd 1c c6 60 3e d6 91 97 be 0d 65 3a 3d
       -0.09716521 0.21950573 -0.29603451 0.045506526
000360 97 11 02 3e 80 01 cb bc 41 a9 0d 3d 10 04 a5 3d
       0.12702022 -0.024780989 0.03458524 0.080574155
000370 24 97 00 bc 58 17 fb bd 13 13 96 3e d7 8f 48 be
       -0.007848535 -0.12260312 0.29311427 -0.1958612
000380 da f2 db bc b9 ad d4 be 9c 73 5e 3e ac 19 e6 bd
       -0.0268492 -0.4153879 0.21723789 -0.11235365
000390 f8 3d 63 3e 0b 68 05 bd 4b 44 3c bd aa f3 3e bb
       0.22191608 -0.032569926 -0.045963567 -0.0029136934
0003a0 0a f2 da 3c 75 3f 5c be 31 22 5d bd 11 c8 8d 3d
       0.026726741 -0.21508582 -0.053987686 0.06922925
0003b0 97 7b 41 3d 4e 1c 84 3b 8b e1 8d 3d 97 f4 9d 3d
       0.047237005 0.0040316945 0.069277845 0.077126674
0003c0 e7 98 6e 3e 2a 6d f4 3c c9 82 b8 bd 30 6d 7c bc
       0.23300515 0.02983721 -0.0900932 -0.015406892
0003d0 27 a0 60 3d 92 f4 fb 3a 57 3a ef bd 74 5d 85 3e
       0.054840233 0.0019222668 -0.11681049 0.26047862
0003e0 37 e2 89 3d 1c 91 03 3e f0 68 d6 be f6 92 18 be
       0.067326 0.12848324 -0.41876936 -0.14899811
0003f0 3c e9 75 3e 95 87 e4 3d ac 76 8a bd bb 3c 05 be
       0.24014753 0.11158673 -0.06760916 -0.13011448

conv1.bias f4 [64]
000000 a8 05 01 3e a9 2b 57 3e 22 63 19 3c 18 69 3e be
       0.12599814 0.21012749 0.009362014 -0.18594778
000010 86 47 03 3d a1 7e a5 bd a6 a3 11 3e 11 a3 d2 3d
       0.032050632 -0.08080793 0.14222583 0.10285009
000020 c3 4d 56 be 03 c5 75 3d 74 bb 37 be 71 8d 8a 3d
       -0.20928101 0.06000234 -0.17942601 0.06765259
000030 63 2c 1f bd c9 c4 3c 3e 5f 33 39 be aa 7d 26 3d
       -0.03886069 0.18434443 -0.18086003 0.040647186
000040 03 95 c4 3d 0c 08 04 be 52 1e d3 3d 3c 3a 3e be
       0.09598734 -0.12893695 0.103085175 -0.18576902
000050 8f a5 7e 3d 75 b8 23 bd 3c 30 bb 3c 6c 2b a0 bd
       0.062169608 -0.039970834 0.022850148 -0.07820782
000060 75 fc 6d be fb 92 c2 bc 63 ba c1 bb b5 f4 40 be
       -0.23240836 -0.023751726 -0.0059121116 -0.18843348
000070 4a ba 33 be 3c 91 23 3e 02 71 b8 bb 65 68 2d 3e
       -0.17551532 0.15973371 -0.005628706 0.16934355
000080 17 91 4f be 6b af 33 3e f3 36 fd bc e6 8e 02 3e
       -0.20270191 0.17547385 -0.03090999 0.12749824
000090 ca fa 12 3b 82 95 2f be b4 2e 82 3c d5 fa 5b 3e
       0.0022427314 -0.17146876 0.01589141 0.21482404
0000a0 d1 d7 11 be 8f 7c 40 be b9 7c ee 3d 0f a3 73 bd
       -0.14242484 -0.18797515 0.11644883 -0.059481677
0000b0 54 2a 42 be 61 7b 3c be 56 c6 22 bd 78 d5 07 3e
       -0.1896146 -0.1840644 -0.03973993 0.13265026
0000c0 26 44 71 3e 62 8d 73 3e 54 cb 75 bd d6 0a 40 be
       0.23561153 0.23784402 -0.060008362 -0.18754134
0000d0 21 6c 82 39 97 ba 02 3e 2d 77 9c bd f5 52 27 3e
       0.00024876095 0.12766491 -0.076399185 0.1634024
0000e0 3b a3 4b 3e 5a bf b6 3d ad 51 2a 3e 87 fe 4c be
       0.19886486 0.08923216 0.1663272 -0.2001897
0000f0 03 5e 24 be e1 a8 54 be 41 f0 04 3e cd 6b 08 3e
       -0.16051488 -0.20767547 0.12982275 0.13322373

bn1.weight f4 [64]
000000 e9 69 6b 3f bb e2 8e 3f 47 61 70 3f da 48 87 3f
       0.9195848 1.1162943 0.93898433 1.0569108
000010 31 f1 88 3f 4d 58 84 3f d0 9d 5e 3f 77 44 83 3f
       1.0698606 1.0339447 0.8695955 1.0255269
000020 b7 65 60 3f 32 f0 66 3f 60 16 a8 3f b0 6d 84 3f
       0.87655205 0.9021026 1.3131828 1.0345974
000030 35 f7 73 3f d7 88 94 3f a5 6b 91 3f dc 91 66 3f
       0.95299083 1.160426 1.1360976 0.90066314
000040 9c e5 85 3f 97 11 a7 3f ad a0 9e 3f 10 ad 71 3f
       1.0460696 1.3052243 1.2392784 0.944047
000050 69 6e be 3f 6b 6f 75 3f 2a 4c be 3f d6 5b 54 3f
       1.4877445 0.95873135 1.4866993 0.8295263
000060 11 88 8c 3f 8e 38 92 3f b6 f3 72 3f af 09 99 3f
       1.0979024 1.1423509 0.94903123 1.195608
000070 c1 70 9a 3f a8 11 8a 3f d4 fc c5 3f 74 0d aa 3f
       1.206566 1.0786638 1.5467782 1.3285356
000080 d0 3c b9 3f e7 dc af 3f c3 15 77 3f 81 cf 61 3f
       1.4471684 1.3739289 0.9651758 0.8820725
000090 3e a6 bf 3f fd c0 7c 3f 18 da 4c 3f cf c1 85 3f
       1.4972608 0.98731977 0.80020285 1.0449771
0000a0 be 88 4b 3f bc ac 65 3f 44 aa 93 3f 80 9b ab 3f
       0.79505527 0.89716697 1.1536336 1.340683
0000b0 8d 94 86 3f 42 74 55 3f 0b eb 8b 3f 3f 7d 8e 3f
       1.0514084 0.8338052 1.0931104 1.1131972
0000c0 b6 99 93 3f 31 c2 a3 3f 15 ed a1 3f e3 f7 64 3f
       1.1531284 1.2793638 1.2650477 0.89440745
0000d0 ee 64 75 3f 48 86 ae 3f 7c 03 7c 3f 09 33 82 3f
       0.9585713 1.3634729 0.98442817 1.0171825
0000e0 df 7f 70 3f 70 57 71 3f 68 af 54 3f 24 af 96 3f
       0.93945116 0.94274044 0.8308015 1.1772199
0000f0 a6 80 98 3f 71 a7 27 3f 06 7c 8c 3f b1 4e 5c 3f
       1.191426 0.6548987 1.0975349 0.86057574

bn1.bias f4 [64]
000000 6c 33 d1 be fc 29 fb be bf cc 8a be 3f ed bb be
       -0.40859544 -0.4905547 -0.27109334 -0.36704442
000010 c2 c7 40 be 4e 47 70 be b8 ae bf be be b3 a6 be
       -0.18826202 -0.234647 -0.37437987 -0.32559007
000020 6a b6 af be b2 52 cb be 8d e3 e2 be b7 dc a3 be
       -0.34318858 -0.3971153 -0.44314232 -0.3200433
000030 c8 b7 db be 1e 38 5a be fe c0 65 be 71 c7 8a be
       -0.4291365 -0.2131047 -0.22436902 -0.27105287
000040 86 c1 d1 bd aa d0 51 be 86 6c b0 bc 72 7b 99 be
       -0.1024199 -0.20489755 -0.021536123 -0.29976994
000050 94 b0 22 be 42 b3 ab be a7 c6 30 be 92 ce 99 be
       -0.15887672 -0.335352 -0.1726328 -0.30040413
000060 d7 76 cd be 83 f8 77 be 0a 79 c8 be 59 54 bf be
       -0.4012973 -0.24215893 -0.39154845 -0.3736904
000070 a8 58 a5 be 26 09 16 be 9f 48 3b 3b b3 7c 45 be
       -0.32294202 -0.14651927 0.002857722 -0.1928585
000080 24 21 b6 bb 31 b4 d5 be 9e cb 8f be 75 a3 d1 be
       -0.00555815 -0.41739038 -0.28085035 -0.4094502
000090 80 2c a6 bc 32 cc 34 be 3f d5 9c be 40 12 dd be
       -0.020284891 -0.1765602 -0.30631444 -0.43177986
0000a0 06 28 13 be b9 cc ee be 02 94 aa be dd 69 45 bd
       -0.14370736 -0.46640566 -0.33316046 -0.048196662
0000b0 1d ac c2 be 72 81 c6 be 45 98 7e be 15 c1 ca be
       -0.38021937 -0.38770634 -0.24862774 -0.39600435
0000c0 97 0b 59 be c0 1b 80 be 6f 39 70 be 2d 27 0e be
       -0.21195827 -0.25021172 -0.23459409 -0.13882132
0000d0 16 12 8d be e5 ff 77 bd b7 06 d4 be 00 f1 b3 be
       -0.2755286 -0.060546774 -0.41411373 -0.35144806
0000e0 81 2f bc be 8d 71 c0 bd 91 b0 bd be 0e 75 84 be
       -0.36754993 -0.09396658 -0.37048772 -0.25870556
0000f0 95 34 d0 bd e8 92 ce be 8c e3 73 be 84 07 79 be
       -0.10166279 -0.40346456 -0.23817271 -0.24319273

bn1.running_mean f4 [64]
000000 38 ff 0b 3e 10 53 93 3e 10 99 1b 3c 2f 86 3b be
       0.13671577 0.2877431 0.009496942 -0.18312906
000010 4d fb 40 bd 2a 49 be 3c e3 ca ba 3d 99 09 1e 3e
       -0.04711466 0.023228247 0.09120729 0.15433349
000020 34 b2 59 be eb 51 b1 3d 3b ae 73 bd b2 74 8f 3d
       -0.21259385 0.08658203 -0.05949233 0.0700468
000030 3a e1 63 3d 32 87 a2 3e 28 13 0c bb da 30 a9 3d
       0.055634715 0.3174377 -0.0021373723 0.08261271
000040 6e 71 d6 3d 6c 54 33 be 2b 75 42 be fd d6 18 be
       0.10470854 -0.17512673 -0.18990009 -0.14925762
000050 ec 0a 84 3d ec 98 cb 3c 09 f4 b8 bc 2f af 80 bd
       0.06447396 0.024853192 -0.022577303 -0.062834136
000060 d0 54 6e be 8d ba d7 3d 34 74 0c 3d 4d ff 53 be
       -0.23274541 0.105336286 0.034290507 -0.20702858
000070 0b c4 0a be 85 d3 dd 3d 52 fd 23 3d d7 13 5e 3e
       -0.13551347 0.1083136 0.040036507 0.21687256
000080 21 96 8f be 06 5a 0f 3e 16 f6 95 bd 36 cf 68 3e
       -0.28044227 0.13999185 -0.07322328 0.22735295
000090 a2 4a 1f bc 98 61 74 be f1 4b 31 3d db 05 a1 3e
       -0.009722384 -0.23865354 0.043285314 0.3144978
0000a0 3d 51 11 bf 9e 68 06 be ca 37 43 3e 87 de f4 bd
       -0.56764585 -0.13125846 0.1906425 -0.11956506
0000b0 f5 95 4c be bc 28 28 be e1 de 0e be 3e 76 1e 3e
       -0.19979079 -0.16421789 -0.13952209 0.15474793
0000c0 b2 78 4f 3e 07 0f 47 3e d3 14 d9 bd 83 06 cf be
       0.20260885 0.19439326 -0.10599675 -0.40434656
0000d0 37 cb 61 3d ac 7d 90 3d d7 3c 44 3d 80 c5 49 3e
       0.05512544 0.0705522 0.047909584 0.19704247
0000e0 d3 6d 8e 3e 42 12 bf bd 62 89 00 3e a3 ce 71 be
       0.27818164 -0.09329654 0.12552407 -0.23613982
0000f0 d1 a4 03 bd e4 76 4a be 05 ad f8 3d 66 c2 78 3d
       -0.032139603 -0.19771916 0.12142376 0.060732268

bn1.running_var f4 [64]
000000 72 a2 37 3e de bd bb 3e d1 5f cc 3e 05 ce 99 3d
       0.17933062 0.36668295 0.39916852 0.07509998
000010 6c 89 81 3e 3c bf a1 3e ed 5f 83 3e f6 73 ab 3e
       0.25300157 0.31591213 0.25659123 0.3348691
000020 81 33 91 3e f3 49 2a 3e 19 73 c7 3e 6d 41 6e 3d
       0.28359607 0.16629772 0.38955 0.058167864
000030 d4 b0 53 3e 07 c2 b4 3e 8e 44 75 3e e9 d2 6d 3e
       0.20672923 0.3530428 0.23951933 0.23224987
000040 59 9f 49 3e 26 f2 e1 3e 92 ef 17 3f 30 b5 a6 3e
       0.19689693 0.44130057 0.5934993 0.3256011
000050 7c 12 79 3e b5 6d 71 3e 99 b7 7b 3e 7c 12 66 3e
       0.24323457 0.23577006 0.24581756 0.22467989
000060 2d 21 12 3e 9f 2f bb 3e 8e 2c 3e 3e 32 4c b1 3d
       0.14270468 0.3655977 0.18571684 0.08657111
000070 dd 3d c1 3e 4b 16 69 3e d4 a5 a4 3e 58 3e 6a 3e
       0.3774251 0.2276241 0.32157767 0.22875345
000080 27 98 5b 3e 24 7e 04 3f 77 64 9c 3e 75 10 76 3e
       0.2144476 0.51754975 0.305454 0.24029715
000090 d6 da b0 3e 45 01 25 3e e7 c4 1e 3e 7a 1c a2 3e
       0.3454196 0.16113766 0.155048 0.3166235
0000a0 bf 08 27 3f 78 31 fa 3d 79 77 36 3e 24 1d 76 3e
       0.6524772 0.12216467 0.17819013 0.24034554
0000b0 86 b8 05 3e 5d ff 74 3e 42 fc 4d 3e de a4 75 3e
       0.13058671 0.23925538 0.2011576 0.23988673
0000c0 fe cd 43 3e dd f3 0f 3e ea 2a 5d 3e dc 1e 93 3e
       0.19121549 0.1405787 0.21598402 0.2873448
0000d0 d3 f5 3a 3e 04 6f 80 3e 08 5f b6 3e f3 8e 2c 3e
       0.18257837 0.25084698 0.35619378 0.16851406
0000e0 12 75 b6 3e fd 12 ae 3e 3b 1e 89 3e ae c5 22 3e
       0.35636193 0.33998862 0.26780877 0.15895721
0000f0 42 29 80 3e 39 24 d9 3d 3e cf a1 3e ed 95 a4 3e
       0.25031477 0.10602612 0.31603426 0.32145634

conv2.weight f4 [128, 64, 3]
000000 dc b9 cf 3d 32 38 41 3d a6 b1 59 bd d2 cc 4c 3d
       0.10142872 0.047172733 -0.053147934 0.05000002
000010 70 55 08 be 65 a3 9a bd 98 08 eb 3d ea fb 86 3d
       -0.13313842 -0.07550696 0.114762485 0.065910175
000020 28 a5 b3 bd 94 dc 80 3d 38 89 ca 3b 56 d5 5c bc
       -0.087717354 0.06292072 0.0061809085 -0.013478598
000030 29 dc 61 bd bb 10 32 3d 44 2c e6 3b 44 c1 3d bd
       -0.0551416 0.043472987 0.00702432 -0.04632689
000040 a0 8a 07 3b 52 a7 ac bd 02 83 62 bd b3 17 0f 3d
       0.0020681992 -0.08430351 -0.05530072 0.03493471
000050 df 79 59 bc ae 0d 57 bd c3 c5 23 3a 66 0f 61 bc
       -0.013273685 -0.05250328 0.00062474253 -0.013736581
000060 d6 4b 2f bd b2 96 27 3d 5c 5a ec 3d 55 5f 34 3c
       -0.042796932 0.0409152 0.11540672 0.011009057
000070 86 37 0d 3d 2c 23 61 3d 47 3c 19 3d 55 54 da bd
       0.03447678 0.054965183 0.037411 -0.10660616
000080 7b 8d c8 bc 01 59 2e bd 4e e5 ee bc 04 02 bb 3d
       -0.024481526 -0.04256535 -0.029162075 0.09131244
000090 ad 48 76 3d 16 10 87 bd 86 e8 9d 3d 41 81 e6 3c
       0.060127903 -0.06594865 0.07710366 0.028137805
0000a0 2c 20 5e be 8b 18 20 3d 46 43 fd 3c f7 fc 78 3b
       -0.2169196 0.039085906 0.030915868 0.0037992576
0000b0 23 e7 dd bc 9f ff 08 3d e9 c9 33 bb b0 db 0b be
       -0.027087754 0.033446904 -0.002743358 -0.13658023
0000c0 b4 e2 32 3d 0f 18 e8 bb 59 23 db bd e4 f5 39 3c
       0.043673232 -0.007082946 -0.107001014 0.011350129
0000d0 a7 fc d9 bd ad c7 36 3d 54 2b ee bc 0f c2 a1 3c
       -0.10643893 0.04462402 -0.029073395 0.019745855
0000e0 ef 0c 95 bd fb 8c 27 be b2 d1 fa 3c 60 36 61 bd
       -0.072778575 -0.16362374 0.030617569 -0.054983497
0000f0 d2 8b c7 bc 4c d8 55 bd fb 87 22 3d a1 61 d5 3c
       -0.024358664 -0.05220823 0.039680462 0.02604753
000100 4a f4 88 3d 85 71 13 3d bd 8b 8d 3c 4a 51 cf 3c
       0.066872194 0.035996933 0.017278546 0.025307316
000110 9e a0 3e 3d 7a c0 73 bd 8a d2 c2 3b 00 ff 50 3d
       0.046539895 -0.05950973 0.0059455084 0.051024437
000120 21 3c cd bc 04 3a 37 3d 93 8b cc 3d 90 61 3e 3c
       -0.025053086 0.044733062 0.09987559 0.01161994
000130 1d 00 4c bd 8c 94 84 3d 31 16 57 3d 81 fa 86 3c
       -0.049804796 0.064736456 0.052511398 0.016476871
000140 30 9f 53 3d e0 68 a6 bc 51 08 41 bd 85 59 e0 bc
       0.051665485 -0.02031368 -0.04712707 -0.027386436
000150 fe 02 90 3b ee 5a 43 3c 72 f0 c8 3c 9a 50 b9 bd
       0.004394888 0.011923535 0.024528716 -0.09048577
000160 ab 53 0a bc e1 f3 3d bd 6e e4 18 3b 52 e2 b3 bc
       -0.0084428 -0.04637516 0.0023329514 -0.021958504
000170 f0 5e 2d 3c 11 4e c8 bc c9 54 1a bd ee 57 2f bd
       0.010581717 -0.024451287 -0.037678514 -0.042808466
000180 2a cc 4e 3d 62 2c a6 bc 24 d5 fa bc 27 71 b1 bd
       0.050487675 -0.020284835 -0.030619211 -0.0866416
000190 f8 6f 22 3d 05 ac d1 3c 18 6d f4 ba 5b eb bd bb
       0.039657563 0.02559472 -0.0018648235 -0.005795879
0001a0 aa fd 97 3c 2e 5c b3 bb cd 3a 0a be 07 62 10 3e
       0.018553574 -0.005473635 -0.13498993 0.14099894
0001b0 18 3b 90 3d d2 58 9d 3d c5 43 c1 3a a7 e1 07 3d
       0.07042521 0.07682957 0.0014744928 0.033174183
0001c0 6c f3 a2 3d ac 7b 94 3c ab 89 08 bc 88 6f 1f bd
       0.07956585 0.018125378 -0.008333604 -0.038924724
0001d0 aa 1f 42 bd ab cf 0e bc 7a 54 0c 3d cf 14 08 3d
       -0.04739348 -0.008716504 0.03426025 0.03322297
0001e0 12 1b bd bc 3b ae 07 3e dd ec 1e 3b 9a b0 46 3d
       -0.023084197 0.13250057 0.0024250068 0.048508264
0001f0 5e 51 13 3d 9d 88 ee 3c 70 8c 99 3d 30 b6 99 bd
       0.03596627 0.029117877 0.074974895 -0.07505453
000200 1e 18 b9 3b 41 93 ea bc 4d 7b c1 3d d7 a8 13 3d
       0.005648627 -0.02863467 0.09447346 0.03604969
000210 5e 79 97 3d a3 d6 c0 3d 05 f8 43 bd cd 19 06 bd
       0.07396196 0.09415939 -0.04784395 -0.03273945
000220 ca a3 53 3c bb 43 91 bd aa 08 5a bc b3 de e2 3d
       0.012917468 -0.07092997 -0.01330773 0.11077633
000230 6c 74 80 bc e9 5a 84 3c cf 3f 2d 3c e7 2b eb bc
       -0.015680514 0.01615663 0.010574295 -0.028707458
000240 2f 54 39 3d 66 b1 8c 3d 8a 8f d2 3c 8e ac ee 3c
       0.0452463 0.068697736 0.02570321 0.029135015
000250 d8 4f de ba b3 25 a3 3c 20 e7 da bc 04 a1 e2 3c
       -0.0016961051 0.019915437 -0.026721537 0.027664669
000260 78 2d 87 3c fc d6 14 bc e1 76 17 3d 65 94 32 3d
       0.016501173 -0.009084459 0.036978606 0.04359855
000270 70 41 28 bd b8 8d c3 bc 35 c0 db bd a5 b0 07 bd
       -0.04107803 -0.023871288 -0.1073002 -0.033127446
000280 9c 6e 9d 3d f6 a3 be bc 15 03 91 3d 9d 95 db bd
       0.07687113 -0.023271542 0.07080666 -0.10721896
000290 fc 08 a5 3d cb aa e4 3c a8 34 d6 bd c1 e7 ed 3c
       0.08058354 0.027913472 -0.10459262 0.029041173
0002a0 f6 d8 dd bb af 6f bb 3c e4 3d f4 3d b4 c1 3a 3a
       -0.0067702485 0.022880403 0.11925867 0.0007124201
0002b0 24 6c 8e 3d c4 30 d2 3c 35 3b 1d 3d 9c 38 c0 3d
       0.0695422 0.025658019 0.038386542 0.093857974
0002c0 4a b8 9a 3c 08 e0 cb 3c 5e 4e 21 bd f0 b9 50 3d
       0.018886704 0.0248871 -0.039381377 0.050958574
0002d0 93 e9 c4 bc 67 32 1c bd fd 1c d7 3c b0 cd cd bd
       -0.024037158 -0.038134005 0.02625894 -0.100489974
0002e0 a7 03 cb 3c 2b ff 24 bc e1 6f 82 bd 68 f6 af 3c
       0.024782015 -0.010070602 -0.063689955 0.0214798
0002f0 54 97 14 3e 0f a8 82 3c 70 4e 6e bd 37 d0 a7 bd
       0.14510852 0.015949277 -0.058180273 -0.08194011
000300 ba 55 21 bd be f9 95 bb 06 47 c1 bd ed 13 39 3e
       -0.039388396 -0.0045768907 -0.09437375 0.18074007
000310 90 4e 15 bc 49 eb f8 bc d8 d9 24 3c e8 73 fe 3c
       -0.009112969 -0.03038563 0.010061704 0.031061128
000320 29 0c d8 3d 88 82 c7 bb b8 7e 56 3d 2a 37 87 bc
       0.10549194 -0.0060885586 0.052366942 -0.016505796
000330 ed a5 42 3d b0 86 5e bd 04 bb 1d 3c 2f 27 1f 3d
       0.04752152 -0.054327667 0.0096271075 0.038855728
000340 26 93 2a bd df b5 bc 3b c1 6c 77 bd 49 45 43 3c
       -0.041644238 0.0057589854 -0.06040645 0.011918374
000350 4b 15 d5 bc e0 bf 25 3e e0 41 ba 3c 91 0a 7d bd
       -0.02601113 0.16186476 0.02273649 -0.061777655
000360 8e 5a b2 bd cf 32 07 bd ff b8 e8 bd e9 c6 a8 3d
       -0.08708678 -0.03300744 -0.1136341 0.08241064
000370 3b 91 d7 bc 3e 64 f5 bc c5 82 56 3e 56 ba 9d 3d
       -0.026314368 -0.029955026 0.20948322 0.077015564
000380 e3 e6 6d bd 77 61 b1 bd 83 42 3f bc a2 3e 93 bb
       -0.05808152 -0.08661168 -0.0116735725 -0.0044935504
000390 db 88 44 3d 91 87 c4 bc d3 fa 1d bd 6f e4 92 bd
       0.047982078 -0.023990424 -0.038569283 -0.071724765
0003a0 0c 64 8a b9 3b 02 a0 bd 0d 96 40 bd 60 1a ea 3c
       -0.00026395952 -0.078129254 -0.0470181 0.02857703
0003b0 ba 5f 19 3d a8 02 7b 3c 0a 28 00 3e af ff 02 3a
       0.037444808 0.0153204575 0.12515274 0.0004997206
0003c0 9f 28 6c bc 57 d6 07 3d 1d e0 1e bd 6e 20 77 3d
       -0.014413982 0.033163395 -0.03878795 0.06033366
0003d0 73 2a 9c 3d 23 fb 9b bc fd 50 81 bc 92 31 23 3c
       0.07625284 -0.01904065 -0.015785689 0.009960549
0003e0 76 17 46 bd ef 55 e8 3d 30 81 1a 3d b0 37 81 39
       -0.048362218 0.113445155 0.03772086 0.00024646288
0003f0 86 86 80 3b 4c f7 bf bc 53 88 02 3c 94 17 7a 3d
       0.0039222864 -0.02343335 0.007967073 0.061057642

conv2.bias f4 [128]
000000 8b 8c 65 bd 83 d6 26 3d bc a9 6c 3d 25 96 8f 3d
       -0.056042235 0.040731918 0.05777906 0.0701106
000010 0a 00 1a bd 26 f4 73 bd a1 40 24 b8 8d 36 85 3c
       -0.037597694 -0.05955901 -3.9160837e-05 0.016261363
000020 69 fe 75 3d 30 12 7f 3c cd ac 6e 3c 07 30 49 3d
       0.060057078 0.015568301 0.014567566 0.049118068
000030 75 68 90 3d 99 dd 91 bc 9e 36 e6 3c 2e 4d 19 3d
       0.070511736 -0.017805861 0.028102215 0.03742712
000040 f0 2d 62 bb b6 16 6d bd 57 fd 1e 3c 18 17 38 3d
       -0.0034512244 -0.057882987 0.009703956 0.0449439
000050 73 98 fb 3c f9 ee 36 3d 77 c0 86 3b 96 74 bc bc
       0.030712342 0.044661496 0.004112299 -0.023004811
000060 c2 37 29 3d d5 ad 11 3d d3 cf 04 3d de c5 83 bd
       0.04131294 0.03556617 0.03242476 -0.064342245
000070 e4 bb 7b bd 4b bf a6 3b a6 fb 8c 3d be 65 07 bd
       -0.061458483 0.005088722 0.06883936 -0.033056013
000080 db 44 66 bd b8 4b 34 bd 76 db 0f 3d c4 12 75 3d
       -0.05621801 -0.044017524 0.035121404 0.05983235
000090 94 8d 4e bd f1 ac 15 3d 30 c6 7e 3d 70 61 ee bb
       -0.05042799 0.036541883 0.062200725 -0.007274799
0000a0 e4 21 78 37 9f b8 02 3c b4 8b 8f bd 6e ae 9e bc
       1.4789843e-05 0.007978587 -0.07009068 -0.019370284
0000b0 2a dc ae 3c d4 e4 3f bd da 7c 3a 3d 25 13 2c 3d
       0.021345217 -0.046849087 0.045529224 0.042010445
0000c0 1a f7 10 bb 28 7d f5 3c 6a a5 ab bc 73 16 f8 bc
       -0.002211994 0.029966906 -0.020952899 -0.030284142
0000d0 42 f4 50 bc f4 0c 87 bd 5e 7f c6 3c dd f1 bc bc
       -0.012753548 -0.065942675 0.024230655 -0.023064548
0000e0 59 c2 86 bd 77 fa b8 bc cd f1 61 3d 00 29 d6 bc
       -0.065800376 -0.022580368 0.05516224 -0.026142597
0000f0 07 68 c0 3b 30 1a 14 3c 3a 72 af 3c af 78 43 bd
       0.005871776 0.009039447 0.021416772 -0.047722515
000100 9a 02 1f bd d3 bd 87 3c 34 30 e9 3c ca 94 89 bd
       -0.03882084 0.016570007 0.028465368 -0.067178324
000110 d5 2d f9 bb f4 d7 42 bd a9 b6 a3 3c 4b 5c 7b bd
       -0.0076043406 -0.04756923 0.01998456 -0.061367314
000120 c6 ab 65 bc ff b8 e7 3c 98 31 fd bc 7f 74 8a 3d
       -0.014018005 0.028286455 -0.030907437 0.06760501
000130 d6 b7 8e bd 84 b4 94 3d 05 ae 83 bd e4 bd 56 3d
       -0.06968658 0.07260993 -0.06429676 0.052427188
000140 9b 4d 4b 3c 29 48 81 bd 5c 7e 0c 3c 7c 90 f1 bc
       0.012408639 -0.063125916 0.008575048 -0.02948784
000150 40 25 60 3d b2 c7 61 bc a0 f3 28 bc 75 00 78 3d
       0.054723024 -0.013780521 -0.010311991 0.06054731
000160 cc bd 35 bc 71 64 8c bd fe 12 34 bd c2 76 24 bd
       -0.011092614 -0.06855095 -0.043963425 -0.04015232
000170 b8 90 16 bc 61 18 7e bd c3 f5 56 3d 4e db 44 3c
       -0.009189777 -0.06203497 0.05248047 0.012015177
000180 8f 27 22 bd c6 cb 0f 3d 6c 8b 3e bd c8 52 87 3d
       -0.039588507 0.035106443 -0.04651968 0.06607586
000190 c3 3d 0b 3c 4f 35 13 bd 05 26 61 3d 3e c2 6d 3c
       0.008498612 -0.03593951 0.0549679 0.014511643
0001a0 bf b4 92 bd 8c 47 89 bd 45 16 4c 3d ea e1 94 bc
       -0.07163381 -0.067030996 0.049825925 -0.01817413
0001b0 46 e1 44 bd 62 1a b2 bc d6 01 10 3d 6a 11 84 bd
       -0.0480664 -0.021741096 0.035158 -0.06448634
0001c0 67 65 13 bd 48 13 de 3b c6 76 02 bd 74 32 12 bd
       -0.035985377 0.006777201 -0.031851552 -0.035692647
0001d0 62 52 40 bd 01 d2 46 3d fe 29 2e 3d 72 1a 89 bd
       -0.046953566 0.04854012 0.042520516 -0.06694497
0001e0 f7 e4 92 bd 94 65 4f 3d f4 0f 14 bd 57 90 8e 3c
       -0.07172578 0.05063398 -0.036148027 0.017402811
0001f0 a2 eb 47 bd 34 55 e8 bb 59 bc 3d 3c 1d 9c d4 3c
       -0.0488087 -0.007090235 0.01158055 0.025953347

bn2.weight f4 [128]
000000 0e e2 a8 3f c8 42 9b 3f 8c 47 81 3f 48 80 89 3f
       1.3193986 1.2129755 1.0099959 1.0742273
000010 08 dc aa 3f 3e 94 87 3f 4a 3d b1 3f 94 cd 8a 3f
       1.3348398 1.0592115 1.3846829 1.0843987
000020 61 47 89 3f 53 cd ad 3f bc 30 a7 3f 66 19 a5 3f
       1.0724908 1.3578285 1.3061748 1.2898376
000030 c9 ef 9c 3f e4 d5 9a 3f f7 bb 71 3f c5 e7 88 3f
       1.2260677 1.2096524 0.94427437 1.069573
000040 73 11 9c 3f 86 f6 78 3f 58 7b 7c 3f b2 de 6f 3f
       1.2192825 0.97251165 0.9862571 0.9369918
000050 6c 16 a6 3f d0 93 96 3f 28 2c 96 3f c7 f4 90 3f
       1.2975593 1.1763859 1.1732225 1.13247
000060 ba 39 81 3f 2a 28 95 3f bb ea a0 3f 24 63 c4 3f
       1.0095742 1.1652882 1.2571634 1.5342755
000070 22 2e 99 3f 1c 44 6d 3f f0 e6 a3 3f 90 2c 8e 3f
       1.1967204 0.9268205 1.2804852 1.1107349
000080 69 00 85 3f 3e 9e 7a 3f e3 cd cb 3f a2 74 bd 3f
       1.039075 0.9789771 1.5922207 1.4801219
000090 3a c1 94 3f b8 f0 89 3f 8c 27 90 3f 43 d1 ab 3f
       1.1621468 1.0776587 1.1262069 1.3423237
0000a0 b1 05 88 3f 43 3b 80 3f 0f d5 6d 3f 3f a2 88 3f
       1.0626737 1.0018085 0.92903227 1.0674514
0000b0 09 73 7d 3f 94 86 83 3f 84 c8 82 3f 11 bd 9d 3f
       0.99003655 1.0275445 1.0217443 1.2323323
0000c0 d0 c1 8f 3f f7 f2 8e 3f 22 fe 8a 3f d1 2e 68 3f
       1.1231022 1.1167897 1.0858805 0.90696436
0000d0 c6 57 d1 3f 39 9c 8d 3f d6 f3 87 3f f0 3d 7d 3f
       1.6354911 1.10633 1.0621288 0.98922634
0000e0 18 6b bd 3f e2 08 83 3f 5e d5 9d 3f d2 9c a4 3f
       1.4798307 1.0237086 1.233074 1.2860358
0000f0 dd f6 b6 3f 4e ee 9c 3f 9b a5 94 3f 30 db 8e 3f
       1.4294087 1.2260225 1.1613039 1.1160641
000100 5f 26 bb 3f d2 22 7a 3f 59 26 9f 3f 5e f7 c0 3f
       1.4621085 0.9770938 1.2433578 1.507549
000110 7a 9f c1 3f f6 13 73 3f 41 97 90 3f 7c f2 b8 3f
       1.5126793 0.9495233 1.1296159 1.4449
000120 d8 65 7a 3f 65 ba 85 3f 94 07 86 3f 1a 9e bf 3f
       0.9781165 1.0447508 1.0471063 1.4970124
000130 73 e0 84 3f d9 76 88 3f b9 b0 82 3f a7 5c 74 3f
       1.0380996 1.066127 1.0210181 0.95453876
000140 a9 92 a7 3f 6b a0 7a 3f 52 db 88 3f 65 a7 c0 3f
       1.3091632 0.9790103 1.0691931 1.5051085
000150 3d f4 9e 3f 15 c8 88 3f 76 30 95 3f 00 b2 80 3f
       1.2418286 1.068606 1.1655414 1.0054321
000160 a6 26 88 3f 8a 6b bb 3f c1 c5 6e 3f 87 55 88 3f
       1.0636795 1.4642193 0.932705 1.0651101
000170 07 cd 86 3f 21 95 8d 3f 3a ec 79 3f 89 46 a9 3f
       1.0531319 1.1061136 0.9762608 1.3224651
000180 42 35 80 3f 38 e1 92 3f 92 dd 8b 3f b6 a7 d9 3f
       1.0016253 1.1474981 1.0926993 1.7004306
000190 fa f5 82 3f 36 93 8b 3f 92 b5 8b 3f 30 4c 87 3f
       1.0231316 1.09043 1.0914786 1.0570126
0001a0 7f 4f 78 3f 01 6e 7f 3f 48 fb 8d 3f 9e aa b1 3f
       0.969963 0.9977723 1.109231 1.3880193
0001b0 d4 60 88 3f b5 33 94 3f 84 b4 7e 3f 2b d9 b3 3f
       1.065455 1.157828 0.99494195 1.405065
0001c0 4a 00 b0 3f 38 59 81 3f b9 af 73 3f 47 e9 6c 3f
       1.3750088 1.0105352 0.95190006 0.9254345
0001d0 4a e2 d0 3f 4a 3b 97 3f 03 ff 92 3f bf d6 96 3f
       1.6319058 1.1814969 1.1484073 1.1784285
0001e0 c9 6a 9f 3f d9 80 a5 3f 4a 4e 84 3f 17 c4 84 3f
       1.2454463 1.2929946 1.0336392 1.0372342
0001f0 48 a6 8c 3f 66 13 a4 3f 0a 07 bd 3f 47 5b 56 3f
       1.0988245 1.281842 1.4767773 0.8373303

bn2.bias f4 [128]
000000 2f b2 0e be 99 5b a4 be b2 f3 23 be 06 e5 c4 be
       -0.13935159 -0.32101133 -0.16010931 -0.3845598
000010 f5 e1 eb bd 39 72 68 be bf 25 c2 bd 70 db 90 be
       -0.11517707 -0.22699822 -0.09479856 -0.28292418
000020 0c b8 1b be 1c 6a ea bd 58 c2 a7 be cf 55 d8 bc
       -0.15206927 -0.1144602 -0.3276546 -0.026408104
000030 18 a6 3b be 50 f6 1e be ec 7b fa be 4a 4c 6b be
       -0.18325078 -0.15523648 -0.4892267 -0.2297832
000040 75 a6 30 be d2 76 3e be 81 84 84 be ce b7 a8 be
       -0.17250998 -0.18600014 -0.25882342 -0.32952732
000050 56 5f 47 be bf 42 bd bd b6 ed 2e be 9c 8e 9d be
       -0.19469962 -0.092412464 -0.17082867 -0.30772865
000060 e8 1d 86 be 84 f4 ba be 17 af 5e be 0a d9 f4 bd
       -0.26194692 -0.36514676 -0.21746479 -0.119554594
000070 c7 13 92 be e9 3b d1 be b1 a2 a2 be 80 a8 16 be
       -0.28530714 -0.4086602 -0.3176475 -0.14712715
000080 72 ed 90 be b4 e6 92 be 7b fd 5d bd e8 ba 9f 3c
       -0.28306156 -0.28691638 -0.054196816 0.019498304
000090 b0 4d d9 bd af f2 af be 85 2d 80 be 67 45 7d be
       -0.10610521 -0.3436484 -0.2503473 -0.24733506
0000a0 7a 11 ad be e0 c3 6b be 44 16 82 be bb 9c 27 be
       -0.33802396 -0.23023939 -0.25407612 -0.16368382
0000b0 4a 8b 59 be 37 f4 08 be 94 d9 6d be 75 36 fe bd
       -0.21244541 -0.1337441 -0.2322753 -0.124127306
0000c0 92 e0 1b be 13 b6 2d be 4b d0 0d be c8 cd c2 be
       -0.15222386 -0.16963987 -0.13848989 -0.38047624
0000d0 26 5e c8 3d 51 2b 18 be 4f 13 11 be 88 fb 98 be
       0.097835824 -0.14860274 -0.14167522 -0.29879403
0000e0 10 3d 53 bd 90 13 8f be 8f 7f 1b be 25 61 91 bd
       -0.051571906 -0.27944613 -0.15185378 -0.07098607
0000f0 c8 37 26 be 39 83 01 be 20 d2 fe bd b2 9f 46 be
       -0.16232216 -0.12647714 -0.12442422 -0.19396856
000100 0a 95 dc 3c 9f af 9c be 4d 1c 15 be df 80 ea 3d
       0.026926536 -0.30602738 -0.14561577 0.114503615
000110 b7 06 0b bd 63 14 b4 be 39 00 a8 be 12 8e 7c 3d
       -0.03394195 -0.35171804 -0.3281267 0.061658926
000120 25 40 9a be af 43 93 be 88 4d bd bd c2 5e a6 bb
       -0.30127063 -0.28762576 -0.092433035 -0.005077214
000130 14 57 84 be 4c 25 a6 be 1c f5 37 be d3 69 02 be
       -0.25847685 -0.3245033 -0.17964596 -0.12735681
000140 3e ac 85 be 23 d3 82 be db 9d d5 be c0 87 12 be
       -0.26107973 -0.2555171 -0.41721997 -0.14309597
000150 f2 3a 9d bc 01 32 88 be 89 d5 b7 be 16 0d 68 be
       -0.019193146 -0.2660065 -0.35905102 -0.22661242
000160 33 82 97 be 38 3f 65 bd 39 bf 63 be cc 7d 55 be
       -0.29591522 -0.055968493 -0.22240914 -0.20848769
000170 96 59 56 be 6a 79 ad be ca 9e 92 be 4e 71 62 be
       -0.20932612 -0.33881694 -0.2863677 -0.22113535
000180 ca 11 c5 be 5f cb 61 be d5 74 5e be 15 9e 19 be
       -0.38490134 -0.22050236 -0.21724255 -0.1500171
000190 f4 ea 46 be d6 bc a0 be a5 71 8b be d2 be 1f be
       -0.19425565 -0.3139407 -0.2723514 -0.15600136
0001a0 c4 db cb be 7b 9f a7 be 7e 4a 8b be c0 14 bd bc
       -0.39816105 -0.3273886 -0.2720527 -0.023081183
0001b0 7d 1d 08 be b5 1e 83 bd cf 25 6a be 54 f9 ed bd
       -0.13292499 -0.06402341 -0.22865985 -0.11619821
0001c0 f1 26 e6 bd e3 78 b4 be 10 51 aa be 72 5d a0 be
       -0.11237896 -0.3524848 -0.3326497 -0.31321293
0001d0 31 d4 2f be 47 1d 54 be 2f 65 7c be b2 8c eb bd
       -0.17170788 -0.20714293 -0.24647973 -0.11501445
0001e0 8e f1 44 be 37 b6 97 be cb 99 9a be 1e 40 ca be
       -0.19232771 -0.29631206 -0.3019546 -0.39502043
0001f0 72 15 85 be d2 e6 af bd 68 e9 bd bd 61 c5 e8 be
       -0.25992924 -0.08588947 -0.09273034 -0.45463088

bn2.running_mean f4 [128]
000000 dc ea 8a 3d f5 96 5f 3d 1c 4c 52 3e 5f e9 29 bf
       0.06783077 0.054587323 0.20536846 -0.6637172
000010 fa eb b6 be a9 f7 0a 3f b6 be 03 3f a3 9f 93 be
       -0.3572691 0.5428415 0.51462877 -0.2883273
000020 11 d2 2f bb 3d e5 53 bf 46 6d 93 3e 62 ca aa bd
       -0.002682809 -0.82771665 0.28794307 -0.08339383
000030 9b 38 bd 3e 75 e2 c1 3e 7a 5f 4b be 26 d3 86 3e
       0.3695725 0.37868086 -0.1986064 0.26332968
000040 a0 95 c5 3c 93 82 d9 be 2a 70 fe bd 0e 7b 06 be
       0.024119198 -0.42482433 -0.12423737 -0.13132879
000050 e9 a4 a6 3e 59 3f fe 3e b7 0a 55 be 59 45 1c 3e
       0.3254769 0.49657705 -0.20804869 0.15260829
000060 f3 c6 a1 be d5 83 a6 3e fd 3c cb be bc 72 9b 3e
       -0.315971 0.32522455 -0.39694968 0.30360973
000070 02 d0 b4 be 8b f9 9a bd d6 2c 68 be 55 a0 e8 3d
       -0.35314947 -0.07567128 -0.22673354 0.11358706
000080 a9 ad 6f 3e c4 87 ac 3d e8 1c 08 bd 20 a6 1e be
       0.2340609 0.08424333 -0.033230692 -0.15493059
000090 d9 9e 41 bd 60 b8 16 3c ef c6 e3 bd 1e ca 23 3f
       -0.04727063 0.009199232 -0.11121928 0.6398028
0000a0 1b df 8f 3d 9e d5 d2 3e 25 54 99 be 54 43 19 be
       0.07024976 0.41178602 -0.2994701 -0.1496709
0000b0 f7 6a 34 3f 2e fd b9 3e 5d f1 a4 3d d8 a8 84 3e
       0.70475715 0.36325973 0.08053849 0.25910068
0000c0 5c 76 e0 3d aa 3a 00 3f ee 50 51 3e 47 dd 10 be
       0.10960075 0.50089514 0.20441028 -0.1414691
0000d0 13 73 3f 3f e6 53 fb 3d c5 81 bd 3e 7c 7d 3d be
       0.74784964 0.12271862 0.3701307 -0.185049
0000e0 1b 36 81 bf 30 de 08 bf ca 5a 29 3f 7f d3 27 bd
       -1.0094637 -0.5346403 0.6615416 -0.040973183
0000f0 7f 23 e4 3e aa d8 2c 3f fb 41 60 be d3 3a 42 be
       0.4455833 0.67518103 -0.2190017 -0.18967752
000100 5a 55 7d be 0e b8 a1 be 91 77 4c 3f fc fb d0 3e
       -0.2473959 -0.31585735 0.79869944 0.4081725
000110 fc 3c 98 bd 2c 09 be be 79 3b 55 3d 3e 1a 12 3f
       -0.07433507 -0.37116373 0.05205867 0.5707129
000120 be f3 0c 3f 01 4a 03 3f 4a c9 f3 3e c0 bd 83 3e
       0.5505942 0.51284796 0.4761451 0.25730705
000130 58 23 f4 be bb 70 6c be a3 68 5a 3e 39 f5 34 3f
       -0.47683215 -0.23089878 0.21328978 0.7068668
000140 d8 0c df be 5f 51 da 3d 17 85 f2 bc 30 56 83 bd
       -0.43564487 0.106600516 -0.029604478 -0.06412923
000150 cb d4 05 3e 67 03 03 3f 42 35 93 bd c8 98 1f bd
       0.13069455 0.51177067 -0.071878925 -0.038964063
000160 95 29 88 3d ab d9 92 3e 17 86 85 bc c5 8a 38 be
       0.06648556 0.28681692 -0.01629929 -0.18021686
000170 2f 4e 0d 3d 6b d8 05 bf 11 72 20 3f 8c 76 c8 3e
       0.03449839 -0.5228335 0.6267405 0.39152944
000180 2f 27 10 bf 6a 78 12 3e 6d 2d b8 be 24 6e a7 be
       -0.5630979 0.14303747 -0.35972157 -0.32701218
000190 1e 91 01 3f 46 e2 cc 3d bf 1a ed 3e 3f 66 2f bf
       0.50612056 0.10004096 0.46309468 -0.6851539
0001a0 ff 33 4f bf 83 e0 81 3e a5 0e 06 be 7a 9b ec be
       -0.80938715 0.253666 -0.13091524 -0.4621237
0001b0 e9 4d ed 3e 70 3e 55 3e 15 0d c6 3e 5d 21 03 be
       0.46348503 0.208246 0.38681856 -0.12805696
0001c0 58 f9 11 3b c3 69 20 3e de 1a d1 be 8a 47 2e bd
       0.0022273865 0.15665345 -0.4084081 -0.042548694
0001d0 36 0e bf 3d 6d 71 3e 3d 98 f7 28 be 36 e0 a4 bc
       0.093288824 0.04649489 -0.165007 -0.020126443
0001e0 87 4b f1 3e a0 b5 49 3e d2 0a f9 3e 4c 7b 98 bd
       0.47127935 0.1969819 0.48641068 -0.07445392
0001f0 d0 ff aa 3d 96 5d 2c 3e ee bd 55 be 64 56 6e be
       0.083495736 0.16832575 -0.20873234 -0.23275143

bn2.running_var f4 [128]
000000 7e 19 4f 3f ce 64 57 3f 9c 43 4a 3f 67 be 5f 3f
       0.80898273 0.8413819 0.79009414 0.87399906
000010 1f b2 61 3f 69 9c 1f 3f 4b ac 30 3f 3e f8 27 3f
       0.88162416 0.6234804 0.690129 0.6561316
000020 2f af 50 3f 6c 9d 81 3f bc 1b 45 3f 53 d4 41 3f
       0.8151731 1.0126166 0.76995444 0.75714606
000030 8d 81 8a 3f f1 ad 35 3f 49 f4 3b 3f 4d 59 28 3f
       1.0820786 0.7096854 0.73419625 0.6576126
000040 49 9e 40 3f 9b ef 1a 3f bc bb 30 3f 1f 13 42 3f
       0.75241524 0.6052186 0.6903646 0.75810426
000050 3c f1 4b 3f a1 04 5b 3f 12 38 8c 3f 07 f7 66 3f
       0.7966497 0.8555394 1.0954611 0.90220684
000060 d9 59 73 3f 33 39 48 3f f3 8b 81 3f 9b 13 a9 3f
       0.9505897 0.7821228 1.0120834 1.3209108
000070 f0 70 8b 3f 9f f5 4f 3f 2b 2c 47 3f 5d b9 40 3f
       1.0893841 0.81234163 0.7780177 0.7528284
000080 2b cb 36 3f 04 81 4c 3f 7b 02 84 3f 3a 09 81 3f
       0.7140376 0.7988436 1.0313257 1.0080941
000090 3a 03 38 3f 83 2b 69 3f 09 ab 64 3f 0a 57 65 3f
       0.71879923 0.9108202 0.8932348 0.89585936
0000a0 48 ad 14 3f f6 00 35 3f 23 28 4a 3f c2 6c 50 3f
       0.58076906 0.7070459 0.78967494 0.8141595
0000b0 30 4b 38 3f 34 cc 3f 3f 33 9a 61 3f bd 27 39 3f
       0.7198973 0.74920964 0.88125914 0.7232626
0000c0 86 5d 30 3f e2 cf 17 3f cf b1 34 3f d2 3e 34 3f
       0.68892705 0.5930158 0.70583814 0.70408356
0000d0 5f e4 c7 3f 69 8c 2e 3f 5c e9 53 3f a7 c6 0e 3f
       1.5616568 0.68183 0.82777953 0.5577187
0000e0 f6 de a2 3f 16 e5 5c 3f 41 be 5a 3f df 3a 52 3f
       1.2724292 0.8628706 0.85446554 0.8212108
0000f0 02 86 60 3f 49 4e 43 3f 37 c4 72 3f d1 56 7b 3f
       0.8770448 0.7629133 0.9483065 0.98179346
000100 9e 67 81 3f 31 9e 34 3f a5 92 4a 3f 59 87 94 3f
       1.0109746 0.7055388 0.7913001 1.1603805
000110 8d c5 93 3f e0 12 38 3f 34 6c 4a 3f a2 f8 6b 3f
       1.1544663 0.719038 0.79071355 0.9217626
000120 16 cc 1a 3f 37 a6 46 3f be 01 28 3f 85 a1 54 3f
       0.6046766 0.77597374 0.6562766 0.8305896
000130 8d c8 47 3f c0 70 5d 3f 35 3d 29 3f 6d cb 06 3f
       0.7804039 0.8650017 0.6610902 0.52654153
000140 fd d0 5a 3f de 51 1f 3f ee 1d 5e 3f 0f 78 c2 3f
       0.8547514 0.62234294 0.8676442 1.5192889
000150 55 3a 70 3f 54 a8 31 3f 57 1d 54 3f b5 cc 34 3f
       0.9383901 0.69397473 0.8285727 0.7062486
000160 b9 4a 47 3f 82 e5 a3 3f 4b 13 2f 3f 96 0e 44 3f
       0.7784839 1.2804415 0.68388814 0.76584756
000170 ce cc 4e 3f 39 e6 74 3f 65 4c 49 3f 29 24 6b 3f
       0.8078126 0.9566379 0.78632194 0.9185205
000180 7e 2d 35 3f cf a1 33 3f f7 b6 30 3f 97 5f 9a 3f
       0.7077254 0.70168775 0.6902918 1.2060422
000190 f2 00 47 3f b7 e0 2b 3f 5a 7f 37 3f 2d ff 26 3f
       0.7773582 0.6713976 0.716787 0.6523312
0001a0 b8 48 48 3f 3d a1 2f 3f 72 71 6b 3f 81 93 80 3f
       0.7823596 0.68605405 0.9196998 1.0045015
0001b0 06 88 2b 3f 5c d5 5d 3f ca 6a 52 3f dc 86 76 3f
       0.6700443 0.86653686 0.821942 0.9629953
0001c0 74 fe 94 3f 9a c5 3b 3f f9 5d 81 3f 23 9e 1b 3f
       1.1640153 0.7334839 1.0106803 0.6078817
0001d0 ab 27 a6 3f 7e 40 57 3f e2 92 35 3f 6f d7 4a 3f
       1.2980856 0.8408278 0.7092725 0.79234976
0001e0 71 28 4b 3f c6 3b 9e 3f b7 27 31 3f 64 db 6d 3f
       0.79358584 1.2361991 0.69201225 0.9291289
0001f0 73 97 53 3f a7 1c 81 3f cf 2d 2d 3f 7b 7a 34 3f
       0.8265297 1.0086869 0.67648023 0.7049939

classifier.0.weight f4 [128, 384]
000000 65 10 fb 3b 17 24 e9 bc 11 d3 05 3d a0 c9 e4 3c
       0.0076618665 -0.028459592 0.03267199 0.027928174
000010 b2 e4 52 bc e1 88 3d 3d 94 44 7a bc 6b 57 1f 3d
       -0.012871908 0.046273116 -0.015275139 0.038901728
000020 01 88 32 be 0e 1e b8 bb 93 a1 09 3d d8 74 c3 bd
       -0.17434694 -0.005618817 0.033601355 -0.095437706
000030 f5 6b 02 be df 35 65 bd 36 e3 a8 bc 22 c4 9a bc
       -0.12736495 -0.05595958 -0.020616155 -0.018892352
000040 98 69 3f 3d a1 d1 b2 3d 22 e1 83 bc b2 b6 a4 bd
       0.04673156 0.0873139 -0.016098563 -0.08042659
000050 69 86 52 3c 36 c9 00 3d f2 56 d8 bc 64 9c e2 3a
       0.012849429 0.03144189 -0.026408646 0.001728904
000060 94 a8 04 be b4 16 f7 3c ae 1e 1d be 38 4f ff bc
       -0.12954932 0.030162193 -0.15343735 -0.031165704
000070 bd ff 37 3d 19 83 b0 bd e4 45 13 3d 19 9d a5 3b
       0.044921625 -0.08618755 0.035955325 0.005054128
000080 3d 48 62 3d e8 f6 ee bb bc 39 24 bd 15 96 d5 bc
       0.055244673 -0.007292617 -0.040094122 -0.026072541
000090 21 d3 20 bd 2d 16 ee ba 4b 95 d9 3d 4d 85 04 be
       -0.03926385 -0.0018164568 0.106241785 -0.12941475
0000a0 35 39 c1 bc 97 dd ca 3c 06 28 c1 3d 3f 2d af 3d
       -0.023586849 0.024763865 0.09431462 0.08553552
0000b0 54 b2 fe bc 16 bc 67 3d ef 3c 76 3d fc 2c e0 3c
       -0.031090893 0.056575857 0.060116705 0.0273652
0000c0 dc c9 3b bc 0e 24 dc bb db d7 70 bb 5a 28 87 3d
       -0.011461701 -0.0067181652 -0.0036749754 0.06599493
0000d0 2b 99 b8 bc 55 4b 88 bd c1 de 28 3d c1 c0 14 bd
       -0.022533974 -0.066549934 0.04122806 -0.036316637
0000e0 12 a3 13 3d 90 03 f7 bb c6 03 23 bd 74 c7 dc bc
       0.036044188 -0.0075382665 -0.03979852 -0.026950575
0000f0 ad 16 2d 3d dc c7 68 bd 20 4c 67 bd 18 cb a8 bc
       0.042257953 -0.056831226 -0.056469083 -0.020604655
000100 30 b9 1c 3c 71 46 fe 3d 43 9f bb ba b6 d7 92 bd
       0.0095656365 0.124157794 -0.0014314431 -0.0717005
000110 c7 a8 55 bd 13 0f 95 b9 81 16 71 3d 3e a5 3c 3d
       -0.05216291 -0.00028430726 0.058859352 0.046056025
000120 14 43 21 bc 50 40 43 3d 47 14 97 be 60 b5 37 3d
       -0.009842653 0.047668755 -0.29507658 0.044850707
000130 82 ca 3e bc 84 89 43 3d 75 3a 02 3c bc f1 b3 bc
       -0.011644961 0.047738567 0.007948508 -0.021965854
000140 3e c0 de bd 9c 05 35 bc c8 f4 10 bd 05 b8 8e b9
       -0.10876511 -0.011048701 -0.03538969 -0.00027221456
000150 fa 0c 1b bd b4 87 01 bd f4 59 c6 bc 98 5b c8 3d
       -0.037854172 -0.031623557 -0.024212815 0.09783095
000160 24 81 8a 3d f9 4b 5e be 69 29 2b bd f6 be 81 3c
       0.06762913 -0.21708669 -0.04178754 0.015838128
000170 e9 a3 40 be 1d b3 ec bc 91 00 cc bc 67 b7 19 3e
       -0.18812527 -0.028894002 -0.024902614 0.15011369
000180 3b 43 89 3c 2d 98 2d bd 8b ef 01 3e f4 81 92 bd
       0.01675569 -0.042381454 0.12689035 -0.07153693
000190 28 c4 15 3c dc bb 30 be c2 3b da ba 96 a6 01 bd
       0.009141006 -0.17259163 -0.0016649889 -0.03165301
0001a0 1d e6 67 3a c1 28 03 bd e9 d1 bf bb ae 8c d7 bc
       0.000884624 -0.032021288 -0.0058538807 -0.026312198
0001b0 a0 7e 2b bc 4c c6 cf 3d 27 3f b4 39 05 cd c4 3d
       -0.0104672015 0.10145244 0.00034379328 0.09609417
0001c0 a4 02 a1 bc 3b e5 f4 bc a9 5b b4 bc 8e e8 a0 3d
       -0.01965458 -0.029894462 -0.022016363 0.07856856
0001d0 9c 20 c0 bc 70 94 52 bd 2f 20 82 bb 87 85 bb 3c
       -0.02345305 -0.051411092 -0.0039711217 0.02289082
0001e0 c5 61 57 3d 94 46 a8 3d a1 aa a1 3b 78 0e b1 bc
       0.052583475 0.08216587 0.0049336706 -0.021613345
0001f0 74 98 65 bd 2b 48 4f 3d bf 66 47 bc 12 6b 22 bd
       -0.056053594 0.050605934 -0.012170493 -0.03965289
000200 32 b8 8f bd dc 17 d4 3d 29 77 27 3d 73 99 fa bc
       -0.07017554 0.10356113 0.040885124 -0.030590748
000210 bf 64 0a be 91 b7 95 bd 67 bc a2 bc 2c bd d4 3c
       -0.13514994 -0.07310403 -0.019865228 0.02596911
000220 64 61 a8 3c 85 18 8b 3d dc 7b fe 3c f7 97 96 3c
       0.020554252 0.06791786 0.03106492 0.01838301
000230 af 99 85 bd be be 78 3b b0 c6 dc bc 7a 93 d3 3d
       -0.065234534 0.0037955488 -0.02695021 0.10330863
000240 57 60 ca bd 51 25 1f bd a0 4b 2c bd 33 48 55 bd
       -0.098816566 -0.038853947 -0.04206431 -0.052070808
000250 5a ea 0e bd 08 7b 0b 3d d0 67 a3 bd 11 2c 09 3d
       -0.034891464 0.03405288 -0.07978785 0.03348929
000260 9d b0 9d bd ba 89 8c bc a0 ab 89 3d 26 43 45 3c
       -0.07699702 -0.017155517 0.06722188 0.012039935
000270 67 45 ab bd 3a 56 d4 bb e1 32 27 bd 08 9f 42 bd
       -0.08362847 -0.0064800056 -0.040820006 -0.047514945
000280 92 7f d8 3c 51 db 3d bb 52 77 b8 3b b0 7a cd bc
       0.026428018 -0.0028969834 0.0056294585 -0.025082916
000290 c7 50 1e 3d 93 09 fd bc a6 0d 97 3d 3d 09 32 3e
       0.038651254 -0.030888354 0.0737565 0.17386337
0002a0 29 68 ba 3d 71 d3 03 3d 8f 8f df bb e6 73 dd 3c
       0.09101898 0.032184068 -0.0068225334 0.027032804
0002b0 88 5d 01 3e c0 c8 5d be fd 1f c2 3c e4 76 17 3c
       0.12633336 -0.21658611 0.023696894 0.009244654
0002c0 e7 96 13 3e 40 72 4e bd ae 0f ff bd b4 cb 8d bd
       0.14413033 -0.050401926 -0.124541625 -0.06923619
0002d0 d4 24 a0 3c ae a1 39 3d ba 51 5f 3d a3 42 95 3b
       0.019548811 0.045320205 0.0545213 0.004555063
0002e0 6c 30 04 bc ac 0a 7c 3d 63 d8 ca 3c 97 87 23 bd
       -0.008068185 0.061533615 0.024761384 -0.03992423
0002f0 b1 04 5d bd 89 3b a7 bd 84 2b 12 3d e5 48 8e be
       -0.053959552 -0.08165652 0.03568603 -0.2778999
000300 3e 76 04 3d 57 2a 77 bb 24 35 84 3c 63 f8 fd 3d
       0.032339327 -0.0037714445 0.01613862 0.12400892
000310 a6 8e bd 3c 49 5f 5d 3c 19 68 c0 bd 48 64 09 3b
       0.02313931 0.013511487 -0.09394855 0.0020964313
000320 27 95 07 3e 4b 0f 83 bd 27 bf e4 bc c0 3e 44 3d
       0.13240491 -0.06399401 -0.02792318 0.047911406
000330 91 fc 14 bd 58 e2 af bc 10 ad 51 bb d4 36 4d 3d
       -0.03637368 -0.021470234 -0.0031994022 0.050101116
000340 a6 93 07 bd 37 df c0 3d 7d 4f b4 3c 8c c2 b4 3c
       -0.033099793 0.09417575 0.02201056 0.022065423
000350 61 6b a2 3b d5 bf 79 bc 5f 40 8c bc 71 98 34 3d
       0.004956648 -0.01524349 -0.017120538 0.044090692
000360 ad 8d ca bd fd a3 fb bd a3 be a4 3d 88 4f c4 bd
       -0.09890304 -0.12287138 0.080441736 -0.09585482
000370 f6 ca 07 bc 65 b3 30 bc 4e 9e 92 bd 44 32 2c bd
       -0.008288136 -0.0107849585 -0.071591005 -0.042040125
000380 95 a8 77 bd ad 18 10 3c 2b 51 c0 3b a8 2a ee 3c
       -0.060463507 0.008794946 0.005869051 0.029073074
000390 54 a8 d3 bc ba bb b6 bd 42 c6 70 bd 8e 13 fb bc
       -0.025837101 -0.08922525 -0.058782823 -0.030648973
0003a0 cb be 99 bc a8 7f 63 bc 30 de 80 bd 8e eb 87 bd
       -0.018767735 -0.013885416 -0.06292379 -0.06636725
0003b0 e0 52 65 bc d4 d8 66 bd aa 86 b9 bd 20 67 25 bc
       -0.01399681 -0.056359127 -0.09058888 -0.010095388
0003c0 27 1f 7a 3c 59 aa b4 bd af 7e 4a bc 2e aa ba bd
       0.015266216 -0.08821554 -0.012359305 -0.091144904
0003d0 80 21 68 bd 5a 76 08 be d3 25 27 bc e2 56 97 3a
       -0.056672573 -0.13326398 -0.010201889 0.0011546279
0003e0 fc 53 c0 bb 00 55 28 bd 52 bf ec bb 88 78 0a bd
       -0.0058693867 -0.041096687 -0.0072249556 -0.033806354
0003f0 92 a4 3a 3d c4 29 9a bc e1 ba f4 3c 59 88 f2 bb
       0.045567103 -0.018818744 0.029874267 -0.007401508
