models_newWin/all_flat/best_model_fold4.pth (torch, 343081 bytes, 17 tensors)

conv1.weight f4 [64, 6, 3]
000000 80 d3 26 3e f3 33 07 3c 47 31 00 3b ee 84 6c 3e
       0.16291618 0.008252132 0.0019560622 0.23097584
000010 f5 39 29 bc 76 8a c5 bc dd ef ad bd de 41 3d 3e
       -0.010328759 -0.024113875 -0.08493016 0.18482158
000020 c6 c2 30 3e 8c 88 81 be d7 a2 38 3e e3 ac 64 3c
       0.172618 -0.2529949 0.18030868 0.013957235
000030 70 94 35 3e 2f 72 11 3e 59 d6 d6 3c fe f7 2e be
       0.17732406 0.14203714 0.026225256 -0.17086789
000040 ff 65 84 be a4 e3 b7 3d c7 36 cb 3d 0f 25 21 bb
       -0.25859067 0.08978966 0.09922557 -0.002458874
000050 18 7f 16 be 79 bf 50 bc b2 fb dd 3c 86 b2 7f bd
       -0.1469692 -0.012740963 0.027097557 -0.062426113
000060 d5 12 cb 3d 4b 9e 71 3e 41 c6 b4 be 01 93 11 3e
       0.09915701 0.2359554 -0.35307506 0.14216234
000070 23 8d bb be 6c 32 0b 3e 54 e1 10 3e d7 2c 0f bd
       -0.36631116 0.13593453 0.14148456 -0.034954872
000080 3e a5 31 be a9 8e e2 3d 54 ce 13 bd 3e 22 08 be
       -0.17348191 0.110623665 -0.03608544 -0.13294312
000090 fd b7 a0 3d c9 de c1 3c e4 89 8b 3b 5e d5 62 be
       0.07847593 0.023665803 0.004258381 -0.22151706
0000a0 d6 b0 98 bd 6c 2c 39 3e 2e 91 03 bd cd 83 47 3d
       -0.07455604 0.18083352 -0.032120876 0.04870968
0000b0 dd db c1 3c d4 e1 8b 3d e8 a8 ff 3d c6 6f 50 be
       0.02366441 0.06830183 0.12483388 -0.20355138
0000c0 97 44 2d 3c bf 24 ea 3d 9f 95 dc bb 5e 33 da 3b
       0.010575435 0.1143279 -0.0067317034 0.0066589555
0000d0 3f ab 28 bc 44 c6 77 bc e1 e6 29 3d 79 55 50 3d
       -0.0102947345 -0.015122954 0.04147995 0.050862763
0000e0 9c 14 80 3d 2a a4 09 be 51 c3 57 3e 84 93 2d 3e
       0.06253931 -0.1344153 0.21070601 0.16950804
0000f0 36 4a 08 3d dc 76 fa bc e9 54 8c bd 38 a3 2e 3e
       0.033273898 -0.030574255 -0.06852133 0.1705445
000100 9b 5a 8b be 12 1d 87 bb 03 10 5b be 9e bf 29 be
       -0.27217564 -0.0041233385 -0.21392827 -0.16577002
000110 71 b4 b2 3d b9 23 1e bd 22 b7 24 3e 1c 1d a2 3c
       0.08725823 -0.038608287 0.16085485 0.019789271
000120 69 9d 45 3d 57 be e1 3c dc 60 d3 bd 2d 5f 63 bb
       0.04824582 0.027556581 -0.10321209 -0.003469418
000130 a6 50 04 3e 5b 3b 07 be f3 a2 26 be 43 54 66 bd
       0.1292139 -0.13206236 -0.16273098 -0.056232702
000140 7c 6e 5b 3e ea 37 c5 bd 43 a5 21 3e 72 a2 50 be
       0.21428865 -0.096298054 0.15785699 -0.20374468
000150 bb dc c1 bd 45 e7 20 bd f5 44 e4 3d 96 2a 85 3c
       -0.09465929 -0.039283056 0.11145965 0.016255658
000160 fb 8d 71 be 36 0a fe 3d db 9c 81 bd 01 6b 1c be
       -0.23589318 0.12404291 -0.06328746 -0.15275194
000170 00 38 27 3e 85 53 93 3e 74 77 c4 3d 90 33 06 be
       0.16329956 0.28774658 0.095930964 -0.13105607
000180 2b c9 1a be d1 b1 0d be 73 d3 99 bd 5a 87 c5 3d
       -0.15115802 -0.13837363 -0.07511034 0.09644957
000190 4e 3d 4e 3d 51 d2 00 3e 74 d4 2b 3e 44 11 f4 3d
       0.050351433 0.1258023 0.16780263 0.11917356
0001a0 59 78 78 bd a1 e4 7d 3e 5b 34 04 3e 30 1e 26 3e
       -0.060661647 0.24794246 0.12910597 0.16222453
0001b0 a4 1f ec bc d8 b3 9d 3b 9a c5 96 3d 00 2b 19 bd
       -0.028823681 0.004812699 0.07361908 -0.037394524
0001c0 b0 0e 75 bc a1 09 97 3d 61 3c b5 3d c9 98 53 3e
       -0.014957115 0.073748834 0.08849407 0.20663752
0001d0 ea fb 91 bd 33 a1 00 bd dd c8 94 be fa 10 31 3e
       -0.07128127 -0.03140373 -0.29059497 0.17291632
0001e0 2b 49 2f 3d 7a 23 4a bd b5 8f a6 3d cd fe 4a 3d
       0.042794388 -0.04935024 0.08132879 0.049559403
0001f0 5e b3 c2 bd 07 11 aa 3c 51 9b 5a 3d 90 e6 56 3e
       -0.09506868 0.020760072 0.053370778 0.2098639
000200 fb 18 39 bd e1 5b 41 3d 62 e8 d8 bc fd a7 2d 3e
       -0.04518984 0.047206763 -0.026477996 0.16958614
000210 05 fa b0 39 71 ad 6c 3d a9 87 f0 3d 49 98 06 3e
       0.00033755615 0.057782594 0.11744625 0.1314403
000220 9c e1 01 3e 68 2c 1b be 31 70 cf bc 28 da 10 be
       0.1268372 -0.15153658 -0.025322052 -0.1414572
000230 ae 31 8a 3e 42 3a 5e bd 93 28 7d 3e 34 c2 06 3e
       0.26991028 -0.054254778 0.24722509 0.1316002
000240 c2 d2 df 3c f1 92 60 bd cf be 10 bd 92 fb 14 be
       0.027322177 -0.054827634 -0.03533822 -0.14549091
000250 d0 11 56 be 32 cb 66 3e f5 2a 6e be 4d 87 80 be
       -0.20905232 0.2253845 -0.23258574 -0.25103226
000260 8b 30 1e be 47 01 4b 3e 4b 89 f1 bc 6e d8 01 be
       -0.15448205 0.19824706 -0.029484412 -0.12680218
000270 63 c6 82 3e 43 60 92 3d 17 f8 f4 3d 0a a8 03 3e
       0.25541982 0.07147267 0.11961382 0.1285707
000280 ee 5e 0f 3d 52 9f 91 bc 5a e1 f2 bd 41 58 53 3d
       0.03500264 -0.017776165 -0.11859389 0.051597837
000290 77 74 80 3e f7 07 da bd 7f da 6e be bd 85 36 be
       0.25088856 -0.106460504 -0.23325537 -0.17824455
0002a0 6f fd 31 be 0a 62 60 bd 1c bb 39 3e bb b1 83 3c
       -0.17381833 -0.054780997 0.18137783 0.01607596
0002b0 6e 64 ea bd ff 2c e4 bc c4 e1 53 3d b0 dd 41 be
       -0.11444937 -0.027853487 0.05172898 -0.18932223
0002c0 d0 20 55 bb 56 0c 8a bc 30 40 01 be 05 88 a5 3d
       -0.0032520778 -0.016851585 -0.12622142 0.08082584
0002d0 9c 08 72 bd 1d 75 cc bd bb 1c f4 3d 19 7f 1b 3d
       -0.05909024 -0.09983275 0.119195424 0.037963007
0002e0 bd 69 52 3e 2f 1b 58 bd ae 4a b4 bc 42 92 9d bd
       0.20548148 -0.0527603 -0.022008266 -0.07693912
0002f0 58 a7 3c 3e c4 bd 6d bd b2 69 be be aa de a9 bd
       0.18423212 -0.058042303 -0.37190014 -0.08294423
000300 8f 3f b5 3d f3 6d 8a 3d e9 f2 b3 3c 52 32 86 3d
       0.088500135 0.067592524 0.021966415 0.065525666
000310 4e 03 02 3e b7 dd f9 3c b1 48 72 bd cf e6 2e 3d
       0.12696573 0.03050123 -0.059151355 0.042700585
000320 2c a3 e4 3c f8 5c 2b bc 6a 41 82 3c 33 81 ef bc
       0.027909838 -0.010459177 0.015900332 -0.029236412
000330 d8 ea 0b bd 36 2c 16 bd b5 b4 33 3d ee 10 dc bd
       -0.03415951 -0.036663257 0.043873508 -0.107454166
000340 71 b7 19 3b c8 f2 6e 3d 61 99 8b be c0 2b a5 be
       0.0023455287 0.058337003 -0.27265456 -0.3225994
000350 0a 20 c8 be 82 d6 55 3e a4 7e 4b 3e 6c 4e b9 3d
       -0.39086944 0.2088261 0.19872528 0.09048161
000360 d0 50 7c bd 13 c9 c0 bd 94 9d 3c 3d 58 73 95 be
       -0.061600506 -0.09413352 0.046048716 -0.29189563
000370 d6 d5 bc bd ee 50 4d 3e b6 e3 bd 3d a7 5c 06 3e
       -0.092204735 0.20050403 0.09271948 0.13121282
000380 f5 db a4 be c7 4e 4e be 62 54 ab 3d 91 bc 99 bc
       -0.32199064 -0.20147239 0.08365704 -0.018766673
000390 58 31 29 3a 9b f1 75 3d 8b 89 17 be 4d af 8f bb
       0.0006454191 0.060044866 -0.14798562 -0.004384911
0003a0 b8 93 07 be 0a 1d 22 bd 7e 9c 54 bd 1c 37 22 3d
       -0.13239944 -0.039578475 -0.051907055 0.039603338
0003b0 be 13 f4 3c 11 f2 a4 3d 0c 41 0d be 0e 46 5d be
       0.02979457 0.08053983 -0.13794345 -0.21608755
0003c0 95 52 83 bd 36 8f 95 3d 9b ae 3c 3d 7d 07 e9 bd
       -0.06412236 0.07302706 0.046064954 -0.113783814
0003d0 9c d2 28 be 2c e8 c0 3d eb fb 41 3a c4 da 39 be
       -0.16486591 0.09419283 0.00073999044 -0.18149859
0003e0 e5 77 bf bd 0c d6 26 3d 4d 23 0e be f6 10 e9 be
       -0.0934904 0.040731475 -0.13880654 -0.45520753
0003f0 63 e9 bc 3b a8 03 3d 3e 37 e2 f4 3d 0f ae 59 3c
       0.0057651266 0.18458426 0.119572096 0.013286128

conv1.bias f4 [64]
000000 1c a6 29 be a9 0d 02 3e e0 36 07 bd db b0 38 3d
       -0.16567272 0.12700523 -0.033011317 0.045090538
000010 a4 10 1b bd 4f 4e 2b 3e 0f 23 58 be 03 33 2b 3d
       -0.037857667 0.16729091 -0.21107124 0.041796695
000020 4c f9 17 bd 98 d8 9b bc 22 1c 24 be c0 ba de 3d
       -0.037102982 -0.019024178 -0.16026357 0.108754635
000030 2a b7 be bd 7f f3 5f 3e 03 f6 47 3e 56 32 80 bd
       -0.093122795 0.2187023 0.1952744 -0.06259601
000040 90 22 71 bb 07 f2 e4 bd 08 b3 33 3e ec 38 bc bc
       -0.0036794282 -0.111789756 0.17548764 -0.022976361
000050 cd 29 44 bd cf 54 95 bd 9e 79 f6 3d c1 39 85 bd
       -0.047891427 -0.072915666 0.120349154 -0.06505156
000060 1a 53 3a 3e 3c 0d fe 3d 6b 27 1f be bb 84 0c 3d
       0.18195763 0.12404868 -0.1554238 0.03430627
000070 f1 02 7d bd 06 26 f5 3b cc 1a ac 3c 62 47 e3 bd
       -0.061770383 0.0074813394 0.021008871 -0.110975996
000080 57 e1 20 3e 7a 23 6d be 08 d3 92 bd 23 f6 05 bd
       0.1571096 -0.23158064 -0.07169157 -0.032705437
000090 d5 e8 41 bd 1a 26 a8 3d d4 52 48 be dd e0 cf 3c
       -0.047341187 0.08210392 -0.19562846 0.025375778
0000a0 04 1e e2 3d 33 e3 1d 3e cd 24 96 3b 80 e3 18 3d
       0.11040881 0.15418701 0.0045820237 0.037326336
0000b0 07 4a 13 3d 75 af c3 3d 8f f0 3f be 9a af 74 3e
       0.03595927 0.0955495 -0.1874411 0.23895112
0000c0 9e 84 67 be 83 14 b3 bd 70 17 0a 3e 6c fb ce bd
       -0.22609183 -0.08744147 0.13485503 -0.10106549
0000d0 d3 83 86 bd cf 98 3e be ee 1c ec 3d 4f 38 d1 3c
       -0.06568112 -0.1861298 0.115289554 0.025539545
0000e0 52 5c 2c bd 6d 68 6c be 2b 5d 39 bd d2 74 cc bd
       -0.04208023 -0.2308671 -0.045254868 -0.09983219
0000f0 ac c2 19 3c 8a 9b bf 3d 38 4d 09 3e dc ab 1b bd
       0.009384792 0.093558386 0.13408363 -0.038005695

bn1.weight f4 [64]
000000 3c 31 8e 3f 72 30 54 3f 25 16 82 3f fd ee 6c 3f
       1.1108775 0.8288642 1.0163008 0.9255217
000010 3d e9 52 3f 67 46 87 3f 76 f5 9b 3f 6f d2 aa 3f
       0.82387143 1.056836 1.2184284 1.3345469
000020 0d 58 99 3f 6a 8f 7e 3f d3 8a 7c 3f ca a1 9d 3f
       1.1979996 0.9943758 0.9864933 1.2314999
000030 12 e9 86 3f 66 d9 82 3f 52 8c 9b 3f 43 6a aa 3f
       1.0539877 1.0222595 1.2152197 1.3313679
000040 2a 39 98 3f 9e 75 82 3f 91 1c a4 3f f3 93 8e 3f
       1.1892445 1.0192144 1.2821218 1.11389
000050 51 61 8e 3f 39 2a 82 3f c3 bf a0 3f d7 6c 3d 3f
       1.1123449 1.0169135 1.2558521 0.739942
000060 f2 0f a5 3f 8b 6a 8b 3f 1f ed 9b 3f 14 d8 a9 3f
       1.2895491 1.0891889 1.2181739 1.3269067
000070 67 cc 73 3f db 1e b0 3f 99 99 e0 3f 7b f9 b4 3f
       0.9523377 1.3759416 1.7546874 1.4138635
000080 f6 c9 6b 3f 67 61 73 3f 9b 77 73 3f 31 24 9b 3f
       0.9210504 0.950705 0.9510438 1.212042
000090 e3 c3 98 3f 38 d0 8f 3f 77 ed 6b 3f 43 b6 7a 3f
       1.193478 1.1235418 0.9215922 0.9793436
0000a0 72 2c 55 3f b6 7b 88 3f 92 bb 89 3f 9e 63 8c 3f
       0.83270943 1.0662754 1.0760367 1.0967901
0000b0 6b 5c 55 3f 3b c6 90 3f 86 6c 6c 3f b6 23 9c 3f
       0.83344144 1.1310495 0.92353094 1.2198398
0000c0 47 6d 49 3f 2a fd 97 3f d8 d2 72 3f 54 bd 62 3f
       0.7868237 1.1874135 0.9485297 0.8857014
0000d0 50 f2 88 3f f1 a2 8f 3f 8f 92 8a 3f 84 7f 7d 3f
       1.0698948 1.1221601 1.0825976 0.990227
0000e0 c2 88 90 3f e9 71 6e 3f 92 9c 7e 3f 04 77 90 3f
       1.1291735 0.93142563 0.9945766 1.1286321
0000f0 21 0b 97 3f 27 96 be 3f be d2 73 3f c6 73 90 3f
       1.1800271 1.4889573 0.9524344 1.1285331

bn1.bias f4 [64]
000000 08 4d 8f be 54 d8 a4 be 14 c8 95 be 5b 99 bf be
       -0.27988458 -0.32196295 -0.2925421 -0.37421688
000010 f5 57 aa be 29 69 50 be 43 78 9c be 53 d9 53 be
       -0.3327023 -0.20352615 -0.30560502 -0.20688371
000020 65 bc 95 be 18 11 bc be c0 8d da be e9 82 be be
       -0.29245296 -0.36731791 -0.42686272 -0.37209252
000030 31 05 70 be 63 47 c3 be f3 d0 db be 2b 9c fe 3d
       -0.2343948 -0.381404 -0.42932853 0.124321304
000040 db 50 d2 be e2 fc 85 be 82 84 d2 bd aa 14 a9 be
       -0.41077313 -0.26169497 -0.1027918 -0.33023578
000050 dd 56 9c be e1 e3 7a be d0 e1 ea bd 8d d5 d4 be
       -0.3053502 -0.24500991 -0.114688516 -0.41569176
000060 0f 3f 6d be 46 ae c7 be 78 4d 81 be 3e 79 72 be
       -0.23168586 -0.39000148 -0.25254416 -0.23679063
000070 de c1 d4 be de c5 bc bd 21 8a c0 bd 8a cb a5 3c
       -0.4155416 -0.09217428 -0.09401346 0.020238657
000080 88 27 23 be 6b 65 dc be b7 04 97 be 21 cf 73 be
       -0.15933049 -0.43046126 -0.29495785 -0.23809482
000090 86 a7 b2 be d1 58 aa be ba 64 a9 be 1a 56 9c be
       -0.34893435 -0.33270887 -0.3308466 -0.3053444
0000a0 69 df 80 be c2 8b 80 be a2 56 85 be 1c 38 2d be
       -0.25170448 -0.25106627 -0.26042658 -0.16915935
0000b0 67 2a b7 be 53 20 88 be b2 33 c3 be a7 e9 f7 be
       -0.35774538 -0.2658716 -0.38125378 -0.4842045
0000c0 0c b4 ce be 38 ba 00 be 63 cc ae be e3 13 a5 be
       -0.4037174 -0.12571037 -0.3414031 -0.32241735
0000d0 d2 da 89 be 85 9e 76 be be b2 89 be 31 5f 8e be
       -0.2692476 -0.24083908 -0.26894182 -0.27807
0000e0 9c 51 86 be fa 79 bf be 34 d3 9f be de 57 a0 be
       -0.26234138 -0.37397748 -0.31215823 -0.31317037
0000f0 3e a2 85 be ea 6d 22 3e 55 04 a5 be a5 4a c4 be
       -0.26100343 0.15862241 -0.32229868 -0.383382

bn1.running_mean f4 [64]
000000 e0 1f 7f bc 2d b7 fa 3d 4e b9 6c bd 4a 5a 4c 3e
       -0.015571564 0.12241969 -0.057793908 0.19956318
000010 06 90 44 3c 5d 19 11 3e 31 59 6f be 8e c1 03 3d
       0.0119972285 0.14169832 -0.23373868 0.03216701
000020 a8 00 71 bc df 27 ab bd 3e 02 1c be c9 fa 1d 3d
       -0.014709629 -0.08357214 -0.1523523 0.038569245
000030 0c 41 f8 bd dc 2c 9f 3e 94 ef 96 3e 85 52 3d be
       -0.12121782 0.31088912 0.2947966 -0.1848851
000040 aa ba b6 3d ef 1a c7 bd dd 40 c2 3d b5 2c 27 3d
       0.08922322 -0.09721934 0.09485028 0.04081412
000050 4f e7 12 3d 01 85 fd bc e3 d4 55 3d ba 94 4e bd
       0.035865124 -0.03094721 0.052204978 -0.050434805
000060 28 77 f9 3d ee b4 d1 3d 82 33 5a be 01 68 f4 3d
       0.121809304 0.10239588 -0.21308711 0.119339
000070 9f f4 88 3c 4e bb 14 3e 95 60 99 bd 78 41 a3 be
       0.016718207 0.14524576 -0.07489125 -0.31885886
000080 78 af 02 3e 2c 6f 37 be 1a a6 28 3c 16 fc 3d 3c
       0.12762249 -0.17913502 0.010293508 0.0115957465
000090 8a a8 87 bd 32 fa 1d 3e 5b 74 ee bd 82 9e 38 bd
       -0.06623943 0.15427473 -0.11643287 -0.04507304
0000a0 c2 aa 16 be 52 2c e2 3d ef f5 f0 3d 79 93 92 3d
       -0.14713576 0.1104361 0.11765658 0.071570344
0000b0 59 a9 8e 3d 40 a9 48 3e 68 96 31 be ba 57 97 3e
       0.06965894 0.19595814 -0.17342532 0.29559118
0000c0 e7 51 0e be 04 3b 05 3e 39 3e 53 3e 18 3f 0e be
       -0.13898431 0.13010794 0.20629205 -0.13891256
0000d0 81 92 44 be d6 b2 59 be 6e a2 76 3e 21 7f 0b 3e
       -0.19196512 -0.21259627 0.240854 0.13622715
0000e0 a8 8b 49 bd 4f b1 24 be d2 28 96 bd 66 5e 0b be
       -0.049205452 -0.16083263 -0.073320046 -0.13610229
0000f0 5d ae 25 3e f0 61 5e be 77 8a 33 3e b9 ce 99 bd
       0.16179796 -0.21717048 0.17533289 -0.07510132

bn1.running_var f4 [64]
000000 8f 81 bb 3e 42 70 14 3e ec 9f fa 3d 7a 9a 9c 3e
       0.36622283 0.14495948 0.12237534 0.30586606
000010 e6 de 4a 3e fb 9e d9 3e 91 cf ce 3d 9b 9b 29 3e
       0.19811592 0.42504105 0.10098184 0.16563265
000020 87 69 fe 3e 58 d8 78 3e f4 70 c2 3e 98 38 03 3f
       0.49689886 0.24301279 0.379768 0.5125823
000030 59 20 80 3e 6a 86 b7 3e 3b 44 19 3e e7 45 c8 3e
       0.2502468 0.35844737 0.14967434 0.3911583
000040 29 7e fc 3e 8f 35 81 3e 2a 59 ee 3e 93 a1 69 3e
       0.49315003 0.25236174 0.46552402 0.22815542
000050 86 a1 88 3e ce 32 a2 3e 58 8c 48 3e ba c0 35 3e
       0.26685733 0.31679386 0.19584787 0.177493
000060 84 e7 86 3e 35 25 2d 3e f5 fb 1b 3e 89 3a 68 3e
       0.26348507 0.16908725 0.15232833 0.2267858
000070 af ee 00 3f 5d 00 85 3e 80 d4 40 3e 18 16 9a 3e
       0.503642 0.2597684 0.18831062 0.3009498
000080 cd cf 2d 3e d9 e3 84 3e f8 f7 31 3e 98 a7 8e 3e
       0.16973801 0.25955084 0.17379749 0.2786224
000090 7e e8 39 3e b6 e6 67 3e ee 90 9f 3e ed 01 78 3e
       0.18155095 0.22646603 0.3116526 0.24219485
0000a0 34 40 02 3f 75 0f 39 3e ab 9e 47 3e 23 06 16 3e
       0.50879216 0.18072303 0.19494121 0.14650778
0000b0 00 4d 8c 3e a2 c6 e1 3e 12 ec 62 3e e5 21 d0 3e
       0.27402496 0.44096857 0.22160366 0.4065086
0000c0 3c 01 48 3e 3c bf 15 3f 23 19 18 3e 30 17 11 3e
       0.19531721 0.58494925 0.14853339 0.14169002
0000d0 6c 6e aa 3e e4 a5 1c 3e 2a 57 87 3e 63 5a 87 3e
       0.3328737 0.15297657 0.26433688 0.26436147
0000e0 e8 0a 5c 3e a1 c1 8a 3e 4c 0f be 3e f4 95 0f 3e
       0.21488535 0.27100852 0.37121046 0.14022046
0000f0 d0 8b 8a 3e f8 b0 57 3f 4c a1 d5 3d ad 6b 19 3e
       0.27059793 0.8425441 0.104311556 0.14982481

conv2.weight f4 [128, 64, 3]
000000 4d 02 8c 3a 39 1c 52 3c 8e db 5f bc a6 57 a1 3c
       0.0010681838 0.012824112 -0.013663186 0.019695114
000010 a8 e8 1c bd 6e 91 c3 3d 44 de 77 bd 44 32 12 bd
       -0.038307816 0.09549223 -0.060514703 -0.03569247
000020 e5 6c 9d bd c1 9d 85 3d a3 34 af 3d 65 9f 97 3d
       -0.076867856 0.0652423 0.085549615 0.07403449
000030 d5 62 25 b9 96 dd b3 3c 9d f3 8c bb b8 7e 3b bc
       -0.00015772444 0.021956246 -0.004301502 -0.011443786
000040 7e b1 36 bd 28 26 0a bd e9 ea 57 3c 22 9c ab bc
       -0.044602863 -0.033727795 0.013178566 -0.020948473
000050 f0 80 03 3d eb e2 86 bd 47 3a 62 3d d7 a8 ae 3c
       0.032105386 -0.0658625 0.05523136 0.021320743
000060 04 bc c7 bc 1a 15 8a bd 9f 28 77 bd c9 b7 51 3c
       -0.024381645 -0.06742306 -0.060341474 0.012800165
000070 55 57 ea 3d c4 da 25 3a 31 74 38 3c a9 ba 37 ba
       0.114424385 0.0006326849 0.011258171 -0.00070087105
000080 7e 89 b2 3c 7a b5 6b 3d 3f 67 4a 3d 47 0c 29 3b
       0.021794077 0.057546116 0.04941487 0.0025794671
000090 59 e7 00 3d 55 f6 8b bd ec 3a c8 bd 48 f1 7e b9
       0.03147063 -0.068340935 -0.097768635 -0.00024313212
0000a0 2f 9a d5 bb f8 9d 53 3c d3 a2 9e 3d c5 ec c8 3d
       -0.0065186243 0.012916081 0.077459 0.09810785
0000b0 eb 83 f2 3d 09 45 c0 bc 1b 7a d1 bc d8 3e 49 3c
       0.118415676 -0.023470419 -0.02557092 0.0122830495
0000c0 cb c8 7f bd ab 63 3c bd 32 c4 81 bd 71 fe 34 3c
       -0.06244735 -0.04599349 -0.063362494 0.011046992
0000d0 ca 6a ef 3d 95 ab 6a bc fd 01 5c 3c 50 ff 82 bc
       0.1169029 -0.014323135 0.013428208 -0.015990883
0000e0 ad 5c 35 3b 89 bd de bc c0 00 b9 3a ca 62 c2 3c
       0.0027673647 -0.027189987 0.0014114603 0.023728747
0000f0 e4 1d 6f bd 2b f4 a3 bd b9 85 bc bd 8a 18 18 bc
       -0.058378115 -0.08005556 -0.09205193 -0.009283194
000100 80 32 a9 3c 9c 8d 28 3e 2d 47 ce bc 82 41 96 bd
       0.020653963 0.1646027 -0.025180424 -0.073367134
000110 11 12 1a be 2d 60 0f 3c d5 84 03 3d b8 31 d5 3d
       -0.15045954 0.008750957 0.0321091 0.10409874
000120 78 70 b8 3c 7e e0 46 3d bb 19 06 bd f8 0e 2d 3d
       0.022514567 0.048553936 -0.032739382 0.042250603
000130 77 8c a2 3d 6b 50 9b 3d 92 0e 53 bd 4c ca b5 bd
       0.07936948 0.07583698 -0.051527567 -0.08876476
000140 74 d3 c9 bd f9 23 ca bd 62 54 29 bd 8c 37 2b 3d
       -0.098547846 -0.098701425 -0.04134024 0.04180102
000150 d9 70 89 3c f9 79 d9 3b 6b a7 c2 bc 22 bc bd bd
       0.016777443 0.0066368547 -0.023761472 -0.09264399
000160 26 ed 8d bd dd 3a f1 bc 76 d0 4d 3d a7 55 dd 3c
       -0.06929998 -0.029447014 0.050247632 0.027018381
000170 bb 60 41 3d 6e 3f 98 bd 61 29 42 bc b2 84 0e 3b
       0.04721139 -0.07433973 -0.011850686 0.0021746573
000180 98 27 80 bd 40 12 e9 bc 23 de 99 bd eb 3c e3 3c
       -0.06257552 -0.028451085 -0.07513072 0.027739009
000190 57 e6 7c 3d 37 86 cc 3d 93 6b 39 3d 47 cd fb 3d
       0.061743107 0.09986537 0.045268606 0.12295013
0001a0 2d 36 97 3d 4b 5c 7a bd 51 71 c9 3c 87 d4 50 3d
       0.0738338 -0.061123174 0.024590166 0.050983932
0001b0 bc f0 89 3d 94 fb 1c 3d b7 1e 8f 3d 60 86 35 3c
       0.067353696 0.03832586 0.0698828 0.011079401
0001c0 76 50 0b 3d 11 4b 7f 3c 50 19 db 3c a6 a4 4c bc
       0.03401228 0.015581862 0.026745468 -0.012490427
0001d0 b7 26 06 3e 8b df 02 3d df 3e 84 bd b8 15 04 3c
       0.13100706 0.03195147 -0.06457304 0.008061819
0001e0 1c a4 33 bc b5 f3 10 3c df cc 8b bc ea bb 95 3c
       -0.01096442 0.008847167 -0.017065464 0.018278081
0001f0 c5 af e8 3c 50 92 54 3c 54 91 c0 3c e7 e8 6a 3d
       0.028404126 0.012974337 0.023506798 0.05735102
000200 a0 86 e8 bd b4 2d 83 bc b0 4f 6f bd f0 e1 70 3d
       -0.11353803 -0.016013004 -0.058425605 0.05880922
000210 7f fa 3c 3d 76 78 ad 3d 23 7b 5c 3e 38 9a 9e bc
       0.04613733 0.08470242 0.21531348 -0.019360647
000220 20 a1 dd 3c 1c 81 f5 3c e0 21 5b bd ff ad 8c 3b
       0.02705437 0.02996879 -0.053499103 0.004293203
000230 4a fa 44 3c 94 03 ee bc f7 9c 1b bb db 86 9b bc
       0.012022564 -0.02905444 -0.0023744681 -0.018985203
000240 60 a9 d1 3c ea 01 b7 3d b2 3f 97 3c 72 49 f5 bc
       0.02559346 0.08935912 0.01846299 -0.029942248
000250 2b 1b 82 ba 23 82 2a 3c f5 be 8d bc 59 0f 47 3d
       -0.000992631 0.010407004 -0.01730297 0.04859862
000260 0e 65 c4 3d a9 c3 2a bd bc 9d 26 bc f4 a8 5f 3c
       0.09589587 -0.041690502 -0.010169443 0.013651121
000270 45 80 95 3d 2e a3 be 3b b1 f6 2e 3c 58 8c 9b bd
       0.07299856 0.0058177924 0.010678933 -0.07595128
000280 b8 b5 64 3b 03 88 1a bd 17 d5 a0 3c c9 5b 0f 3d
       0.0034898352 -0.037727367 0.01963286 0.034999643
000290 bb 96 bf bd 68 2b 05 3d 3a 5f 68 3d 88 bc a5 bc
       -0.093549214 0.0325121 0.05673144 -0.0202315
0002a0 70 ce 18 bd 8d 67 20 3c 2a 0e c7 bd d8 e9 85 bc
       -0.03730625 0.009790313 -0.097194985 -0.016346857
0002b0 06 87 0f 3e 2f 44 4a 3d ee 96 99 bc e0 32 1d bd
       0.14016351 0.04938143 -0.018748727 -0.038378596
0002c0 cc 39 7e bc bd c6 20 bd 98 c9 c3 3c 01 81 a9 39
       -0.01551671 -0.03925203 0.023899838 0.00032330307
0002d0 f0 a3 f2 3a fb 98 3c ba fb a0 34 bd 84 81 14 bd
       0.0018511992 -0.0007194427 -0.044098835 -0.03625633
0002e0 ca 46 82 3d c2 28 ad ba 03 a6 96 bd 92 fe 0d 3d
       0.06361158 -0.0013210999 -0.07355883 0.034666605
0002f0 cc c8 c2 bd 4c 94 bf 3b ba df 28 bd d2 96 9c 3c
       -0.09510955 0.005846536 -0.041228987 0.019114885
000300 a5 d7 8e 3c c0 a0 16 3c 2e 33 fb 3c fc e0 89 bc
       0.017436812 0.009193599 0.030664053 -0.016830914
000310 c9 b5 23 bb 0c 76 cc bd c7 d9 79 3d 98 54 77 bc
       -0.0024980179 -0.09983453 0.060998704 -0.015095852
000320 c7 ae 9e 3d 4d 05 d2 3d 3b d4 c4 3d fe 8b 61 bd
       0.0774818 0.10254917 0.09610792 -0.055065148
000330 9e af 19 bd 86 ff f4 bd b0 cf 95 3b cd 0e 14 bd
       -0.037520997 -0.119628 0.0045718774 -0.036146928
000340 81 3f 93 bd 75 dc 33 3d 61 47 24 bd 40 2a dc bc
       -0.07189847 0.043911416 -0.040107135 -0.026875615
000350 d7 ad 24 bd be 47 16 bc 9a a5 a8 3d 6f ef 47 bc
       -0.04020485 -0.009172378 0.08234711 -0.0122030815
000360 c4 f5 33 bd 37 08 c6 bd 1e 5b d7 3b f5 08 12 3e
       -0.043935552 -0.096695356 0.0065721413 0.1426123
000370 bf af f1 3c d0 59 9d 3c b4 6c e6 bb f4 3b f6 bc
       0.029502748 0.019207865 -0.0070320014 -0.030057885
000380 e8 4b be 3c 95 ab 3b 3d a3 9c 1c 3d b2 8c 6e bc
       0.023229554 0.04581793 0.038235318 -0.014559912
000390 a3 3c 7d 3c 5d cc 50 bc 8b a4 18 3b 3d 89 62 bb
       0.015456351 -0.0127440365 0.0023291435 -0.0034566664
0003a0 2b c8 e7 bc e2 04 1b bd 9f 04 e7 3d c1 2a 18 3e
       -0.02829369 -0.037846453 0.11280178 0.1486006
0003b0 50 40 7c bc 0e f1 49 bc eb bc 92 bc 9b 33 de bc
       -0.015396193 -0.012325538 -0.017912349 -0.027124217
0003c0 b1 4a 03 bd d2 d4 2a bd 6e 0d 2e bd 2d df ad 3d
       -0.032053653 -0.041706868 -0.042493276 0.08489833
0003d0 67 7c fc bc 27 6a 55 bc cb 96 a8 bc 8a 9d d3 bb
       -0.030821038 -0.013025797 -0.020579716 -0.006457989
0003e0 4c e8 d6 bc 0f 1f 43 bd fc 10 7f bd 93 21 11 bd
       -0.026233815 -0.04763704 -0.062272057 -0.03543241
0003f0 f0 09 b0 bc b8 ef 0f bd b9 34 a7 bd a4 38 4f 3d
       -0.021489114 -0.035140723 -0.08164353 0.050591126

conv2.bias f4 [128]
000000 bf 18 81 3d f4 40 17 bd 9d b1 8d 3d 33 13 12 bd
       0.06303548 -0.03692718 0.06918643 -0.03566284
000010 01 ac 56 3d 95 86 4f bc 95 cd 8d bd 20 f0 54 3d
       0.05241013 -0.012666364 -0.06923977 0.051986814
000020 33 af 91 3c a3 7c 36 3d 1c d1 84 3d d7 83 d6 bc
       0.017783737 0.044552457 0.06485197 -0.026185913
000030 d5 08 20 3d 79 68 6c 3d e0 53 2e 3d 46 d3 47 3c
       0.039070923 0.05771682 0.04256046 0.012196368
000040 fb c8 af 3b f1 49 36 bd c1 f1 0f bd de 4f 6b 3c
       0.005364535 -0.04450411 -0.035142664 0.014362304
000050 8d 73 d1 3c 61 02 80 3c bf ef cd 3c 9b 3a 85 3d
       0.025567794 0.015626134 0.025138734 0.06505319
000060 fe 97 73 3c c0 e7 5c 3d ec c8 48 3d 60 cf 78 bd
       0.014867781 0.05393195 0.04901974 -0.060744643
000070 27 8a 8d 3d 13 69 16 3c 4e 6c 43 bd c7 a3 90 3d
       0.06911116 0.009180325 -0.04771071 0.07062488
000080 c9 9b 6e bc f9 12 02 3d 63 e2 27 bc e5 e7 ef bc
       -0.014563509 0.031756375 -0.010246846 -0.02928538
000090 9b 43 7c bb 69 5a f0 3c 6e 0e fb bc 14 4f 80 bd
       -0.0038492444 0.029339986 -0.030646529 -0.06265083
0000a0 4b c5 f0 39 52 5a 89 bc 51 4b 50 bd a0 ff 54 3d
       0.00045923362 -0.0167667 -0.050853077 0.052001595
0000b0 97 d0 27 bc 67 e9 98 3b 09 93 87 3d 9f a3 c8 bc
       -0.010242603 0.0046664956 0.066198416 -0.024492083
0000c0 0d 95 0d bc 53 44 0e 3d c9 19 5b bc 14 7e 1a bc
       -0.0086414935 0.034733128 -0.013372847 -0.009429473
0000d0 18 3d 69 3d db 6d 87 bd 67 aa 8f 3c 5a 39 89 bd
       0.05694303 -0.0661275 0.017537309 -0.06700392
0000e0 d4 83 8a bc cf e3 8d 3d 5b 85 63 bd de 2e 29 3b
       -0.016908564 0.06928217 -0.0555471 0.0025815289
0000f0 ab 02 f3 3c 95 8d 2d 3d bf fc 05 bc 62 18 9b bc
       0.029664358 0.04237135 -0.008177935 -0.018932525
000100 45 03 ef 3c af 42 ef bc ff 7b 66 3d 95 d8 8e bd
       0.029176364 -0.029206602 0.056270596 -0.069749035
000110 00 24 91 ba e6 85 89 3d 67 a5 b6 3c 72 f5 aa 3c
       -0.0011073351 0.06714992 0.022295667 0.02086899
000120 da 6e 08 3d 62 cc 8b bd c2 80 89 bd 1f 78 72 3d
       0.03330884 -0.06826092 -0.06714012 0.059196588
000130 20 30 21 bd e7 a3 d9 3c 72 ec 6f 3b fd c3 0a 3d
       -0.039352536 0.026567413 0.0036609438 0.033878315
000140 48 3c 54 bd 35 63 f3 bc ea 8c 75 bd 91 b6 92 3d
       -0.0518153 -0.029710392 -0.05994884 0.07163728
000150 6f 5e 40 3c 0c 68 c5 bc f8 46 4b bd 92 70 97 3d
       0.011741265 -0.024097465 -0.049628228 0.07394518
000160 98 ab 30 bc 9c 00 82 bc fd 38 50 3d e8 46 f4 3c
       -0.010783099 -0.015869431 0.0508356 0.029818967
000170 c3 e2 93 3d 5d 0d 60 bd 0e 37 6a 3d ef cb 91 bc
       0.07220986 -0.054700244 0.05718141 -0.017797438
000180 49 98 d7 3c f7 7b 21 bd 06 b2 42 3d be a2 48 bc
       0.026317732 -0.039424863 0.047533058 -0.012245832
000190 7e 69 8d 3d e8 b4 3c 3d ea 0d 62 bb ba 48 3f 3d
       0.06904887 0.046070963 -0.0034493157 0.046700217
0001a0 f3 64 68 bb 2f 48 34 3c e7 2b 06 3c a7 3d 0b bc
       -0.003546056 0.011003538 0.008189178 -0.008498586
0001b0 d0 64 8a bb f3 c9 cc bb 91 6d 92 bd cc d3 12 bd
       -0.0042234436 -0.00624966 -0.071498044 -0.035846516
0001c0 da e7 2a 3d fc fb 9c bc b6 32 6d 3b 6a 5d ec 3c
       0.041725017 -0.019163124 0.0036193556 0.028853137
0001d0 20 28 3e bc dd e2 eb bc ff 02 7b 3d 33 ea 96 3a
       -0.011606246 -0.0287947 0.061282154 0.0011513889
0001e0 c4 4c 84 3d 60 45 45 3b 4a 25 1b bd 9f 07 e4 bc
       0.064599544 0.0030101165 -0.03787736 -0.027835665
0001f0 95 b6 84 bd 34 60 2d 3b e9 60 09 bd 43 16 f7 3c
       -0.06480137 0.0026455047 -0.033539686 0.030161982

bn2.weight f4 [128]
000000 e9 c4 9e 3f b0 50 87 3f 2f 7f ac 3f d8 cb 74 3f
       1.2403842 1.0571499 1.3476313 0.9562354
000010 8e 0c 8a 3f 4e 74 8b 3f f9 41 c1 3f d9 1c aa 3f
       1.0785081 1.0894868 1.5098258 1.3290054
000020 b9 0c a6 3f 09 41 8f 3f 52 bd 99 3f 04 69 70 3f
       1.2972633 1.1191722 1.2010901 0.9391024
000030 5a 8f 83 3f ef 5c 73 3f 00 a8 a7 3f a6 1a 80 3f
       1.0278122 0.9506368 1.3098145 1.0008132
000040 25 30 87 3f 3a 4c 80 3f ce 1f 97 3f 71 e3 99 3f
       1.0561568 1.0023263 1.1806581 1.2022535
000050 81 ac 8f 3f 14 1a 96 3f ae 53 77 3f e0 f6 94 3f
       1.1224519 1.1726708 0.9661206 1.163784
000060 58 e5 af 3f ac 68 ad 3f 6b 08 a5 3f 15 26 8a 3f
       1.3741865 1.3547568 1.2893194 1.0792872
000070 c9 15 9a 3f 02 df 95 3f 8a bb 8c 3f 86 e6 94 3f
       1.2037898 1.1708682 1.0994732 1.163285
000080 27 ad 7e 3f 24 15 80 3f 9a 29 aa 3f 28 0c 93 3f
       0.9948296 1.0006452 1.3293946 1.1488085
000090 1f b8 a4 3f 01 8f ab 3f 70 5f a8 3f 14 6a a6 3f
       1.2868689 1.3403016 1.3154125 1.3001122
0000a0 e2 bf 90 3f 96 e6 af 3f 80 23 a0 3f 5d f6 bf 3f
       1.1308558 1.3742244 1.2510834 1.4997059
0000b0 27 cf 91 3f d8 b7 d2 3f bf da aa 3f c4 32 95 3f
       1.1391343 1.6462355 1.3348006 1.1656117
0000c0 68 24 87 3f 57 a3 90 3f 46 ff b4 3f f3 66 a6 3f
       1.0557985 1.1299847 1.4140403 1.3000168
0000d0 9d 7e 9c 3f 83 b1 7e 3f 04 30 87 3f 56 52 8f 3f
       1.2226139 0.9948961 1.0561528 1.1197002
0000e0 26 fd 86 3f e9 47 8f 3f 40 01 77 3f 31 2c a3 3f
       1.0546005 1.119382 0.9648628 1.2747861
0000f0 51 9c 95 3f d7 f3 89 3f f5 79 98 3f 20 b8 98 3f
       1.1688329 1.0777539 1.1912218 1.193119
000100 69 74 61 3f 4a 4a 79 3f 5f 3b a5 3f 18 7e 9d 3f
       0.8806825 0.9737898 1.2908744 1.2304106
000110 01 b3 89 3f ce 9a 8f 3f a8 8d 82 3f fd c5 8c 3f
       1.0757753 1.1219118 1.019948 1.0997921
000120 f8 8e b4 3f 9c 18 93 3f 34 8e 7b 3f 12 b0 bc 3f
       1.4106131 1.1491885 0.9826386 1.4741232
000130 63 7f 9d 3f f2 f8 82 3f db df 9d 3f c9 93 99 3f
       1.23045 1.0232222 1.233394 1.1998225
000140 31 82 79 3f 5f 7f 87 3f f0 1b 7a 3f 67 f1 ab 3f
       0.9746428 1.0585746 0.9769888 1.3433045
000150 e1 e6 79 3f ae e9 7d 3f 9c 6a 87 3f e8 4a a7 3f
       0.9761792 0.9918469 1.057941 1.3069735
000160 78 c2 8b 3f 69 e1 ab 3f c4 d6 9e 3f 35 c4 8d 3f
       1.0918722 1.3428165 1.2409291 1.1075503
000170 d6 c0 8f 3f bf 66 bf 3f 55 48 9b 3f 69 f4 97 3f
       1.1230724 1.4953231 1.2131449 1.1871463
000180 48 0c 8f 3f b6 f2 9d 3f 0f 42 98 3f a1 ea 85 3f
       1.1175623 1.2339694 1.189516 1.0462228
000190 b8 d3 81 3f a6 e1 8b 3f 1f 93 5f 3f 61 16 d6 3f
       1.0142736 1.0928237 0.87333864 1.672558
0001a0 f3 93 8f 3f e8 15 87 3f 42 26 88 3f d4 68 8e 3f
       1.1217026 1.055356 1.0636675 1.1125741
0001b0 ba e8 94 3f 08 43 76 3f 6c 04 87 3f 6a c2 97 3f
       1.1633523 0.9619603 1.0548224 1.1856205
0001c0 68 53 7c 3f bd 70 90 3f b2 c8 8e 3f 0a 02 88 3f
       0.9856477 1.1284405 1.1154997 1.0625622
0001d0 c2 81 9b 3f be b6 7e 3f 73 5f 8b 3f 93 58 96 3f
       1.2148974 0.9949759 1.0888504 1.1745781
0001e0 de bf 75 3f d8 25 78 3f 6e a1 ba 3f 66 89 a8 3f
       0.9599589 0.96932745 1.4580514 1.3166931
0001f0 c5 9b 87 3f 11 2f 82 3f 79 e8 87 3f 4e 00 a7 3f
       1.0594412 1.0170614 1.061782 1.3046968

bn2.bias f4 [128]
000000 ce 42 11 be 01 e8 92 be 25 f2 3c be d6 52 d9 be
       -0.1418564 -0.2869263 -0.18451746 -0.4244601
000010 67 db 5f be a8 20 23 be d8 4d 17 bd 14 53 e2 bd
       -0.21861039 -0.15930426 -0.036939472 -0.11051002
000020 8a aa 09 be 5d 01 51 be 0e 9f 02 be b2 06 9c be
       -0.13443962 -0.20410676 -0.12755987 -0.30473858
000030 bf 42 8a be af 77 bc be db f2 ff bd 34 d2 92 be
       -0.27004048 -0.3681006 -0.12497493 -0.28675997
000040 55 a8 9a be 21 88 9f be 99 19 89 be f9 68 01 be
       -0.30206552 -0.31158546 -0.26777342 -0.126377
000050 df 7a 00 be de f5 7c be 4b 22 ad be 5a 5e 3c be
       -0.12546872 -0.24703166 -0.33815226 -0.18395367
000060 82 1f be bd 17 52 1e be 1f a5 37 be bf c6 76 be
       -0.092833534 -0.15461002 -0.17934082 -0.24099253
000070 3f 2c 79 be 15 4b 05 be e8 27 8e be ec e8 5d be
       -0.24333285 -0.13016923 -0.2776482 -0.21670884
000080 d3 e0 96 be 4c 9a 29 be 46 a5 cb bd be b5 49 be
       -0.29468402 -0.16562766 -0.09943633 -0.19698235
000090 62 af c6 bd e0 8d 53 be 92 3a 1b be d9 80 1a be
       -0.0970142 -0.2065959 -0.15159062 -0.15088214
0000a0 e4 30 3d be a5 82 62 bd 60 cd 8f be 51 87 aa 3d
       -0.18475682 -0.055300374 -0.28086376 0.08326591
0000b0 ff 34 3b be 48 1c ff 3d 9e 80 34 be df 95 88 be
       -0.18281935 0.12456566 -0.17627189 -0.26676843
0000c0 0e 79 af be 42 b7 70 be 23 bb 45 bc d5 94 3c be
       -0.34272045 -0.23507407 -0.012068543 -0.1841615
0000d0 3a 4c 59 be 7a f3 da be dd 19 96 be 6f 01 ca bd
       -0.21220484 -0.42763883 -0.29316607 -0.09863555
0000e0 cd b2 59 be aa 3f 0c bd 45 91 cd be 75 70 1e be
       -0.21259613 -0.034240402 -0.40149894 -0.15472586
0000f0 c2 34 a1 be 45 4b 85 be be 4d 3a be 51 9a 2f be
       -0.31485564 -0.2603399 -0.18193719 -0.17148711
000100 22 90 96 be f6 85 9f be c3 3a 1a be e6 5a 86 be
       -0.2940684 -0.31156892 -0.15061478 -0.26241225
000110 e5 27 a2 be 9d 06 b0 be fd fb b0 be a2 03 86 bd
       -0.31671062 -0.34380046 -0.34567252 -0.06543662
000120 21 ae 29 be d4 2a 58 be 69 83 61 be f2 7c 0a be
       -0.16570331 -0.21110088 -0.22022785 -0.13524225
000130 98 fe 8c bd 1e 9c 58 be 94 a3 51 be 90 5a c0 bd
       -0.068844974 -0.21153304 -0.20472556 -0.093922734
000140 22 64 8d be fd c8 ae be 2f 64 a3 be dc 80 05 be
       -0.27615458 -0.34137717 -0.31912372 -0.13037437
000150 6f 66 3a be 11 1a a6 be 45 cf 91 be 39 c2 df bd
       -0.18203138 -0.32441762 -0.28478447 -0.10925717
000160 a3 19 af be 3f 59 4f be 03 8a 3c be 8a 6f 9b be
       -0.34199247 -0.20248888 -0.18412022 -0.30358535
000170 44 df 9a be 4a 72 6d bd 96 d3 82 be c2 39 b3 be
       -0.30248463 -0.057970323 -0.25552052 -0.35005003
000180 65 a5 a2 be 58 94 80 be fb 63 7c be 6d a2 87 be
       -0.3176681 -0.25113177 -0.24647515 -0.2649111
000190 e7 b9 5b be d6 d5 ae be a3 e1 ec be c6 5b 0a be
       -0.21457635 -0.3414752 -0.46265897 -0.13511571
0001a0 0a d1 b3 bd ae fa 32 be b3 cc 89 be b0 db 82 be
       -0.087801054 -0.17478439 -0.26913986 -0.25558233
0001b0 08 6e 31 be fa e6 ef be ca 80 9b be ee 2f 54 be
       -0.1732713 -0.4685591 -0.30371696 -0.20721409
0001c0 36 91 f6 bd 91 cd a5 be 60 37 60 be 64 e3 0e be
       -0.120394155 -0.32383397 -0.21896124 -0.1395393
0001d0 37 9d 4c be b5 00 a5 be 86 9f 9c be 7c 23 24 be
       -0.19981848 -0.32227102 -0.30590457 -0.16029161
0001e0 da 13 54 be f7 06 c6 be a6 18 b3 3c 9f e7 47 3a
       -0.20710698 -0.3867719 0.02186234 0.0007625762
0001f0 4e e9 99 be 2a 03 7f be 2a f6 23 be 53 11 13 be
       -0.3006081 -0.2490355 -0.16011873 -0.14362077

bn2.running_mean f4 [128]
000000 b7 9b ed 3d a0 d2 80 be 8a a1 e7 3e 3b 15 73 bc
       0.11601966 -0.25160694 0.45240432 -0.014836605
000010 f3 da fb be da 80 0a 3f d8 06 9c bd a8 d6 d6 be
       -0.49190482 0.5410286 -0.07618493 -0.41960645
000020 d1 d7 47 3e 56 18 17 bf 34 cf b8 3e 79 b2 8b be
       0.19515921 -0.5902151 0.36095583 -0.272846
000030 23 a9 13 bf 14 4e be be ed a5 5c bf 49 53 c5 be
       -0.5767996 -0.37168944 -0.8619068 -0.38540104
000040 d6 4f 1e 3e 9d 98 ba 3e 9a 90 b0 be 00 18 71 3d
       0.15460142 0.3644456 -0.34485322 0.05886078
000050 b3 bc 08 3a e7 9c 22 3e 29 f7 fc bd 5c 5c d6 bd
       0.00052161067 0.15880166 -0.123518296 -0.10466835
000060 25 a2 9f 3c 19 56 7b 3e c5 f3 41 3e a5 58 94 3e
       0.019486496 0.24544562 0.18940647 0.2897388
000070 8a 24 2b be 5f 20 8f bd 64 eb 04 3e b6 1e 53 3e
       -0.16713157 -0.06988596 0.1298042 0.20617184
000080 ac 34 2f 3e 85 69 ca 3e 18 75 ed 3e 75 29 05 3f
       0.17109936 0.3953363 0.46378398 0.52016383
000090 50 cd 09 3f 2b 5c 08 3d a2 7a c5 be ef a3 07 3d
       0.53828907 0.033291023 -0.38570124 0.033115324
0000a0 73 0c ae be ae b6 67 3e bd 03 95 3e bd 57 5d 3f
       -0.33993873 0.2262828 0.29104415 0.86462003
0000b0 70 0c d5 bc 56 ce 21 3f 01 f2 c8 3e e5 28 02 3f
       -0.026006907 0.6320547 0.39247134 0.5084365
0000c0 cc ef ca bd ad f7 ae bc 67 fc b0 3c e9 d6 37 bf
       -0.09909019 -0.021358335 0.02160473 -0.718123
0000d0 86 31 8c bf 93 4d 3f 3c 5f e5 2e be d3 09 5f be
       -1.0952613 0.01167621 -0.17079686 -0.21781091
0000e0 3c a2 79 3c 5b bd 11 3f e7 f7 de 3d af a0 83 be
       0.015236434 0.5692956 0.10887127 -0.2570853
0000f0 95 72 f0 3e 7d 61 ce be f1 20 f8 bd fb 5b 52 be
       0.4696242 -0.40308753 -0.12115658 -0.205429
000100 16 81 ba be 88 af dd 3d e1 2f 3f 3e ad 90 2e 3e
       -0.3642661 0.108244956 0.18670608 0.17047377
000110 3e 63 f7 bc b2 e4 fc 3e 42 32 39 be d4 79 78 3e
       -0.03019869 0.4939323 -0.18085578 0.24265224
000120 a9 e3 a1 3e bb f1 ca be a9 2a 43 3c 34 a1 a8 3d
       0.31619003 -0.3963755 0.011912026 0.08233872
000130 3a 0c 13 3f 0f ba 09 bf 76 45 7c 3d bb 80 f7 be
       0.5744053 -0.5379953 0.06158968 -0.483404
000140 fc 0d 4c be f6 8b 7d be 2c 27 b2 be c6 00 6d 3f
       -0.1992721 -0.24760422 -0.3479551 0.92579305
000150 0d c3 a7 be 47 ec c7 bd cf 00 7c be 12 a7 e7 3e
       -0.32766 -0.09761863 -0.24609683 0.45244652
000160 af 7b 8d bd d5 a0 0a bf cf 4a aa bb 2c 6d c2 3e
       -0.069083564 -0.5415166 -0.005196906 0.37973917
000170 3c c5 aa 3d 93 77 f6 3e 13 62 f9 3e 72 4b c2 be
       0.08338401 0.48138103 0.48707637 -0.37948185
000180 f7 62 4a bd 11 8e 10 bf a8 75 b8 3e e2 77 19 bf
       -0.049410786 -0.56466776 0.36027265 -0.5994855
000190 ef 4e 2a 3f f6 03 bb 3e 4a b2 21 3d a5 93 49 bf
       0.66526693 0.3652646 0.03947667 -0.7874091
0001a0 ca 65 8f 3d 19 b1 19 3e ee 8d b3 be b8 fe 01 3a
       0.070018366 0.15008964 -0.3506922 0.00049589155
0001b0 4b 5d 98 bd c2 92 0d bf 26 c5 ad bd d8 07 a9 bd
       -0.07439669 -0.5530206 -0.08484869 -0.08253449
0001c0 78 f2 c6 3d 0c 14 43 3e 28 be 06 3e 20 f0 e7 3e
       0.09714216 0.19050616 0.13158476 0.45300388
0001d0 f6 9f 03 bf 98 93 f0 be 10 6c d0 be 75 2f 22 bf
       -0.51415956 -0.46987605 -0.40707445 -0.63353664
0001e0 08 84 dd be 1b f4 3b 3e 6a 13 8c be 9c 45 44 3f
       -0.43264794 0.18354838 -0.27358562 0.76668715
0001f0 78 a2 fe be ed 75 06 3f 36 4d 91 3e 18 69 81 be
       -0.4973333 0.5252369 0.2837922 -0.25275493

bn2.running_var f4 [128]
000000 71 49 4a 3f 8b 3a 78 3f fa 1e 85 3f d0 10 46 3f
       0.7901831 0.9696433 1.0400078 0.77369404
000010 63 93 70 3f b6 66 15 3f 03 54 7e 3f 91 20 5d 3f
       0.93974894 0.5835985 0.9934694 0.8637782
000020 e4 05 75 3f b4 93 38 3f 8b e5 6b 3f fe 52 3e 3f
       0.95712113 0.7210038 0.9214713 0.74345386
000030 20 45 59 3f 94 14 30 3f cd 38 5b 3f 8c f0 25 3f
       0.848711 0.687814 0.85633546 0.6482017
000040 4a f1 09 3f bc 52 3f 3f 22 bc 6e 3f 3c 60 8b 3f
       0.538838 0.7473562 0.9325582 1.0888743
000050 b9 81 6a 3f 32 c2 3f 3f ab be 66 3f 41 8c 68 3f
       0.9160419 0.74905694 0.90134686 0.9083901
000060 11 fe 5a 3f dc f6 77 3f 92 f5 51 3f c0 f9 48 3f
       0.85543925 0.9686105 0.82015336 0.7850609
000070 db 89 73 3f 93 d7 55 3f f7 45 46 3f 93 48 53 3f
       0.95132226 0.83532065 0.7745051 0.82532614
000080 5e 8c 0e 3f 95 9d 2c 3f 4f 31 62 3f de af 52 3f
       0.55682933 0.6742795 0.8835649 0.822996
000090 09 cb 57 3f bc fd 4e 3f ca 48 5f 3f 42 26 57 3f
       0.8429418 0.8085592 0.8722044 0.8404275
0000a0 4f 22 7b 3f d3 7f 8e 3f 11 46 87 3f 48 87 a8 3f
       0.98099226 1.1132759 1.0568258 1.3166285
0000b0 df 7d 37 3f 80 a8 8d 3f 87 86 33 3f fa d7 2e 3f
       0.7167644 1.1067047 0.7012715 0.68298304
0000c0 94 6b 5c 3f 81 7d 61 3f 36 b7 63 3f ef bf 62 3f
       0.8610165 0.8808213 0.8895143 0.8857412
0000d0 c1 44 82 3f b9 a5 65 3f 20 36 3c 3f 6b e9 19 3f
       1.0177232 0.89706 0.7352009 0.6012179
0000e0 90 c5 32 3f f5 18 30 3f 3c 46 2e 3f e9 6e 82 3f
       0.69832706 0.6878808 0.6807592 1.0190097
0000f0 e9 7f 14 3f 4a ef 5b 3f 00 54 56 3f c1 07 59 3f
       0.58007675 0.85912 0.83721924 0.84777457
000100 81 2d 3b 3f 9d 9f 45 3f 3f 71 2c 3f 20 ee 5f 3f
       0.7311631 0.77196676 0.673603 0.87472725
000110 78 14 3f 3f c4 09 24 3f 4a fe 31 3f b3 a8 61 3f
       0.7464061 0.640774 0.6952864 0.8814804
000120 9f f0 86 3f fc b1 4e 3f 2b 1a 50 3f 26 56 59 3f
       1.0542182 0.8074033 0.8128993 0.8489708
000130 ba dc 49 3f 55 b4 4c 3f 49 14 45 3f 31 ee 48 3f
       0.78852427 0.79962665 0.7698408 0.7848845
000140 90 e1 67 3f 40 05 3d 3f c5 c6 30 3f 51 61 43 3f
       0.90578556 0.73836136 0.690533 0.7632037
000150 04 28 0d 3f 47 4a 30 3f 50 42 59 3f ff 42 5a 3f
       0.55139184 0.6886334 0.8486681 0.8525848
000160 a0 ab 58 3f e3 38 7c 3f 01 e1 31 3f d1 ca 48 3f
       0.8463688 0.985243 0.69483954 0.78434473
000170 33 d8 3b 3f 1a dc 42 3f 84 37 22 3f 17 8b 66 3f
       0.7337677 0.761171 0.6336596 0.90055984
000180 02 60 20 3f 04 1c 58 3f cb b7 3a 3f de fe 45 3f
       0.62646496 0.8441775 0.72936696 0.7734202
000190 69 b4 2c 3f a5 02 49 3f 30 30 2f 3f a9 d5 86 3f
       0.67462784 0.7851966 0.68432903 1.0533954
0001a0 5e 25 29 3f 36 24 36 3f f1 df 32 3f 32 cd 52 3f
       0.6607264 0.71149004 0.6987296 0.82344353
0001b0 e9 7a 1a 3f d8 7c 3e 3f 29 55 82 3f 5f 10 28 3f
       0.60343796 0.74409246 1.0182239 0.6564998
0001c0 ee 6b 36 3f 6c 1d 57 3f 1c c6 47 3f 14 0c 1e 3f
       0.7125844 0.8402927 0.78036666 0.6173718
0001d0 59 11 33 3f 45 d9 35 3f db 55 59 3f 2f 00 5c 3f
       0.69948345 0.7103465 0.8489663 0.8593778
0001e0 ca fa 3d 3f 89 ac 2a 3f b0 5a 8c 3f b3 24 66 3f
       0.742108 0.6666952 1.0965176 0.8989975
0001f0 67 e6 2e 3f 18 af 3a 3f ea 2e 40 3f a2 b3 72 3f
       0.68320316 0.7292342 0.75071585 0.9480535

classifier.0.weight f4 [128, 384]
000000 63 e1 c5 3c 42 2e 82 bd 16 ed a1 3d 90 9a a1 3d
       0.024155324 -0.06356479 0.07906549 0.078908086
000010 d6 19 90 3d f7 58 08 bd 72 d4 76 bc 21 e2 ca bc
       0.07036178 -0.03328797 -0.015065299 -0.02476603
000020 cc 5d 9a bc 52 8a b3 3d 3b d6 4d bd 60 70 67 3d
       -0.018843554 0.08766617 -0.050253134 0.056503654
000030 c5 fe e9 bb 34 a2 07 3d 88 52 07 bd 6b 6f 39 bc
       -0.0071409666 0.033113673 -0.033037692 -0.011318068
000040 30 cc 06 bd ae 51 56 3b db be 13 bd 89 05 8d bd
       -0.032909572 0.0032702493 -0.036070686 -0.06885821
000050 ae e4 09 bc c5 01 38 bc 97 b6 ac 3d 01 d9 86 bd
       -0.008416338 -0.011230891 0.08433264 -0.06584359
000060 c8 73 a5 bd c8 68 a6 bd 6a 26 41 be 1c 4c 57 bd
       -0.08078724 -0.08125454 -0.1886231 -0.052562818
000070 a9 d9 09 3d 7d 37 3a be d4 e0 7f bd fb ec 52 bd
       0.033654843 -0.1818523 -0.062470272 -0.051495533
000080 fb 5c b4 bd 1d fa 50 3c d4 56 f7 3d 4b b5 f0 bd
       -0.08806797 0.012754944 0.12077108 -0.11753329
000090 20 7d 4d 3d 0e 66 53 3d cb 6f dd 3d 7d f1 9c 3d
       0.050168157 0.051611 0.108123384 0.07663248
0000a0 5d d1 b0 3d 69 8d b6 bd 4c 44 14 bc fd 44 d1 bc
       0.08633683 -0.089136906 -0.009049486 -0.025545591
0000b0 d7 ed 59 bd 6e 27 4b 3d 47 da 72 bd bc e5 7a bd
       -0.053205337 0.04959815 -0.059290197 -0.061254248
0000c0 b4 73 4a bc ba 84 0c 3d 6d 31 ad 3d a3 94 aa bc
       -0.012356687 0.034306265 0.08456693 -0.020822829
0000d0 de 0e 79 3d 84 2b da 3d 47 c2 3f 3d 80 e0 11 3d
       0.060805194 0.10652831 0.046816137 0.03561449
0000e0 4d 5c 72 bc db 5b 9d bd 20 03 21 bd b7 bb f3 bc
       -0.014792514 -0.07683536 -0.03930962 -0.029752595
0000f0 1a ba cd 3c 50 61 b4 3c 40 47 b0 bd b0 b5 fe 3c
       0.025113154 0.022019058 -0.0860734 0.031092495
000100 49 79 b5 bd df c2 e9 3c 25 df 1e 3c 97 dc af 3d
       -0.08861024 0.028535305 0.0096967565 0.08586996
000110 f6 77 b4 bd 79 39 5b 3d dd 73 c0 3d 59 1b 33 bd
       -0.08811943 0.053521607 0.09397099 -0.043727253
000120 47 a9 0a 3d 62 9a 35 3d b2 2a e5 3c b7 e1 c5 bb
       0.03385284 0.044336684 0.02797446 -0.00603887
000130 b3 4a 1f 3c a9 c0 8b 3d 7e eb e9 bd 98 6f 04 3c
       0.0097223995 0.068238564 -0.1142187 0.008083247
000140 ff 05 11 be b7 43 48 3d 0d 42 9e 3d 51 ca 5a bd
       -0.14162444 0.048892703 0.07727442 -0.0534156
000150 71 2d b4 bc 79 76 90 3c b0 fa 99 3d d4 49 b1 bc
       -0.021994324 0.017634617 0.07518518 -0.02164165
000160 44 56 78 3d 5c 05 e2 bb 2a f4 62 3c dd d8 d0 bc
       0.060629144 -0.0068976115 0.013852159 -0.025494033
000170 4c 0c 95 3c 09 b6 a0 3d ba 4e c6 3c 58 1d 09 3e
       0.01819434 0.078472205 0.024207462 0.133901
000180 63 e2 32 3d c3 bf ed bc 01 25 fa 3c 24 39 18 be
       0.04367293 -0.029022103 0.030535223 -0.14865547
000190 71 51 94 3c 3a 29 f5 39 77 a3 df bc 0e 5a 96 bd
       0.01810524 0.00046760758 -0.027299626 -0.07341395
0001a0 fd c2 2c 3d b0 86 28 3c 67 58 a9 bc 4c 4d 73 bc
       0.042178143 0.010286018 -0.020672036 -0.014849972
0001b0 2c 13 1e bd f0 27 b0 bd 85 7e fa 3c ea 89 e0 3c
       -0.038592502 -0.086013675 0.030577907 0.027409513
0001c0 00 10 75 bb 89 fb 79 3d 1c 6d 54 bc e1 d7 80 bd
       -0.003739357 0.0610309 -0.012965467 -0.06291176
0001d0 48 6a e0 3b c9 44 9e bc 9a c7 b2 3b bf aa 51 bc
       0.006848607 -0.019319909 0.0054559233 -0.012797057
0001e0 b7 bf cb bc 13 b1 bb 3d 5e 65 a5 bd 49 92 52 be
       -0.02487169 0.091646336 -0.08075975 -0.20563616
0001f0 da 9b 35 be a4 5f fd bd d0 fa 7e 3d 93 be 17 3c
       -0.17735234 -0.123717576 0.062250912 0.009261745
000200 b7 9a cf 3c 3d 6c 14 be f9 37 c0 bd 29 dc 0a be
       0.025342328 -0.14494415 -0.09385676 -0.13560547
000210 aa fb b2 3b 0a b4 7f 3c c5 bf 00 bd ec d4 38 be
       0.0054621296 0.0156068895 -0.031432886 -0.18049973
000220 cc 39 0b be 3f 82 9e bd 52 ea 2d 3d 7d 24 27 3d
       -0.13596267 -0.07739686 0.042459793 0.040806282
000230 a0 c5 0e 3e 53 97 24 3d b6 83 93 bd f4 06 4d 3d
       0.13942575 0.040183377 -0.07202856 0.05005546
000240 20 16 58 3c 90 2e 3e bd 96 8b 80 3c 38 55 97 bd
       0.013188869 -0.046431124 0.01569156 -0.07389301
000250 29 92 19 be 62 99 e7 bd ac 7a 9d 3b 1c 5d 99 bd
       -0.14997162 -0.11308552 0.0048058834 -0.07488462
000260 f6 ad 26 bd 38 36 48 3d e0 ca a5 3c bc 06 5d bd
       -0.040693246 0.048879832 0.02023834 -0.0539615
000270 40 93 57 3c 12 b5 c1 3d 92 93 be bd 0d 17 50 3d
       0.013157666 0.094583645 -0.093054906 0.050803233
000280 e2 b8 4e bc 5d 3e 04 be 5f ca 05 be 3a 7a 51 bd
       -0.012617322 -0.12914415 -0.1306548 -0.051141955
000290 74 9a 87 3d d8 0f 9f bd dd 51 27 3d ee 6b f2 bd
       0.066212565 -0.07766694 0.040849555 -0.11836992
0002a0 04 22 3f 3b 40 c2 a7 bc 5f 30 62 bd 06 54 1c bc
       0.0029164562 -0.020478368 -0.05522191 -0.009541517
0002b0 d2 b4 6b 3c 9f af f2 3c f5 ff 8a bb 8c 85 b9 bb
       0.014386373 0.029624758 -0.0042419382 -0.005661672
0002c0 c5 9a d1 bd 57 d7 23 3c 0b 66 42 3d 29 04 e0 bc
       -0.10234598 0.0100000715 0.047460597 -0.027345734
0002d0 a0 08 8b bd 15 59 a1 3d d1 1c 08 3e 7b fb be 3c
       -0.067887545 0.07878319 0.13292243 0.023313275
0002e0 8f 44 8f 3d 3a 7b d5 bd 99 8f d2 3c 8d f7 7c bc
       0.069954984 -0.10423894 0.025703238 -0.01543988
0002f0 90 e7 df 3b 7b 37 6d 3d e8 ca f1 3d 70 e5 00 be
       0.0068330243 0.05791424 0.118062794 -0.12587523
000300 bc 93 50 3c 08 a5 3c 3c 22 14 bf bd af 13 3a 3d
       0.012730535 0.011513956 -0.09330012 0.045428928
000310 d8 32 cf bc e9 f2 86 3d de 0f f6 3b ab 1e 4d bd
       -0.025292799 0.065893 0.0075092157 -0.050078075
000320 08 d9 22 bd e0 30 18 bb c2 0d 97 bc 95 3c 07 3e
       -0.03975776 -0.002322249 -0.018439177 0.13206704
000330 55 0e 28 3d 36 2c 61 bc e3 b8 c0 bd f9 a0 91 3c
       0.041029293 -0.013743451 -0.09410264 0.017776953
000340 06 61 9b bd e7 7e 84 3d 09 e1 bb 3c 28 05 9a bc
       -0.07586865 0.06469517 0.022934454 -0.018801287
000350 5b 08 8f bd cd d2 bc bd 62 85 9a bd 36 8f 0b be
       -0.069840156 -0.092198946 -0.07544972 -0.1362885
000360 90 74 d9 bc a1 a3 6e bc 8a 8a 39 bd af 26 a4 3d
       -0.02654484 -0.014565379 -0.045298137 0.08015191
000370 e6 a3 13 3d 41 f0 2d bd d3 e9 ca 3c 26 b0 a7 3c
       0.036044978 -0.042465452 0.0247697 0.020469736
000380 65 fe 89 3a 5b 4c 23 bd fa 41 43 bd a5 90 27 be
       0.0010528086 -0.03986774 -0.047670342 -0.16363771
000390 85 4f 98 3c ee 8b 46 3c e8 b2 13 bd 17 fb 65 3c
       0.018592605 0.012118323 -0.03605929 0.014036915
0003a0 41 94 ed bc 59 ab d4 3c be ef ab bd 0d 2e 61 bd
       -0.029001357 0.025960611 -0.083953366 -0.054975558
0003b0 d5 e3 73 be f9 2f 46 bd a5 ad 37 bd 2f 17 d4 bd
       -0.2381738 -0.048385594 -0.044843335 -0.103559844
0003c0 42 4f 92 bd 4b b0 ae 3d 74 82 f5 bd b9 19 13 bd
       -0.071440235 0.08529719 -0.119877726 -0.035913203
0003d0 16 39 50 bd ef 1c c2 3d d7 c8 f2 bc 51 eb 51 bc
       -0.05083569 0.09478175 -0.029636784 -0.012812451
0003e0 19 5f db bd 22 33 ce bd 76 0c 93 ba 03 b2 dd 3d
       -0.10711498 -0.100683466 -0.0011218924 0.10824969
0003f0 1e a2 aa bd 8c 08 0a bd 28 a9 e2 bd ea 78 9a 3b
       -0.08331703 -0.033699557 -0.1106742 0.004714121
